best_tst_model.pth (torch, 971206 bytes, 69 tensors)

positional_encoding f4 [1, 30, 64]
0.32438186 1.1376879 -0.30265346 -0.13972893 0.5571789 -1.0204661 0.33030888 -1.4752078
1.0633742 -0.44344863 0.1605843 -0.47940934 -0.5537699 -0.4666536 -0.39543402 -0.38782293
-0.15664873 1.341294 0.30979893 0.13219616 -0.98612964 0.8138083 0.8756023 0.56175554
1.9429209 -1.7661417 -1.8179518 -0.7476152 -0.17167369 -1.5899559 -0.53767484 -0.4604084
1.0046675 0.6841587 -0.5461553 -0.5573825 0.6604375 0.85951775 0.15812957 -0.10403726
1.2678517 2.0744686 -0.9517533 0.093471065 -0.79232985 0.8555552 -0.568052 -0.20448843
-1.4790035 0.04240462 -0.29248956 0.9839563 0.020915138 0.7845003 -0.06729722 -0.7859364
0.65663826 0.37618467 -0.5643005 -0.06137773 -0.32079908 -1.122081 -0.5245029 -0.15254109
-0.42409942 -0.5713282 -0.5012553 0.10124207 1.6557306 0.13661304 0.32687902 -0.7959278
-1.2401162 -0.618601 0.033529807 -0.04511343 -1.5229168 -0.058321938 0.23918718 0.4800323
-0.8060345 1.0508821 0.8754989 0.5486002 -0.97775537 -0.0042028637 0.808863 0.46051532
-0.46685478 -1.2943288 -0.26403877 -0.32445744 -0.17189005 0.044637382 -0.10114645 0.85054225
1.154598 -0.124669336 0.40750456 0.23906358 0.47947595 1.4804487 0.3728172 0.58343357
0.20821364 -1.7176241 0.25078526 0.8745627 1.1114299 1.0142914 -1.5666299 -1.530745
1.5033125 1.3037335 -1.6747237 -0.8413865 2.915475 -0.7631674 0.7225423 -1.2202885
1.3937031 -1.4946604 0.0063128876 0.09998413 0.8979672 -0.94715345 -0.47879857 0.7085098
0.50733435 1.3739744 0.62302303 0.62725884 -0.4769517 0.3321552 0.987882 -1.3675514
0.24388507 -0.5476754 -0.1994122 0.8552892 -0.6818823 -0.57472605 0.253647 0.7490342
2.479931 0.26376492 1.4259728 -1.8635801 -1.2894723 1.1637377 0.032719344 -0.43504208
1.5506058 -1.2180033 -0.03367642 0.29102382 2.0005553 -0.7010302 1.4995548 0.4816657
-0.16077104 -0.7669272 0.47674638 0.30731592 -0.7951984 0.052097544 -1.3500626 1.8395175
0.18573444 -0.015578736 -0.6315219 -0.7704132 -0.094468705 -1.0070091 -1.6608173 -0.5173242
-1.0882728 -0.5049307 -0.58215016 -0.30121827 -1.2109038 -0.5537176 0.29476243 0.6151546
0.3337344 -0.9185265 1.2252634 -1.7423159 -0.45931056 -0.6111788 -0.56486905 0.62884754
-1.8083309 1.395842 0.60126173 0.07818116 0.26560292 1.3793968 -0.85663146 -0.011812884
-2.1897814 0.38343805 -0.70052004 1.0367512 -0.46933055 1.1345462 -1.1729085 2.2756758
-1.4681929 -0.6869924 -1.2769508 1.1846997 -1.4776052 -0.5987998 0.25914946 0.25549114
0.7378081 -0.72689617 0.76376486 1.0973067 -1.2949904 0.7902298 -0.52502894 0.36212578
-0.9228128 -0.022812726 -0.030102761 -1.11298 -0.036744043 0.2118618 -0.58242816 1.2098539
-0.6628205 2.0851605 -0.42895955 -0.20381339 0.8889423 -0.9758711 -1.4379852 -0.4717185
-1.3832043 -0.024690978 -0.8952218 -0.24033839 -0.5949152 0.61610895 0.41744035 0.185613
0.90538 -0.7297322 0.23923708 -0.46197802 0.6530537 -1.7944816 -2.1914008 1.0941497
00000000: 6115 a63e c29f 913f 65f5 9abe 1a15 0fbe
00000010: 47a3 0e3f a29e 82bf 3f1e a93e 9cd3 bcbf
00000020: a51c 883f b30b e3be 3670 243e 2475 f5be
00000030: ddc3 0dbf 38ed eebe 5476 cabe ba90 c6be
00000040: 8668 20be 86af ab3f f79d 9e3e 6e5e 073e
00000050: fe72 7cbf be55 503f 7927 603f 36cf 0f3f
00000060: a2b1 f83f ee10 e2bf a5b2 e8bf b663 3fbf
00000070: 3acb 2fbe ad83 cbbf 0fa5 09bf a6ba ebbe
00000080: f298 803f 0625 2f3f d5d0 0bbf 9fb0 0ebf
00000090: 6f12 293f 5b09 5c3f b8ec 213e 7d11 d5bd
000000a0: f748 a23f 18c4 0440 1ba6 73bf c26d bf3d
000000b0: 21d6 4abf aa05 5b3f db6b 11bf 6a65 51be
000000c0: fd4f bdbf 78b0 2d3d 31c1 95be 8fe4 7b3f
000000d0: 3956 ab3c 03d5 483f 20d3 89bd 2133 49bf
000000e0: 7219 283f 479b c03e ff75 10bf 3767 7bbd
000000f0: c73f a4be 5aa0 8fbf d245 06bf bb33 1cbe
00000100: 8f23 d9be 9142 12bf 4452 00bf 0158 cf3d
00000110: fbee d33f 4ae4 0b3e b05c a73e edc1 4bbf
00000120: 21bc 9ebf a35c 1ebf 8d56 093d dcc8 38bd
00000130: f0ee c2bf fce2 6ebd 7ced 743e cbc6 f53e
00000140: 4758 4ebf 4e83 863f b220 603f 1071 0c3f
00000150: 2d4e 7abf 2db8 89bb a511 4f3f aac8 eb3e
00000160: 9707 efbe 91ac a5bf 1730 87be 491f a6be
00000170: f203 30be b0d5 363d df25 cfbd 23bd 593f
00000180: dec9 933f a352 ffbd 70a4 d03e 15cd 743e
00000190: df7d f53e 587f bd3f e5e1 be3e e75b 153f
000001a0: f535 553e 1bdb dbbf ed66 803e 57e3 5f3f
000001b0: 5643 8e3f 4dd4 813f 5487 c8bf 74ef c3bf
000001c0: 8b6c c03f bde0 a63f 595d d6bf 1b65 57bf
000001d0: 2497 3a40 f05e 43bf 88f8 383f 6a32 9cbf
000001e0: dd64 b23f 0851 bfbf 57dc ce3b 7bc4 cc3d
000001f0: 2ee1 653f a678 72bf 1625 f5be e660 353f
00000200: aae0 013f 65de af3f 707e 1f3f 0994 203f
00000210: 0333 f4be 3f10 aa3e d6e5 7c3f ed0b afbf
00000220: 02bd 793e 7434 0cbf b632 4cbe 3cf4 5a3f
00000230: d78f 2ebf 3f21 13bf 05de 813e b5c0 3f3f
00000240: 31b7 1e40 320c 873e 4786 b63f cb89 eebf
00000250: 6e0d a5bf 5bf5 943f b804 063d d6bd debe
00000260: 407a c63f 88e7 9bbf 49f0 09bd 1301 953e
00000270: 1909 0040 b776 33bf 69f1 bf3f e39c f63e
00000280: 2aa1 24be 5755 44bf 1a18 f43e 8358 9d3e
00000290: 1f92 4bbf 3c64 553d dace acbf 4f75 eb3f
000002a0: 2b31 3e3e f43d 7fbc 6bab 21bf cd39 45bf
000002b0: cf78 c1bd ade5 80bf a995 d4bf 5c6f 04bf
000002c0: 864c 8bbf 2343 01bf cb07 15bf 4839 9abe
000002d0: e5fe 9abf 70c0 0dbf 1aeb 963e c67a 1d3f
000002e0: 3cdf aa3e 8d24 6bbf 6ed5 9c3f 3504 dfbf
000002f0: c12a ebbe 3776 1cbf 429b 10bf 27fc 203f
00000300: 6377 e7bf f3aa b23f 4aec 193f 721d a03d
00000310: 1bfd 873e 1390 b03f 334c 5bbf d48a 41bc
00000320: 6125 0cc0 fe51 c43e 4855 33bf 43b4 843f
00000330: 184c f0be cf38 913f de21 96bf aca4 1140
00000340: bfed bbbf bcde 2fbf 2073 a3bf 3da4 973f
00000350: 2b22 bdbf f24a 19bf 3daf 843e bccf 823e
00000360: fee0 3c3f de15 3abf 1886 433f 8c74 8c3f
00000370: 3fc2 a5bf 804c 4a3f 4c68 06bf 8d68 b93e
00000380: 763d 6cbf c1e1 babc 119a f6bc 2176 8ebf
00000390: ec80 16bd 4df2 583e 031a 15bf 7edc 9a3f
000003a0: 9bae 29bf 4573 0540 96a0 dbbe 75b4 50be
000003b0: b991 633f b0d2 79bf e60f b8bf 1685 f1be
000003c0: d70c b1bf bc44 cabc 422d 65bf 441b 76be
000003d0: 5d4c 18bf 51b9 1d3f beba d53e 5611 3e3e
000003e0: fcc6 673f bbcf 3abf 91fa 743e 6288 ecbe
000003f0: 872e 273f 93b1 e5bf e93f 0cc0 190d 8c3f

input_projection.weight f4 [64, 5]
-0.3710957 -0.42289123 0.506321 -0.48332113 -0.078781396 -0.32830524 0.35537982 -0.28905213
0.073321775 0.563917 0.2616304 -0.25611988 0.22627528 0.40945435 -0.4454202 -0.22940376
0.11492828 0.29758564 -0.087907955 0.28168532 0.059437495 -0.017028326 0.4993061 -0.39056468
-0.20636812 0.12537502 0.42636517 -0.07311551 -0.3472353 -0.4450769 -0.3266821 -0.0027804342
-0.0333791 -0.4159866 0.2954492 0.027449548 0.3013215 0.4487627 -0.08893367 -0.01721352
-0.4464818 -0.17884888 0.29570952 0.12984878 -0.25510156 -0.21376951 0.10582447 -0.15606321
-0.06729781 -0.14244433 0.19365361 0.09582635 0.48350555 -0.023064328 -0.13911672 0.05808113
0.1634675 0.34113 -0.22632182 0.45792726 -0.1393009 -0.28992194 -0.44819722 -0.022109581
-0.47492117 -0.301732 0.30778253 0.49393597 0.10815458 0.25710636 -0.14832152 0.29494065
0.46950465 -0.061769668 0.37876698 -0.14651054 0.14907308 -0.4720851 -0.46518278 0.09109549
0.29715377 0.030456271 0.15979311 -0.041591976 -0.22218813 -0.051124074 -0.019880751 -0.21975112
0.01791985 0.10276097 -0.44432965 0.32840768 -0.077335425 0.04910506 0.13199878 -0.27355513
-0.30821508 0.25409284 0.14960758 0.107162066 0.11418829 0.27306357 -0.3460468 -0.13734597
-0.27859947 0.42586997 -0.34957114 0.16676272 0.4230604 0.15690656 0.43701154 -0.13119258
-0.11745111 0.3819048 0.019377988 0.54197097 0.2690325 0.27228796 -0.44605815 -0.1841104
0.032028418 -0.22624496 -0.46012467 0.003499807 0.28837103 0.30175036 -0.0062308894 0.50371486
0.41732875 0.27053115 0.24177411 -0.39120924 0.0724681 0.17691226 -0.38598928 0.0330039
0.24422398 0.101209015 0.27108154 -0.5231631 0.100088224 -0.11835934 -0.32181516 -0.3329805
-0.44847152 0.21074545 -0.19253811 -0.19216621 0.40405986 -0.104659274 0.37858742 -0.22684534
0.040067296 -0.17210296 0.4058968 -0.28556645 0.28801936 -0.4053938 0.48869205 0.4148465
0.25473988 -0.2677435 0.34949157 0.19372612 -0.40370104 0.36618322 0.051059846 0.25941378
0.5366088 0.4556033 -0.39764866 -0.010376041 -0.24858466 -0.3736319 -0.32470435 -0.2505646
-0.28126478 0.31427214 -0.018469714 -0.021474753 0.49179012 0.25854623 -0.46465653 0.19161761
0.4996305 0.37713236 0.15746294 0.06827048 0.41283384 -0.17251523 0.16416556 -0.16846992
-0.22756483 0.018893534 -0.057868004 -0.3887603 0.23759584 0.14459868 -0.22848774 -0.11787326
0.15217802 0.28970808 -0.043968417 -0.16474324 -0.15607864 -0.25206435 0.41204733 -0.15910263
0.44997653 0.35351697 -0.4844835 -0.10601127 -0.30492705 0.43401918 0.29277852 -0.3166102
-0.18625796 0.071339235 -0.47725144 0.15106899 -0.19836766 -0.26482528 0.16458313 -0.043417428
0.3491161 0.040168792 -0.18326119 -0.09573595 0.39998865 -0.44522855 0.21019402 -0.03614355
0.40451902 0.2717821 -0.03626294 -0.37647232 0.06960746 -0.14485697 -0.25740156 -0.46231854
-0.5052177 0.3578593 -0.32257992 0.13625254 0.17664048 -0.057879265 -0.10671283 0.120728515
0.024776537 0.21851304 0.12616517 0.040513285 -0.022996366 0.2583798 0.08693143 -0.122939624
00000000: 4100 bebe 3385 d8be 419e 013f de75 f7be
00000010: 2458 a1bd a017 a8be 58f4 b53e a4fe 93be
00000020: ba29 963d dd5c 103f 6bf4 853e 2522 83be
00000030: b5b4 673e 00a4 d13e 1e0e e4be d2e8 6abe
00000040: 855f eb3d 255d 983e 1609 b4bd 0f39 903e
00000050: bb74 733d fd7e 8bbc 0da5 ff3e 18f8 c7be
00000060: 2a52 53be 4f62 003e 894c da3e 96bd 95bd
00000070: d3c8 b1be 1fe1 e3be e042 a7be f237 36bb
00000080: 86b8 08bd 32fc d4be 1e45 973e e0dd e03c
00000090: d046 9a3e 3ac4 e53e db22 b6bd 5e03 8dbc
000000a0: 4399 e4be 2924 37be 3d67 973e 14f7 043e
000000b0: ac9c 82be 65e6 5abe 80ba d83d 09cf 1fbe
000000c0: 6fd3 89bd eddc 11be 224d 463e 9b40 c43d
000000d0: 0a8e f73e 67f1 bcbc 9d74 0ebe 7be6 6d3d
000000e0: 0664 273e 97a8 ae3e e8c0 67be 7175 ea3e
000000f0: e5a4 0ebe a670 94be 1b7a e5be 271f b5bc
00000100: de28 f3be 9e7c 9abe ac95 9d3e 2de5 fc3e
00000110: 2680 dd3d 72a3 833e 99e1 17be 7602 973e
00000120: ea62 f03e 3102 7dbd bfed c13e dc06 16be
00000130: 9da6 183e 23b5 f1be 702c eebe 4690 ba3d
00000140: 8a24 983e 6e7f f93c cea0 233e 595c 2abd
00000150: 4985 63be 7a67 51bd f5dc a2bc 7006 61be
00000160: a6cc 923c 5874 d23d 2d7f e3be 0d25 a83e
00000170: 0962 9ebd 6322 493d b02a 073e 6b0f 8cbe
00000180: 5ece 9dbe 7518 823e bb32 193e c977 db3d
00000190: 8ddb e93d fdce 8b3e 0c2d b1be 6ca4 0cbe
000001a0: 97a4 8ebe a10b da3e fdfa b2be d9c3 2a3e
000001b0: 5f9b d83e 1dac 203e fabf df3e 5957 06be
000001c0: 358a f0bd 0789 c33e 96be 9e3c 9cbe 0a3f
000001d0: a1be 893e 5469 8b3e bc61 e4be 7087 3cbe
000001e0: 3b30 033d c2ac 67be 7695 ebbe 055d 653b
000001f0: 5ea5 933e 067f 9a3e 7d2c ccbb 75f3 003f
00000200: 1dac d53e 0f83 8a3e a293 773e 944c c8be
00000210: 286a 943d 7d28 353e 63a0 c5be 192f 073d
00000220: da15 7a3e ac46 cf3d 33cb 8a3e 04ee 05bf
00000230: 0efb cc3d 6266 f2bd f5c4 a4be 6c7c aabe
00000240: 0f9e e5be a8cd 573e b628 45be 38c7 44be
00000250: efe0 ce3e 9a57 d6bd 36d6 c13e 254a 68be
00000260: 9b1d 243d c23b 30be b5d1 cf3e c435 92be
00000270: 4677 933e c78f cfbe d835 fa3e c366 d43e
00000280: 446d 823e ad15 89be 8ff0 b23e 2460 463e
00000290: e7b1 cebe 5e7c bb3e 2124 513d e2d1 843e
000002a0: 325f 093f d644 e93e 9b98 cbbe 4500 2abc
000002b0: fa8c 7ebe ae4c bfbe a63f a6be 014a 80be
000002c0: f001 90be 47e8 a03e cc4d 97bc d2eb afbc
000002d0: eacb fb3e 2c60 843e 76e7 edbe 6837 443e
000002e0: 92cf ff3e 7e17 c13e f73d 213e 65d1 8b3d
000002f0: f55e d33e d5a7 30be 041b 283e 6183 2cbe
00000300: c106 69be 9dc6 9a3c 0007 6dbd 970b c7be
00000310: 534c 733e ad11 143e b1f8 69be 8967 f1bd
00000320: 8ed4 1b3e 9e54 943e 3a18 34bd 74b2 28be
00000330: 14d3 1fbe 940e 81be def7 d23e cdeb 22be
00000340: 5363 e63e 2d00 b53e 390e f8be 701c d9bd
00000350: 661f 9cbe c337 de3e 11e7 953e bb1a a2be
00000360: 68ba 3ebe 4e1a 923d 4d5a f4be d4b1 1a3e
00000370: e420 4bbe 2e97 87be 7b88 283e 79d6 31bd
00000380: 58bf b23e 0888 243d d2a8 3bbe 3611 c4bd
00000390: 50cb cc3e fff4 e3be 1a3d 573e 420b 14bd
000003a0: 1e1d cf3e 0627 8b3e 7388 14bd fbc0 c0be
000003b0: 5b8e 8e3d 6355 14be 23ca 83be 04b5 ecbe
000003c0: f255 01bf 5639 b73e 3229 a5be c985 0b3e
000003d0: 3ee1 343e cf12 6dbd 428c dabd 8340 f73d
000003e0: 2af8 ca3c e2c1 5f3e 7131 013e 42f1 253d
000003f0: e062 bcbc 5b4a 843e 1b09 b23d c5c7 fbbd

input_projection.bias f4 [64]
0.34315807 0.22483005 0.21304235 -0.2704312 -0.3527113 -0.271191 -0.08017984 0.088856384
0.24285832 0.09929658 -0.2524022 -0.1267445 0.086516134 0.28539667 -0.032923173 -0.07256783
0.4173229 0.3027546 -0.3076035 0.18950796 0.097342394 0.17638977 -0.14419425 -0.25353768
-0.30564088 -0.3134209 0.2488242 -0.40914115 -0.046032205 0.3733922 -0.30947915 -0.27922207
0.024549348 0.05725734 0.22425635 0.1759853 -0.3376099 -0.15763323 0.07120641 0.25323656
0.12944864 -0.2515348 0.2569419 0.09691375 -0.23685835 -0.13147949 0.107347004 -0.047374364
0.08783482 -0.22271721 0.11167508 0.0858625 -0.2988916 0.17440069 0.3492845 0.09937363
0.09035322 0.2364814 -0.33845216 0.16837774 0.386807 -0.14139993 0.3476919 0.37208638
00000000: 6ab2 af3e d939 663e c627 5a3e f575 8abe
00000010: 9396 b4be 8cd9 8abe 5435 a4bd 56fa b53d
00000020: daaf 783e 015c cb3d dc3a 81be 4fc9 01be
00000030: 5f2f b13d 831f 923e 73da 06bd 719e 94bd
00000040: 59ab d53e a702 9b3e 357e 9dbe 600e 423e
00000050: 735b c73d 859f 343e a8a7 13be b1cf 81be
00000060: f67c 9cbe b478 a0be c5cb 7e3e f37a d1be
00000070: 448c 3cbd 432d bf3e 0d74 9ebe 32f6 8ebe
00000080: b71b c93c ac86 6a3d 75a3 653e 7e35 343e
00000090: 34db acbe 9b6a 21be abd4 913d 39a8 813e
000000a0: 2f8e 043e 2bc9 80be e48d 833e b77a c63d
000000b0: ff8a 72be 8fa2 06be bfd8 db3d 9f0b 42bd
000000c0: bee2 b33d fb0f 64be e8b5 e43d aed8 af3d
000000d0: 5208 99be 1896 323e 6bd5 b23e 6784 cb3d
000000e0: 1c0b b93d 2e28 723e 9a49 adbe 376b 2c3e
000000f0: 910b c63e 25cb 10be ac04 b23e 1b82 be3e

transformer.encoder.layers.0.self_attn.in_proj_weight f4 [192, 64]
-0.0017621638 0.07725932 0.05767072 0.037511587 0.08078172 0.09328755 0.050064124 0.044467684
0.096260265 -0.005287341 0.094578594 -0.060093775 -0.10104673 0.14209707 -0.0116371745 0.05260476
-0.06783594 0.057065766 -0.110685796 0.0083911875 -0.10700785 0.0647566 0.1324902 -0.045186296
-0.108336754 -0.13690852 -0.10147273 0.10656597 -0.15038349 -0.06029508 0.15433262 0.020871537
0.11158315 -0.030272642 -0.020771628 -0.09290885 -0.1039994 0.05154799 -0.051467277 -0.07147201
-0.00239186 -0.0038015498 0.034540743 -0.00915209 -0.036077093 0.00130655 -0.036407392 0.0019042006
-0.012319184 0.04109398 0.16504703 0.011487924 -0.078658834 -0.009180204 0.04020143 -0.040178325
0.0031986583 -0.074027956 -0.044983283 0.10877402 -0.096123576 0.02624495 0.03240688 0.14174846
-0.023740556 0.106446676 -0.07462541 0.030829344 -0.08088951 -0.083027706 -0.08056802 -0.22407684
0.12717842 0.054052923 -0.1569561 -0.13310777 0.08036167 -0.038148865 -0.016857501 0.11476047
-0.16885498 -0.047345243 -0.08546458 0.1245078 -0.085642375 -0.048722636 0.032964155 -0.037303925
0.10636561 0.10500672 0.086514875 -0.1394251 0.0522337 -0.106102236 -0.12605914 0.13885938
-0.059841823 -0.10145202 -0.08475942 -0.034133036 -0.0511627 -0.13835688 -0.07852548 -0.05703746
-0.043436613 -0.032734126 0.073653705 0.1814287 0.05253766 -0.0037352038 -0.1449847 0.023729753
-0.02794134 0.06729238 -0.011207256 0.052209243 0.14663161 -0.061133184 -0.107484795 -0.04944865
-0.052277472 -0.12226876 0.005440781 -0.07339502 -0.15243705 0.10792425 0.117995 -0.1139847
0.07047117 0.081904896 -0.051686477 -0.110279426 -0.0061509097 0.079742625 -0.10213556 -0.013374607
0.012575756 -0.08338229 0.12410217 0.02719439 -0.050474443 0.031178677 -0.07667664 0.05007235
-0.18222274 0.048478123 0.06759257 0.09490821 0.058900677 -0.10226738 0.03882424 -0.013715275
-0.032365624 -0.09111194 0.029754171 0.0065852157 -0.1271938 0.026446186 0.10790868 -0.032456778
-0.06977037 0.027440447 0.12295337 0.09980251 0.020339943 -0.16306008 -0.030991675 -0.09603361
-0.15095015 -0.06546489 0.041200418 0.0019130461 0.094007365 -0.031239856 0.07066537 -0.13971838
0.11903883 -0.13370147 0.111359216 0.0021952223 -0.004535232 0.08168724 -0.028716296 0.048434153
-0.047364555 -0.0703706 -0.13427347 -0.018579714 -0.076278895 0.086835355 -0.100467965 0.13634767
0.049233235 0.0704334 0.11018095 0.06891515 0.021439357 -0.018403396 -0.13997212 -0.0032630241
-0.0033131677 0.13832536 0.104689755 0.07469412 0.029461246 0.104648955 -0.12734084 -0.087345645
0.1397865 0.0853718 0.1309518 -0.15888558 0.03890765 0.043798618 0.16594678 0.050138842
0.105945736 0.039140698 0.12424269 0.03926068 0.0062155747 -0.03506118 0.14139654 0.11622274
-0.12710069 0.07876037 -0.13700038 -0.14588295 0.14438276 -0.009513885 -0.11799295 0.055847142
0.016709542 -0.13263641 -0.1556141 -0.10171347 -0.085575946 -0.06896646 0.02854171 0.03471899
0.10820247 0.045521893 0.021292457 0.069954954 -0.018092565 -0.061945844 0.0052117156 0.061930884
-0.120845184 -0.058397137 0.09655106 -0.09750551 -0.15798125 0.023352811 0.019906444 0.12358294
00000000: 68f8 e6ba 223a 9e3d 2238 6c3d c0a5 193d
00000010: e370 a53d 8b0d bf3d 0a10 4d3d bf23 363d
00000020: 1a24 c53d 6e41 adbb 6cb2 c13d e424 76bd
00000030: 97f1 cebd e581 113e d9a9 3ebc 1778 573d
00000040: 92ed 8abd cbbd 693d 3caf e2bd 317b 093c
00000050: ef26 dbbd 1c9f 843d 83ab 073e 4415 39bd
00000060: a9df ddbd bf31 0cbe efd0 cfbd 423f da3d
00000070: 21fe 19be f9f7 76bd 5f09 1e3e c9fa aa3c
00000080: b585 e43d 55fe f7bc 4329 aabc ff46 bebd
00000090: a3fd d4bd fc23 533d 5acf 52bd eb5f 92bd
000000a0: c0c0 1cbb 6c23 79bb 987a 0d3d a6f2 15bc
000000b0: 93c5 13bd 8b40 ab3a eb1f 15bd 5f96 f93a
000000c0: 67d6 49bc 2952 283d 1702 293e d837 3c3c
000000d0: e217 a1bd 9168 16bc 41aa 243d 0792 24bd
000000e0: 95a0 513b f89b 97bd 6440 38bd eac4 de3d
000000f0: 70dc c4bd a6ff d63c 14bd 043d 8226 113e
00000100: 8e7b c2bc b700 da3d 35d5 98bd d28d fc3c
00000110: 66a9 a5bd 6e0a aabd d900 a5bd 6674 65be
00000120: 0f3b 023e 9966 5d3d 1ab9 20be 674d 08be
00000130: a994 a43d fc41 1cbd be18 8abc 8a07 eb3d
00000140: 52e8 2cbe 16ed 41bd 0e08 afbd f2fd fe3d
00000150: 4565 afbd 6391 47bd 6c05 073d 00cc 18bd
00000160: 37d6 d93d c30d d73d b62e b13d 74c5 0ebe
00000170: 01f3 553d 214c d9bd a615 01be 2731 0e3e
00000180: b31c 75bd 14c6 cfbd 5996 adbd 15cf 0bbd
00000190: fb8f 51bd 6dad 0dbe f8d1 a0bd 1da0 69bd
000001a0: 97ea 31bd 3814 06bd c1d7 963d 72c8 393e
000001b0: bb31 573d 52ca 74bb df76 14be e664 c23c
000001c0: 3de5 e4bc 96d0 893d a39e 37bc 5cd9 553d
000001d0: 9926 163e ca66 7abd fd20 dcbd ab8a 4abd
000001e0: e720 56bd 0b68 fabd 9448 b23b 2150 96bd
000001f0: 7518 1cbe 6407 dd3d 5da7 f13d cf70 e9bd
00000200: 3053 903d c1bd a73d 33b5 53bd 2eda e1bd
00000210: 928d c9bb 1a50 a33d 732c d1bd 2b21 5bbc
00000220: 8b0a 4e3c 56c4 aabd 4729 fe3d c5c6 de3c
00000230: 4abe 4ebd 6d6a ff3c a408 9dbd aa18 4d3d
00000240: 9998 3abe ff90 463d f96d 8a3d 3c5f c23d
00000250: d641 713d 8f71 d1bd 2b06 1f3d 08b6 60bc
00000260: d191 04bd e698 babd 05bf f33c cbc8 d73b
00000270: 173f 02be aca5 d83c 3aff dc3d 66f1 04bd
00000280: c5e3 8ebd caca e03c face fb3d 4265 cc3d
00000290: f49f a63c 39f9 26be 41e2 fdbc 45ad c4bd
000002a0: ad92 1abe 7512 86bd c5c1 283d 2dbf fa3a
000002b0: ef86 c03d baea ffbc 01b9 903d 5612 0fbe
000002c0: a1ca f33d 0ae9 08be 4d10 e43d b8dd 0f3b
000002d0: 499c 94bb a44b a73d 703e ebbc e462 463d
000002e0: 5601 42bd 761e 90bd fc7e 09be 7c34 98bc
000002f0: 1c38 9cbd bcd6 b13d 26c2 cdbd b99e 0b3e
00000300: caa8 493d 633f 903d 8da6 e13d 6323 8d3d
00000310: 97a1 af3c b8c2 96bc da54 0fbe 76d8 55bb
00000320: bb21 59bb 2aa5 0d3e 9567 d63d 3bf9 983d
00000330: b658 f13c 3152 d63d a365 02be 46e2 b2bd
00000340: 3124 0f3e 69d7 ae3d 3b18 063e e7b2 22be
00000350: a15d 1f3d 2e66 333d f4ed 293e 635e 4d3d
00000360: 14fa d83d ff51 203d f472 fe3d cfcf 203d
00000370: 05ac cb3b 509c 0fbd 41ca 103e 3006 ee3d
00000380: af26 02be 1e4d a13d d449 0cbe 5762 15be
00000390: 13d9 133e 20e0 1bbc 4aa6 f1bd f9bf 643d
000003a0: 73e2 883c d7d1 07be 4d59 1fbe 274f d0bd
000003b0: 7142 afbd 4a3e 8dbd 4ed0 e93c 8035 0e3d
000003c0: 4299 dd3d 2a75 3a3d 856d ae3c 8b44 8f3d
000003d0: dc36 94bc edba 7dbd 0ac7 aa3b 3dab 7d3d
000003e0: ae7d f7bd d631 6fbd 90bc c53d f8b0 c7bd
000003f0: d6c5 21be 654e bf3c d712 a33c 0d19 fd3d

transformer.encoder.layers.0.self_attn.in_proj_bias f4 [192]
0.016135398 0.003319465 -0.009427842 -0.02191912 -0.009499975 0.01950279 -0.015940774 -0.01362365
0.0006070406 0.038832635 0.013374435 0.00016908218 0.003018274 -0.026683679 -0.0024517307 -0.04473016
0.046479296 0.046232227 -0.043790963 -0.0169423 0.0031745336 0.029028334 0.011328751 0.024764018
-0.02173495 0.013643059 -0.013327692 0.064627565 0.010931653 0.03785787 -0.008467642 0.04257634
-0.0125540355 -0.0054039215 -0.0015252852 0.029181117 0.0030931158 -0.0803344 0.023817904 0.004102462
0.010764765 -0.04005665 -0.039425556 0.025282148 -0.0120674735 0.0052217687 0.036174454 0.026483053
0.0011612297 -0.055465788 0.03992046 -0.015998507 0.005869148 -0.012332546 0.017355533 0.02435541
0.027001914 0.018913995 0.019618025 0.014100401 -0.008719797 -0.06117532 -0.015401419 -0.026596587
1.0069786e-06 2.2825989e-06 3.3714537e-07 3.4022655e-06 -3.2695596e-06 9.798179e-06 -1.3516378e-06 -1.5615185e-06
-3.5024527e-07 3.881246e-06 -1.8778247e-06 -1.3937687e-06 -1.6577417e-06 1.1230031e-07 6.873609e-07 -1.7951713e-06
-1.3623613e-06 -7.91816e-06 6.0475786e-06 -3.0186752e-06 6.288632e-06 -3.001985e-06 -2.6639766e-06 -3.496164e-05
3.790351e-06 9.281787e-06 5.820105e-06 -1.5449757e-05 2.1520884e-06 -4.5143274e-06 1.835897e-05 -1.603323e-05
3.0190165e-06 -3.1762942e-05 3.3321535e-06 -5.9480053e-06 -2.4121036e-05 3.890489e-05 -1.7486587e-05 2.565229e-06
-2.8582317e-05 -2.8529757e-06 1.2347011e-05 -6.547726e-06 5.752465e-06 7.3316387e-06 -7.5324047e-06 -8.614306e-06
9.5881505e-06 -6.671604e-08 8.462448e-06 -1.045532e-05 7.597091e-07 1.7257707e-05 4.7112976e-06 -2.1801138e-06
-2.1521712e-06 -2.5833697e-06 -1.954042e-06 -3.4526151e-06 1.0931719e-05 -3.240118e-06 2.1863193e-06 4.291452e-06
0.010343572 -0.014495723 -0.0164937 -0.012316629 -0.0011421407 0.026937665 0.00366923 -0.01784854
0.003522648 0.004345434 0.0044327355 -0.0057922197 -0.00063830666 0.0047987993 -0.02534973 -0.016045252
-0.014417044 0.00421828 -0.017696703 0.011782901 -0.010384389 -0.011224056 0.023085414 -0.013468443
-0.010670545 0.013780944 0.020200647 0.008518579 -0.0059212516 -0.003108391 0.01672325 0.015629282
0.0019261024 0.0032647478 0.016251985 0.00060056127 0.002720097 -0.018278338 -0.00059320213 0.018213434
-0.0028098552 -0.00896977 0.022288674 0.017977003 -0.005018647 0.0131058395 -0.010350918 -0.020563515
0.022296222 0.020664422 -0.0072132484 0.021442197 0.0016961049 -0.004515327 0.015268462 -0.003330971
-0.012990986 0.012292634 -0.012270211 0.021747448 0.009978525 0.0005739844 -0.011708968 -0.011220978
00000000: 622e 843c 628b 593b 3c77 1abc ba8f b3bc
00000010: c8a5 1bbc 51c4 9f3c 3a96 82bc bb35 5fbc
00000020: ce21 1f3a f80e 1f3d 7220 5b3c a74b 3139
00000030: 3cce 453b bb97 dabc 37ad 20bb f936 37bd
00000040: 1361 3e3d 015e 3d3d 275e 33bd 94ca 8abc
00000050: d60b 503b d4cc ed3c 3a9c 393c e9dd ca3c
00000060: 7e0d b2bc 2387 5f3c 645c 5abc 755b 843d
00000070: ad1a 333c db10 1b3d ddbb 0abc 8764 2e3d
00000080: 71af 4dbc 6113 b1bb 14ec c7ba 3d0d ef3c
00000090: dfb5 4a3b 5d86 a4bd c41d c33c f26d 863b
000000a0: b25e 303c 7112 24bd b17c 21bd 821c cf3c
000000b0: a7b6 45bc 5f1b ab3b aa2b 143d fdf2 d83c
000000c0: 6734 983a 1830 63bd a383 233d 4d0f 83bc
000000d0: fb51 c03b 720e 4abc 312d 8e3c ff84 c73c
000000e0: 1e33 dd3c 86f1 9a3c fbb5 a03c 5e05 673c
000000f0: 7bdd 0ebc f992 7abd 3c56 7cbc 16e1 d9bc
00000100: 8527 8735 c02e 1936 e800 b534 7a52 6436
00000110: 9b6a 5bb6 dc62 2437 ec69 b5b5 5e95 d1b5
00000120: 5809 bcb4 a63b 8236 9109 fcb5 8711 bbb5
00000130: 927f deb5 c029 f133 1583 3835 9ef1 f0b5
00000140: 61da b6b5 3dd8 04b7 4eec ca36 7294 4ab6
00000150: f002 d336 b675 49b6 c5c6 32b6 c6a3 12b8
00000160: bc5d 7e36 f9b8 1b37 524a c336 1a9a 81b7
00000170: 996c 1036 c779 97b6 9601 9a37 197f 86b7
00000180: 4f9a 4a36 3339 05b8 f69d 5f36 fa94 c7b6
00000190: 8857 cab7 cf2d 2338 29b0 92b7 4c26 2c36
000001a0: 0fc4 efb7 c075 3fb6 0226 4f37 8ab4 dbb6
000001b0: 4c05 c136 4c02 f636 ddbe fcb6 2a86 10b7
000001c0: cbdc 2037 8845 8fb3 f0f9 0d37 4269 2fb7
000001d0: d0ee 4b35 a5c4 9037 bd15 9e36 124e 12b6
000001e0: 056e 10b6 f45d 2db6 3022 03b6 7ab3 67b6
000001f0: 6067 3737 ce70 59b6 aeb8 1236 4bff 8f36
00000200: 1678 293c 787f 6dbc cc1d 87bc b0cb 49bc
00000210: e2b3 95ba 61ac dc3c 7777 703b 1a37 92bc
00000220: 3adc 663b 2464 8e3b 7b40 913b a9cc bdbb
00000230: 0954 27ba 3f3f 9d3b 3daa cfbc 5571 83bc
00000240: 7735 6cbc 7f39 8a3b adf8 90bc 120d 413c
00000250: 4923 2abc 1ae5 37bc 9f1d bd3c bfaa 5cbc
00000260: 82d3 2ebc 78c9 613c d47b a53c 8391 0b3c
00000270: 0f07 c2bb 26b6 4bbb 32ff 883c fb08 803c
00000280: 4675 fc3a 61f5 553b e222 853c fc6e 1d3a
00000290: a843 323b 74bc 95bc 1f81 1bba 5734 953c
000002a0: 8c25 38bb f1f5 12bc bd96 b63c 8244 933c
000002b0: 7673 a4bb e0b9 563c e696 29bc d174 a8bc
000002c0: 91a6 b63c 6f48 a93c 1d5d ecbb 8ca7 af3c
000002d0: d64f de3a 4ff5 93bb 9228 7a3c 6c4c 5abb
000002e0: 25d8 54bc 0b67 493c ff08 49bc b427 b23c
000002f0: f87c 233c 7177 163a f9d6 3fbc 31d8 37bc

transformer.encoder.layers.0.self_attn.out_proj.weight f4 [64, 64]
-0.034661163 0.15574828 0.08599993 -0.2214985 0.0405328 -0.09702888 -0.08525441 0.10702214
0.051751204 0.05146981 0.16732813 -0.09479698 0.068566546 -0.14887756 -0.041299976 0.16976528
0.030516455 0.16185458 -0.082588404 0.014322675 -0.016849628 0.076264724 -0.17088374 0.047857642
0.12644774 -0.047536165 -0.051775094 0.0058562346 -0.11390837 0.023158919 -0.14639707 0.11387566
0.07494373 0.08837638 -0.021784736 0.08689465 0.052902423 0.24984758 -0.24951984 -0.1451555
-0.2359429 -0.14651613 -0.08392889 -0.020230284 0.0027034094 0.20289887 0.0019250493 0.0415269
0.06752931 -0.12097726 0.15063164 -0.16719227 0.016793562 -0.07079933 -0.22029859 -0.13990785
-0.10443632 -0.10090161 0.18824488 -0.19915389 0.08024932 -0.05941864 -0.06328696 0.040272906
-0.030991996 -0.075439446 -0.064524546 -0.08771186 0.04460687 -0.110001795 -0.15785463 0.11657448
0.015045893 -0.26599294 -0.0652979 -0.17397678 0.06766771 -0.20556253 -0.0038222922 -0.16975646
0.003119939 -0.08257046 0.05565331 0.1895028 0.19239067 -0.055866834 -0.15028508 0.02587997
-0.11435836 -0.07849072 -0.052969087 0.03397534 0.033915702 -0.23795588 -0.17835581 0.14140964
-0.1415589 0.16050416 0.14528567 0.002758592 0.015704421 0.1194877 -0.06345069 -0.10393255
0.039646167 0.04129983 -0.1772942 -0.09061067 -0.06291259 0.0012469481 0.023947392 -0.03447658
-0.028758762 -0.17409024 -0.07427523 0.15722941 0.19757986 -0.02312988 0.2297099 -0.09351581
0.004756039 0.07072713 0.0801233 -0.14888671 0.028405288 0.005827191 0.16299222 -0.018792374
-0.09514667 0.011348241 0.028871182 -0.009822866 0.010990246 -0.101018496 -0.20366825 -0.03696065
-0.031220032 -0.10910853 0.18524267 0.009187697 0.09143632 0.09260069 0.1832664 -0.022100922
0.11077221 0.14663747 0.045136753 -0.15732953 0.08208866 -0.046642594 -0.10854491 -0.16004093
-0.12009914 0.04149551 0.0363085 0.10516667 -0.026507579 -0.17671724 -0.14098834 0.11354358
-0.03851664 -0.084682755 0.15213107 0.013296716 -0.05808433 0.047153197 -0.032058917 -0.19157727
-0.15307315 0.19257061 0.063440025 0.16898516 0.10429972 -0.004186504 -0.06825967 -0.030331133
0.054373484 -0.13537683 -0.11617338 -0.028473826 -0.07517994 0.09536647 -0.19013469 0.18241441
-0.0036890157 -0.2014249 -0.17934643 -0.03762609 -0.1468372 0.066697896 0.0063452604 0.15744996
0.1681442 -0.18914066 -0.06662086 0.11657951 -0.045532744 -0.036444087 0.12828135 -0.21175565
-0.09363396 0.0058256467 -0.16978516 -0.0821698 -0.08979792 -0.15525755 -0.045570552 -0.20453331
-0.19518146 0.17576818 -0.08621334 0.14159957 0.12645182 -0.16512053 -0.12978943 -0.015879951
-0.20462577 -0.020580385 -0.0056491047 0.07496462 -0.04469109 0.11063096 0.019122863 0.11891138
-0.043370243 0.12022603 0.06957697 -0.07393311 0.083382115 0.060938723 -0.11014492 -0.046318997
0.12583734 -0.17305559 -0.042496037 0.14060332 -0.0023145275 -0.22917226 -0.1781233 -0.11880909
0.14682834 -0.10643036 0.14879301 0.09564435 -0.03419504 0.21426949 -0.2004435 -0.034461226
0.07043598 -0.02301965 0.06741912 0.045924973 0.0013451052 -0.03299754 0.060694203 -0.029732341
00000000: ddf8 0dbd 7a7c 1f3e bb20 b03d 81d0 62be
00000010: b905 263d 14b7 c6bd dd99 aebd 6c2e db3d
00000020: 12f9 533d 02d2 523d 1158 2b3e eb24 c2bd
00000030: 9e6c 8c3d 5c73 18be 2a2a 29bd f3d6 2d3e
00000040: a5fd f93c 35bd 253e 1c24 a9bd a7a9 6a3c
00000050: 3b08 8abc ae30 9c3d 26fc 2ebe 6006 443d
00000060: 847b 013e 48b5 42bd 1f12 54bd a8e5 bf3b
00000070: cb48 e9bd c6b7 bd3c 1de9 15be a437 e93d
00000080: 197c 993d adfe b43d e775 b2bc d2f5 b13d
00000090: 36b0 583d 0bd8 7f3e 2182 7fbe a5a3 14be
000000a0: 049b 71be 5308 16be e9e2 abbd fbb9 a5bc
000000b0: af2b 313b b9c4 4f3e f051 fc3a 1c18 2a3d
000000c0: cf4c 8a3d edc2 f7bd 2e3f 1a3e 7334 2bbe
000000d0: a792 893c 3dff 90bd f495 61be 0144 0fbe
000000e0: b6e2 d5bd 81a5 cebd 44c3 403e ffee 4bbe
000000f0: c159 a43d f660 73bd 989c 81bd 34f5 243d
00000100: ede2 fdbc ff7f 9abd 7225 84bd 47a2 b3bd
00000110: b1b5 363d 9f48 e1bd a5a4 21be 9abe ee3d
00000120: 0d83 763c 3a30 88be e8ba 85bd f826 32be
00000130: 5e95 8a3d fc7e 52be 6c7f 7abb a3d4 2dbe
00000140: e477 4c3b b41a a9bd baf4 633d 060d 423e
00000150: 0f02 453e 9fd4 64bd 55e4 19be 3b02 d43c
00000160: b734 eabd bebf a0bd 1df6 58bd ba29 0b3d
00000170: 31eb 0a3d b5aa 73be e8a2 36be b0cd 103e
00000180: d1f4 10be 345b 243e c4c5 143e 7ec9 343b
00000190: 8fa6 803c f8b5 f43d 6ff2 81bd 97da d4bd
000001a0: 0564 223d 032a 293d 9c8c 35be 1692 b9bd
000001b0: 51d8 80bd a370 a33a 522d c43c 5037 0dbd
000001c0: 7f97 ebbc b644 32be 9d1d 98bd bf00 213e
000001d0: 6052 4a3e e07a bdbc 1239 6b3e 3885 bfbd
000001e0: 8cd8 9b3b 63d9 903d af17 a43d c275 18be
000001f0: 35b2 e83c 05f2 be3b 6fe7 263e 77f2 99bc
00000200: 42dc c2bd f9ed 393c 4283 ec3c 16f0 20bc
00000210: 6f10 343c c9e2 cebd 698e 50be 0d64 17bd
00000220: 27c1 ffbc 4b74 dfbd 41b0 3d3e ff87 163c
00000230: f742 bb3d 6ea5 bd3d 30aa 3b3e fe0c b5bc
00000240: 8adc e23d 2228 163e 51e1 383d fe1a 21be
00000250: 191e a83d 4e0c 3fbd cb4c debd c5e1 23be
00000260: 8af6 f5bd 32f7 293d 39b8 143d a061 d73d
00000270: 6c26 d9bc 5df5 34be 3f5f 10be 8989 e83d
00000280: a0c3 1dbd 276e adbd 3fc8 1b3e 78da 593c
00000290: d6e9 6dbd b623 413d 3650 03bd d52c 44be
000002a0: 35bf 1cbe 3b31 453e d8ec 813d 720a 2d3e
000002b0: 179b d53d f12e 89bb bacb 8bbd ff78 f8bc
000002c0: bbb6 5e3d 39a0 0abe 4fec edbd f141 e9bc
000002d0: f1f7 99bd 7f4f c33d abb2 42be d8ca 3a3e
000002e0: 6ac3 71bb 5442 4ebe 97a6 37be d11d 1abd
000002f0: 7e5c 16be e898 883d e7eb cf3b 903a 213e
00000300: fe2d 2c3e 17ae 41be 8470 88bd 3dc1 ee3d
00000310: 8b80 3abd 6546 15bd 305c 033e 79d6 58be
00000320: 29c3 bfbd 11e5 be3b 29dc 2dbe a448 a8bd
00000330: f9e7 b7bd d6fb 1ebe 30a8 3abd 2e71 51be
00000340: a6dd 47be 93fc 333e 9f90 b0bd 7aff 103e
00000350: 967c 013e 5b15 29be 85e7 04be ac16 82bc
00000360: 6b89 51be 3298 a8bc 201c b9bb 0d87 993d
00000370: 010e 37bd 7c92 e23d 8da7 9c3c cf87 f33d
00000380: ffa4 31bd 1139 f63d 5f7e 8e3d 3e6a 97bd
00000390: 3ec4 aa3d e29a 793d a993 e1bd fdb8 3dbd
000003a0: 81db 003e 7c35 31be 5310 2ebd 51fa 0f3e
000003b0: 54af 17bb 22ac 6abe f465 36be 2e52 f3bd
000003c0: 2b5a 163e 29f8 d9bd 325d 183e 2fe1 c33d
000003d0: 1910 0cbd 7669 5b3e 1041 4dbe 3727 0dbd
000003e0: bd40 903d b493 bcbc 0913 8a3d d31b 3c3d
000003f0: 3e4e b03a 6e28 07bd 7c9a 783d 3d91 f3bc

transformer.encoder.layers.0.self_attn.out_proj.bias f4 [64]
-0.015902309 -0.012890445 0.0035674646 0.00013027166 -0.004564218 0.0075916103 0.00404843 0.002740467
-0.013714725 -0.0009998321 -0.024128383 -0.0074778628 0.021619495 -0.007294596 -0.0048879143 0.004856435
0.00035108137 -0.005912196 0.0066948254 -0.00734019 -0.00211196 0.02907785 0.017950226 -0.010913617
-0.00195667 0.040823054 -0.009909169 0.005012445 0.005796624 0.0047697374 0.0051085097 -0.0063831853
-0.01612238 -0.023937928 0.009462101 -0.01086761 0.011808844 -0.002341797 0.008645157 -0.014144878
0.03513636 -0.006535573 -0.013618476 -0.020869283 -0.015407889 -0.012510981 -0.005051215 -0.0110565685
-0.006676513 -0.0024436002 0.024093213 0.013629615 0.0025267226 0.016369985 0.0038537183 0.012890034
0.009008564 0.002789794 0.008486862 -0.022360817 0.009081431 0.004083135 0.022722054 0.0044519263
00000000: 8f45 82bc 7232 53bc 20cc 693b 8899 0839
00000010: 708f 95bb 0bc3 f83b b1a8 843b 6899 333b
00000020: bab3 60bc cc0c 83ba e3a8 c5bc dc08 f5bb
00000030: 5e1b b13c 8207 efbb cc2a a0bb bb22 9f3b
00000040: 5811 b839 18bb c1bb 4460 db3b fa85 f0bb
00000050: cf68 0abb ac34 ee3c 5a0c 933c 07cf 32bc
00000060: 7a3b 00bb 1336 273d 115a 22bc 703f a43b
00000070: 9bf1 bd3b 754b 9c3b 4965 a73b 0a2a d1bb
00000080: 1513 84bc 7919 c4bc ee06 1b3c 0f0e 32bc
00000090: e279 413c d678 19bb 6ba4 0d3c ebbf 67bc
000000a0: 25eb 0f3d 5c28 d6bb 0720 5fbc 0ff6 aabc
000000b0: 5f71 7cbc dcfa 4cbc aa84 a5bb 9c26 35bc
000000c0: a6c6 dabb cf24 20bb 215f c53c c04e 5f3c
000000d0: 5f97 253b 591a 863c aa8e 7c3b b930 533c
000000e0: a898 133c fad4 363b 7b0c 0b3c 082e b7bc
000000f0: 48ca 143c d2cb 853b 9a23 ba3c 77e1 913b

transformer.encoder.layers.0.linear1.weight f4 [256, 64]
-0.08981156 -0.057288952 -0.047424614 -0.006047361 -0.006655497 -0.060487553 0.018716399 -0.011383907
-0.0008739961 0.08113474 0.07200284 -0.07127752 -0.012932057 -0.087808415 0.03980854 -0.022895042
0.0005973868 -0.06571187 0.057171848 -0.03249902 0.058886215 -0.18981759 0.18889612 -0.1289942
-0.14179341 -0.12595485 -0.015204323 0.1453724 0.13418368 -0.09674367 0.027651716 -0.056314934
-0.07354244 0.011218608 -0.115747504 -0.11737116 0.13187824 -0.05763646 -0.07809429 -0.042107083
0.034269933 0.07994564 -0.12519026 -0.124661334 -0.023808617 -0.105367176 0.03591852 -0.053604178
0.014920959 -0.104189225 0.08983076 -0.085390806 0.030754399 0.0163611 0.044398937 -0.1868009
-0.02795891 -0.034065824 0.08741784 0.09541848 -0.032206077 0.21039334 0.045305774 -0.021871407
0.022593526 -0.055411812 -0.11235109 0.15463129 -0.09780074 -0.016709799 -0.04261822 -0.02862835
0.07650117 0.096434526 0.0947553 -0.002117881 0.03695473 0.007844064 -0.08311907 0.010419801
0.059700485 -0.103356406 -0.05866461 0.049513847 0.003914877 -0.0019929064 -0.018597605 0.06423828
-0.04154139 -0.068800844 -0.02737091 -0.115463614 -0.00892829 0.023289204 0.087590046 0.04053195
-0.025867725 -0.027832849 -0.12118035 0.093370475 0.02210286 0.17665884 -0.12685248 0.051069662
0.034483694 0.026240084 -0.034154877 0.07861316 -0.094409406 0.111534566 0.14553794 0.13821733
-0.15129852 -0.036060728 -0.11410916 -0.08480781 -0.038938556 0.01999132 -0.13374601 -0.08793683
-0.0885344 0.06691854 -0.056954633 -0.11247522 -0.0451707 0.08733469 0.078666545 0.0979378
0.0062164264 -0.07956823 0.059055015 0.1291098 -0.08233663 0.07375507 -0.08160628 -0.1331082
0.0045633065 0.03369435 -0.09179991 0.07887581 0.09302266 0.05792873 0.044675298 0.117484026
0.12895992 -0.09099845 0.05171089 0.050251883 0.12854484 -0.12453203 0.0037801373 -0.0989826
-0.009707821 -0.09240034 -0.057438836 0.1617348 0.044273116 -0.105866976 0.15192239 0.013741503
-0.12023015 0.12381154 -0.039317075 -0.1413254 -0.06067822 -0.073847465 -0.05988307 0.11098473
0.08435803 -0.010860222 0.027568555 -0.08433484 0.15320796 0.10600947 0.014100108 0.019441465
-0.10869962 0.038607728 -0.11849808 -0.024931738 0.098178126 -0.008809946 -0.048964895 -0.09021168
0.019231299 0.12821428 0.0638376 0.11188869 -0.07503925 0.041716985 0.023013161 0.037327442
0.10056992 0.09544367 0.070512176 0.039241873 -0.11346655 0.06801428 -0.014399436 -0.11870727
0.058640067 -0.024818294 -0.08954164 0.11923742 -0.091286264 0.07195013 0.12170963 0.036938164
-0.04106285 -0.05988302 0.17781287 0.012523783 -0.053827737 -0.016795887 0.11486084 0.06447651
0.045342155 -0.043825265 -0.008324132 -0.09615754 -0.16721103 0.12492675 -0.067693725 -0.12652119
0.07841757 0.076959245 -0.12697512 -0.056517944 -0.034569066 -0.025703548 0.096771784 0.07192908
0.046696734 0.034883056 -0.028418632 0.0063109114 -0.031972088 0.07616209 0.04126218 -0.0007576325
0.110253625 -0.0034601172 0.015177496 0.07309963 0.030595139 0.09430059 0.045899708 -0.09838791
0.115456685 -0.051509902 -0.060511954 0.057398695 0.09064101 -0.09988002 0.021831822 0.01970676
00000000: 20ef b7bd d2a7 6abd 5040 42bd f128 c6bb
00000010: 5b16 dabb ccc1 77bd 2253 993c 9183 3abc
00000020: e31c 65ba f829 a63d 3a76 933d f3f9 91bd
00000030: fae0 53bc e6d4 b3bd 480e 233d 628e bbbc
00000040: f399 1c3a f293 86bd 072d 6a3d b11d 05bd
00000050: ac32 713d 8b5f 42be fc6d 413e 0e17 04be
00000060: 4b32 11be 4ffa 00be 8e1b 79bc 81dc 143e
00000070: 7267 093e 8c21 c6bd da85 e23c 7daa 66bd
00000080: 6b9d 96bd 41ce 373c 070d edbd 4a60 f0bd
00000090: 170b 073e 3514 6cbd e6ef 9fbd 7a78 2cbd
000000a0: a15e 0c3d 8aba a33d e031 00be 714e ffbd
000000b0: 4a0a c3bc bfca d7bd 4c1f 133d 0e90 5bbd
000000c0: 0a77 743c 2961 d5bd 31f9 b73d 60e1 aebd
000000d0: a6f0 fb3c b707 863c a9db 353d bc48 3fbe
000000e0: 160a e5bc 9b88 0bbd 2008 b33d c46a c33d
000000f0: 85ea 03bd 5a71 573e 8c92 393d aa2b b3bc
00000100: 0f16 b93c 7ff7 62bd 5418 e6bd aa57 1e3e
00000110: c14b c8bd fde2 88bc 7190 2ebd 0086 eabc
00000120: a5ac 9c3d 777f c53d 110f c23d 26cc 0abb
00000130: d85d 173d 6484 003c 553a aabd d0b7 2a3c
00000140: 7f88 743d 86ac d3bd 4d4a 70bd 08cf 4a3d
00000150: 5e48 803b 6c9b 02bb 015a 98bc 5c8f 833d
00000160: 4e27 2abd 75e7 8cbd f538 e0bc 3078 ecbd
00000170: f647 12bc 00c9 be3c 6962 b33d d404 263d
00000180: 8de8 d3bc b701 e4bc 672d f8bd 0539 bf3d
00000190: 0f11 b53c 0ee6 343e 9ee5 01be 6c2e 513d
000001a0: c63e 0d3d 72f5 d63c fce5 0bbd f0ff a03d
000001b0: b859 c1bd 3c6c e43d e607 153e d888 0d3e
000001c0: 00ee 1abe 6ab4 13bd 10b2 e9bd b8af adbd
000001d0: 097e 1fbd d6c4 a33c b7f4 08be 3a18 b4bd
000001e0: 8651 b5bd 960c 893d 4349 69bd 6859 e6bd
000001f0: e904 39bd 88dc b23d ed1b a13d 9d93 c83d
00000200: 2ab3 cb3b abf4 a2bd ace3 713d 5c35 043e
00000210: 1ba0 a8bd e60c 973d 3121 a7bd 844d 08be
00000220: ca87 953b 1603 0a3d 9701 bcbd a489 a13d
00000230: aa82 be3d ad46 6d3d 72fd 363d 779b f03d
00000240: 120e 043e 655d babd ccce 533d ebd4 4d3d
00000250: 42a1 033e a60a ffbd 2ebc 773b 64b7 cabd
00000260: 8d0d 1fbc 643c bdbd fc44 6bbd cf9d 253e
00000270: ba57 353d c9d0 d8bd 8b91 1b3e 0a24 613c
00000280: 3a3b f6bd e890 fd3d f10a 21bd 9bb7 10be
00000290: ba89 78bd 573d 97bd f347 75bd f64b e33d
000002a0: e7c3 ac3d 13ef 31bc 73d7 e13c bfb7 acbd
000002b0: 8ce2 1c3e 7e1b d93d 2404 673c b543 9f3c
000002c0: e89d debd 2323 1e3d 1faf f2bd a53d ccbc
000002d0: 9d11 c93d 9757 10bc 6a8f 48bd e7c0 b8bd
000002e0: f58a 9d3c 9b4a 033e 4abd 823d e625 e53d
000002f0: 2eae 99bd 6edf 2a3d 1986 bc3c a9e4 183d
00000300: 9af7 cd3d f977 c33d b068 903d 16bc 203d
00000310: 2761 e8bd 124b 8b3d 9deb 6bbc cc1c f3bd
00000320: 9130 703d bc4f cbbc 9b61 b7bd c032 f43d
00000330: 4bf4 babd 975a 933d e642 f93d 794c 173d
00000340: 8531 28bd e647 75bd 9414 363e 8e30 4d3c
00000350: 797a 5cbd 8797 89bc 293c eb3d 430c 843d
00000360: b2b8 393d 1f82 33bd f161 08bc 3fee c4bd
00000370: 5e39 2bbe 99d9 ff3d 02a3 8abd c58e 01be
00000380: 6499 a03d cf9c 9d3d c405 02be 5c7f 67bd
00000390: 4b98 0dbd 3f90 d2bc 4930 c63d 8e4f 933d
000003a0: 1345 3f3d 89e1 0e3d 31ce e8bc c3cb ce3b
000003b0: 2af5 02bd dffa 9b3d 8802 293d db9b 46ba
000003c0: a7cc e13d 22c3 62bb 08ab 783c 42b5 953d
000003d0: a8a2 fa3c ab20 c13d 5501 3c3d 9a7f c9bd
000003e0: 8e74 ec3d 0cfc 52bd 62db 77bd e51a 6b3d
000003f0: fea1 b93d e58d ccbd a6d8 b23c 1270 a13c

transformer.encoder.layers.0.linear1.bias f4 [256]
-0.065881684 0.0026926696 -0.043106746 -0.0077184094 -0.01562377 -0.12752949 0.050872706 -0.13611276
-0.09361814 0.028309386 -0.10306015 -0.12177867 -0.01486193 -0.025929656 -0.105374835 -0.07871633
-0.043491814 0.07187761 0.01845935 -0.052139338 0.0092760725 0.008279496 -0.11094326 0.035363935
0.027234402 0.053282596 0.07508569 -0.07772011 0.08255452 -0.10207686 -0.13330147 -0.057884615
0.02595432 -0.15282875 -0.020726569 -0.06292029 -0.045446318 -0.08934878 0.03002326 -0.13015462
0.03272231 -0.057254516 0.08284038 0.0041741407 -0.09322751 0.029314324 0.028660638 -0.07067551
-0.13648458 0.017651396 -0.17635684 0.012942585 -0.05643105 -0.048203647 -0.11201369 -0.09832048
-0.0021490848 0.060883798 -0.051610332 0.031491976 -0.13986577 -0.037979454 -0.051956877 -0.12891702
-0.115104206 -0.13389426 -0.047402065 -0.15715279 -0.019168787 -0.11980757 -0.020444319 -0.11876081
0.025895659 0.031182226 -0.05870624 -0.12542823 -0.060550537 -0.03815182 -0.09482039 -0.16247007
-0.09144726 0.025043866 -0.02205154 0.042745654 -0.10422114 0.016428528 -0.08455059 -0.11754026
-0.022310924 0.055797033 -0.034616973 0.043192927 -0.056077823 -0.123950504 -0.11522728 -0.06864135
0.06282697 -0.15058844 -0.057570856 0.031239461 0.0386419 -0.11934183 -4.131617e-05 -0.059559736
0.066465676 -0.124263406 -0.10021778 -0.14533493 -0.10196234 -0.032419562 -0.035085198 -0.005690445
-0.045448408 -0.11424895 0.044085868 -0.10758574 0.05163207 0.05914109 -0.040101733 -0.11961999
0.007284962 -0.15558057 0.0010476684 0.00033645064 -0.09955711 -0.11533073 -0.071454555 0.023710504
-0.0062069604 -0.103412956 -0.071172394 -0.09385604 -0.05392283 -0.085054174 -0.03794075 -0.0025090256
-0.04106039 -0.027216394 -0.01524738 -0.019306658 -0.07507274 -0.0071189664 -0.010466526 0.021130994
-0.06603124 0.0050119585 0.01655207 0.016422305 -0.0749777 0.047865663 -0.122386396 0.045373876
-0.13160558 -0.008461592 -0.020461123 -0.08285822 0.028901951 -0.07270179 -0.13424665 0.028292477
-0.13557476 0.027236758 -0.058584433 -0.07012099 0.091234714 -0.12985942 0.034468774 0.077419154
-0.12405349 0.0398844 -0.05046594 -0.06578468 -0.045951072 0.0092939325 -0.06385303 -0.12632976
-0.016157486 0.0787521 -0.08433026 0.05291163 -0.024400117 0.06306311 -0.039441183 0.029922932
-0.05739477 0.03427063 -0.15498605 -0.045367606 -0.0027258205 -0.14506827 -0.016558822 -0.06449097
-0.027804626 -0.15496048 -0.09527578 -0.06508802 0.010255732 0.06630554 -0.10128886 0.019282281
-0.1132841 -0.090343736 -0.1507061 -0.08916126 -0.1377927 0.0127946865 0.05714547 -0.14309232
-0.038644455 -0.15646704 -0.14091551 0.09430196 -0.06640944 -0.062818184 -0.058264565 0.04733568
-0.005805312 0.040044464 0.023625888 -0.13110425 0.059243523 -0.1623296 -0.019562442 -0.001898248
-0.11746754 -0.112827666 0.08800207 -0.1378267 -0.10447902 -0.12967148 -0.017124208 -0.049864825
0.018441644 0.026970271 -0.07252112 0.0002898397 0.092408806 0.060601268 0.024401382 0.07484686
0.0050061992 0.0078182025 -0.1609521 0.037031654 0.02753723 -0.12281961 -0.16215003 -0.04640395
-0.11615966 0.048072126 0.040113203 -0.02199783 0.037028644 -0.12034996 -0.05282493 0.05961074
00000000: faec 86bd 8077 303b b390 30bd b6ea fcbb
00000010: d7fa 7fbc 1797 02be e65f 503d 2561 0bbe
00000020: deba bfbd 16e9 e73c 3311 d3bd 1867 f9bd
00000030: 747f 73bc 6e6a d4bc c3ce d7bd 0736 a1bd
00000040: 7924 32bd 9234 933d 1038 973c 0f90 55bd
00000050: abfa 173c b9a6 073c 3836 e3bd c6d9 103d
00000060: ae1a df3c da3e 5a3d 87c6 993d b92b 9fbd
00000070: 5812 a93d ac0d d1bd 2e80 08be 6b18 6dbd
00000080: 279e d43c 247f 1cbe c4ca a9bc 5adc 80bd
00000090: eb25 3abd 7efc b6bd 57f3 f53c 4147 05be
000000a0: d407 063d b683 6abd 38a8 a93d 3bc7 883b
000000b0: 11ee bebd 9824 f03c b7c9 ea3c 52be 90bd
000000c0: 9dc2 0bbe a999 903c e396 34be 230d 543c
000000d0: 3f24 67bd 3071 45bd 6f67 e5bd 3f5c c9bd
000000e0: a9d7 0cbb 4a61 793d 5b65 53bd bbfd 003d
000000f0: f938 0fbe 5890 1bbd bcd0 54bd d302 04be
00000100: c1bb ebbd 941b 09be ab28 42bd a9ec 20be
00000110: dc07 9dbc ac5d f5bd d87a a7bc de38 f3bd
00000120: 2223 d43c de71 ff3c f475 70bd 4270 00be
00000130: d703 78bd 1545 1cbd 3131 c2bd 8e5e 26be
00000140: b348 bbbd cb28 cd3c 6ea5 b4bc 1116 2f3d
00000150: e571 d5bd 1f95 863c dc28 adbd f3b8 f0bd
00000160: 66c5 b6bc 6e8b 643d 87ca 0dbd 11eb 303d
00000170: dcb1 65bd c3d9 fdbd 48fc ebbd d693 8cbd
00000180: 6dab 803d db33 1abe 6bcf 6bbd e6e9 ff3c
00000190: f846 1e3d 7d69 f4bd e64a 2db8 e9f4 73bd
000001a0: 281f 883d d07d febd fb3e cdbd aed2 14be
000001b0: a2d1 d0bd 60ca 04bd 7fb5 0fbd ea76 babb
000001c0: 1c28 3abd 5afb e9bd 6293 343d ea55 dcbd
000001d0: 267c 533d ed3d 723d b741 24bd 53fb f4bd
000001e0: b1b6 ee3b 8350 1fbe eb51 893a a465 b039
000001f0: 99e4 cbbd 8532 ecbd c456 92bd 883c c23c
00000200: c263 cbbb 2cca d3bd d5c2 91bd 9837 c0bd
00000210: 2fde 5cbd e230 aebd c367 1bbd 776e 24bb
00000220: f12e 28bd eaf4 debc 26d0 79bc ff28 9ebc
00000230: bdbf 99bd 3846 e9bb cb7b 2bbc e81a ad3c
00000240: 633b 87bd 5b3b a43b 3598 873c 1288 863c
00000250: e98d 99bd c90e 443d b8a5 fabd f5d9 393d
00000260: 9dc3 06be 7da2 0abc 169e a7bc 92b1 a9bd
00000270: c9c3 ec3c ade4 94bd f477 09be a0c5 e73c
00000280: 1cd4 0abe 9f1f df3c 3bf6 6fbd 989b 8fbd
00000290: 44d9 ba3d def9 04be 212f 0d3d ef8d 9e3d
000002a0: c20f febd d35d 233d 60b5 4ebd 1eba 86bd
000002b0: 3137 3cbd 9445 183c 61c5 82bd 975c 01be
000002c0: b45c 84bc c848 a13d 58b5 acbd deb9 583d
000002d0: c1e2 c7bc 3b27 813d 148d 21bd f020 f53c
000002e0: c716 6bbd 5c5f 0c3d aab4 1ebe 62d3 39bd
000002f0: aea3 32bb c78c 14be 5ea6 87bc d713 84bd
00000300: 87c6 e3bc f6ad 1ebe f31f c3bd de4c 85bd
00000310: a807 283c 33cb 873d 8970 cfbd e0f5 9d3c
00000320: 7f01 e8bd 2306 b9bd b352 1abe 2e9a b6bd
00000330: 8819 0dbe cea0 513c 5e11 6a3d cb86 12be
00000340: a649 1ebd e538 20be 284c 10be 6321 c13d
00000350: ac01 88bd d2a6 80bd d3a6 6ebd 0fe3 413d
00000360: 7d3a bebb aa05 243d 148b c13c 3140 06be
00000370: 56a9 723d bb39 26be 6a41 a0bc a2ce f8ba
00000380: d292 f0bd 3112 e7bd 6e3a b43d 7122 0dbe
00000390: 19f9 d5bd 9ac8 04be 1148 8cbc 0f3f 4cbd
000003a0: ee12 973c c2f0 dc3c f485 94bd a0f5 9739
000003b0: d440 bd3d 0939 783d 68e5 c73c 4f49 993d
000003c0: 0b0b a43b eb17 003c a1d0 24be 81ae 173d
000003d0: c295 e13c d988 fbbd a80a 26be 1112 3ebd
000003e0: 1ee5 edbd 47e7 443d be4d 243d cb34 b4bc
000003f0: 59ab 173d 0a7a f6bd f45e 58bd 642a 743d
