best_bayesian_reformer_model.pth (torch, 113122 bytes, 52 tensors)

input_projection.weight f4 [32, 5]
00000000: e4e1 113e 6b60 503e eb90 92be 8883 863e
00000010: 01d5 ebbd 32a5 333e 4498 8ebe e49c 57be
00000020: 93be a4bd 367b 943e 5ec0 bbbe eba5 843b
00000030: 37ca b1be 65e3 f4bd 03f7 7abd 3064 4d3e
00000040: 0a6d c43e f41f bf3e 0489 60be 85d8 a8bd
00000050: ed74 e0bc f58f 45bc 417e b83d d764 7abe
00000060: dcc7 82be c1ba c6be 93fc e43c 6ab4 b33d
00000070: 1242 683e c173 a2be 8054 47be 87bc 1dbd
00000080: c75b 2e3e f3e9 513b d4e7 9b3d dfd3 a03e
00000090: eece bf3e 85a9 6d3e d68a 693e bcd4 c53c
000000a0: 9731 233e d495 7b3e 802d bc3e 6092 7f3d
000000b0: ce43 35be 787a 3ebe 9206 babd 81d0 37be
000000c0: 763a babe 49b2 973e 704a 083e aa5a b9be
000000d0: 0f74 d13e 9fd0 923e 5619 5a3e 7dc6 d9bc
000000e0: 09c9 a83e 1db8 283c fe6b d8bd 1160 f23e
000000f0: 7349 b43e ae1f ebbd 924d 4c3e af17 dfbd
00000100: ca8b 5fbc 4a54 71be 08f9 683e ba71 193e
00000110: a320 5d3e b4be 923e eedc 1e3e ba12 883d
00000120: a5fb d6be 16d4 043f f9a2 623e f467 1ebe
00000130: 0a37 13bd c021 8bbe 51cd 04bd f9f1 fe3a
00000140: 53bb 9c3e 374c e5bd e51d ba3e 7256 b33e
00000150: 4012 8abe 1d59 17be 2989 6a3e 9a9e 26be
00000160: c768 c13d cab4 2abe c7e1 943e 9830 02be
00000170: 0662 a03d e070 443e d355 a53e 9436 9fbe
00000180: f7bc 6e3e 114b 703e 40c2 7b3e 5466 81bd
00000190: 0a90 03be d246 a5be 8db7 b43e 82cc a1be
000001a0: 6bc5 403e 960f 823e 5d68 2ebd eab8 bf3e
000001b0: 14fa e9bc b65c c2be d742 49be 08ee 773e
000001c0: f648 783e e047 9c3d 0c1a c73d bd7d a33e
000001d0: 4695 b9be bee5 5d3d 0bb6 c0be 0657 c1be
000001e0: 8258 02be 3c6f b93d 5aa2 8b3e 0d4d 9f3e
000001f0: 7746 7a3e 6c8d b73e ce5d 9a3e 1ea9 f4bc
00000200: 1337 42be bc31 fb3e 210a 2cbe fcb8 a83c
00000210: 7ae3 7a3d 634d 753e 9070 6ebe d2bc 8c3e
00000220: 8904 7c3e 2ab3 81be 1af0 c03d 09c7 cbbd
00000230: 0642 b5be 32d2 f4bd 3510 abbd 7633 babe
00000240: aa38 e9ba 7b05 a6be ed8a 1f3e f038 04bf
00000250: c054 2fbc dbb7 773e 8846 17be 1cf4 97be
00000260: 91ce 683e 5eec 633e 7575 993e 4c7b 76be
00000270: 046b b73e 9fd7 af3e 6373 fabc 5d6e f13e
0.14246327 0.2034928 -0.2862619 0.26272225 -0.11515237 0.17543486 -0.27850544 -0.21055943
-0.08044162 0.29000252 -0.36670202 0.0040480993 -0.3472459 -0.119574346 -0.061270725 0.2005775
0.3836444 0.37329066 -0.21927267 -0.08244423 -0.027399505 -0.012058248 0.09008456 -0.2445253
-0.25543106 -0.38814357 0.027952468 0.087746456 0.22681454 -0.31728938 -0.19465828 -0.03850987
0.17027198 0.0032030314 0.07612577 0.31411645 0.37462562 0.23209198 0.22806868 0.024149291
0.15936886 0.24568874 0.36753464 0.062395453 -0.17701647 -0.18601406 -0.090832844 -0.17950632
-0.36372727 0.29628208 0.13309646 -0.36201984 0.40908858 0.2867479 0.21298727 -0.026583904
0.32965878 0.010297802 -0.10567473 0.47338918 0.35212287 -0.11480652 0.19951466 -0.10893189
-0.013644168 -0.2356731 0.22751248 0.1498479 0.21594481 0.2866112 0.15513965 0.06644197
-0.41988865 0.5188612 0.22132482 -0.15469342 -0.03594116 -0.27174187 -0.032422367 0.0019450776
0.30611667 -0.111961775 0.36350933 0.3502689 -0.2696705 -0.14780088 0.22903885 -0.16271439
0.09443813 -0.16670528 0.29078504 -0.1271385 0.078311965 0.19183683 0.3229204 -0.31096327
0.23314272 0.23466136 0.24585819 -0.06318346 -0.12847915 -0.32280594 0.35296288 -0.3160134
0.18825309 0.25402516 -0.042579997 0.37445766 -0.02856163 -0.37961358 -0.19654404 0.24211895
0.24246582 0.076308966 0.09721765 0.31931868 -0.362467 0.054174177 -0.37638888 -0.37761706
-0.12729076 0.090544194 0.27272302 0.31113473 0.24440943 0.35850084 0.30149692 -0.029865798
-0.18966322 0.49061382 -0.16800739 0.02059602 0.061252095 0.23955302 -0.23285127 0.27487808
0.24611105 -0.25332004 0.09420796 -0.09950072 -0.35401934 -0.11954154 -0.083527006 -0.36367387
-0.0017793376 -0.32426056 0.1558034 -0.5164938 -0.010701358 0.24191229 -0.14773 -0.29678428
0.22735049 0.22258136 0.29972425 -0.24070472 0.35823834 0.34344193 -0.030572599 0.47154513

input_projection.bias f4 [32]
00000000: c06d ebbd 42a6 e2be 153c aa3e a1d1 a83e
00000010: 6794 ffbc 84f9 d4be 2ad6 d8bd 1d80 95be
00000020: 30ad a43e 07f4 133d c508 c53c f7b5 6abe
00000030: ec62 6b3e 9890 a83e 38d5 e23e 8394 bc3e
00000040: 633b 8f3c 1aae 3fbe 36ca 693e e299 b0be
00000050: 6c74 34be e371 8f3e 7ffd bb3d 7ba3 14be
00000060: cf0e 7ebd 9288 903e c30d e2bd 5fb6 073e
00000070: c5cc 363e d005 a8be f5cb 2d3e 4e79 5f3d
-0.114955425 -0.4426747 0.33248964 0.32972434 -0.031198693 -0.41596615 -0.105877236 -0.29199305
0.32163382 0.036121394 0.024052033 -0.22920977 0.22986954 0.32922816 0.44303298 0.36832055
0.017484372 -0.18718758 0.22831044 -0.34492403 -0.17622536 0.28016576 0.0917921 -0.14515488
-0.06202584 0.28229195 -0.11037781 0.13253163 0.17851551 -0.32816935 0.16972335 0.054559045

reformer.layers.blocks.0.f.net.norm.weight f4 [32]
00000000: 7e4d 7d3f eb36 773f 28d2 793f bb6f 773f
00000010: c2f5 813f 0b47 773f a3ef 723f 845e 6f3f
00000020: 953b 713f 7d57 733f 4030 793f de4a 753f
00000030: 55d2 813f 67ef 7e3f 9710 7c3f 02f9 7f3f
00000040: 4e17 7b3f b890 703f cadf 7a3f 3b5f 7a3f
00000050: 2543 7b3f 70b4 783f c861 7b3f dc60 833f
00000060: 9f3d 7b3f b157 7e3f 3245 7f3f 9efc 773f
00000070: cbce 723f 3da3 743f 5c42 683f 5764 813f
0.9894637 0.96568173 0.975863 0.9665486 1.0153124 0.9659278 0.94896907 0.93503594
0.9423154 0.9505537 0.9733925 0.95817363 1.0142313 0.9958405 0.98462814 0.9998933
0.98082435 0.93970823 0.97997725 0.9780156 0.9814933 0.97150326 0.9819608 1.0263934
0.981409 0.99352556 0.9971496 0.9686984 0.9484679 0.9556158 0.90726256 1.0108746

reformer.layers.blocks.0.f.net.norm.bias f4 [32]
00000000: 8387 4c3a c927 e53c 167a 36bd b2d4 15bd
00000010: 2243 c9bc 9f32 393c 7620 c33c b511 153d
00000020: 3650 e6ba a2f1 09bd 87c7 643c b480 7c3d
00000030: 3558 56bb 9cd8 51bc d027 a8bc 4368 a5bc
00000040: 0175 c33c 86ba 143d 9212 51bc 4753 353d
00000050: d800 103c a983 413c ccbf 5d3c 6685 c0bc
00000060: e52e d63b 56b5 8b3b ffbe 8e3c 3e4d cabb
00000070: 83f6 c3bc 8dec 4d3d be82 8cbd cc73 c1ba
0.0007802175 0.027973073 -0.044550024 -0.036579795 -0.024568144 0.011303573 0.02381919 0.03639384
-0.0017571512 -0.033677705 0.013963587 0.06164618 -0.0032706384 -0.012807991 -0.020526797 -0.020191317
0.023859503 0.036310695 -0.012760775 0.044268873 0.008789264 0.011811175 0.0135344975 -0.02350111
0.006536352 0.0042635603 0.017425058 -0.006173759 -0.023921257 0.05027442 -0.068608746 -0.0014759242

reformer.layers.blocks.0.f.net.fn.toqk.weight f4 [32, 32]
00000000: fa53 e3bc 043e bb3d d2fe 80be 9701 c2bd
00000010: 914b 153e b543 3f3d f8b3 803e 6b72 703d
00000020: d4cb 93bd b82f a3bd 3587 05be 882c 2b3e
00000030: 3004 6ebe c95c c73d 0074 1d3c 928f 4ebe
00000040: 7228 e63d bfc8 2e3e 7529 2e3d a656 793e
00000050: 703e 503b dfc5 ec3c aaaf 1d3e 9de1 b3bd
00000060: 6435 76b8 980d 51be e41d 063e 2f6a 0a3d
00000070: 8953 fdbd 7b70 0f3e ecca 053e 9663 8b3d
00000080: 299a 0f3e 28cd aa3d 1612 d9bd b772 053e
00000090: ff71 1c3e 828c e2bd cc0f 63bc d5ed 55bd
000000a0: 75a2 123e 5f20 193d e157 293e 8c89 cdbd
000000b0: a48d 0abe e99d 44bc d68b ff3d b1b5 72be
000000c0: eb46 d4bd 0494 dc3d 6e11 33be 4b06 5f3e
000000d0: 3c0c 2b3d 3855 72bd e965 0abd b860 c1bd
000000e0: 7d1b fb3d ba87 29be 5b6c eabb 95ca 23bd
000000f0: 7913 6cbd 47b2 d03d d0a4 803d 12d9 d1bd
00000100: f3f1 49bd 7a7e 383d c6a3 64be e68f a43d
00000110: 3d10 91ba 17a4 2d3e 69d1 e43d 4a9e cbbd
00000120: 0f3a 653c a21c 7f3d 770f 813c e9d5 803d
00000130: f6d1 a1bd 33a5 a03d 7679 0ebe 0df6 583d
00000140: 3c85 303e accd 0f3d 6be7 0e3e 1704 ab3d
00000150: 803d eebd 4b96 e6bc 94b4 47be b5bb 36bd
00000160: db42 bd3d 5978 39be 442b f5bd 58ae 03bc
00000170: 8f2d 36be 5d49 323e a6f2 42bc f234 77bd
00000180: 381f 3d3e ff9a 383e 123b c4bc 612d 51be
00000190: 21e9 19be 7c31 463d b724 373e c7c0 003e
000001a0: c127 ccbc cd9b a7bc 51d6 003e 2495 90bd
000001b0: 476e f1bd a8f4 41be 7ec6 19be a402 e5bd
000001c0: 1d36 023e b671 98bd 1a4a 84bd 94b0 af3e
000001d0: cc9d 1e3e b495 763c a186 be3d b768 c4bd
000001e0: ca12 333e d1ab 133d 381d 573e eaf5 de3d
000001f0: 5544 2cbe 6178 713c 7e47 223e ca5d 09be
00000200: 6d36 05bd fdf0 823d 1834 51be 7d05 6c3c
00000210: ab0d 8abd a59b 0bbd 0b70 c83d 1aff 423e
00000220: 9563 2cbe 58cf 50bd 0092 043e b860 473d
00000230: 9172 70be 4eca 3b3d b53f 18bb c8b4 4d3b
00000240: e958 3d3e ccc3 c43d ae80 873d 34f9 1c3e
00000250: bcb1 da3d 1a58 7f3d 613c 13be 11f4 ffbc
00000260: addc 0abe 7ba4 1cbe 12d0 f73d e0d4 31be
00000270: 8bc4 10be 8a27 e53d b62c 8dbc f93c 4fbd
00000280: 9293 133d 6a34 0abe dbe6 b7bc d345 5dbe
00000290: 260e 27be 73e0 853e 8e66 98bd 1e27 693e
000002a0: cbe3 91bd 4302 a53d 00d3 963d 87fa 4d3e
000002b0: 8758 71be 52ca e6bc dd15 debd d832 97be
000002c0: be9b 503e 77e9 fb3d 7a1f a5bc 3bc1 0a3c
000002d0: 0480 7139 8917 97bd 6ef6 c6bd d6f8 e63a
000002e0: ff9f 2b3e a55e febd cb30 1c3e 9624 83bd
000002f0: f7b3 92bc 82be 633d 68a0 363d 4567 4e3d
00000300: 260f 9f3d 5255 00bd 385a 8dbb 3153 dabc
00000310: 0ba4 fbbd 6de6 bcbc e15a db3d 2d49 20bc
00000320: 5729 4dbe 723d aebd 6fe1 113e 7d50 a6bc
00000330: 3ddc 13be 43ef a13d 055e eebc f339 6fbe
00000340: e4c6 503e db80 0c3c e5e6 813d e88a 2d3e
00000350: 9abc 8f3d 8c93 d53c 10ec 1cbe fa72 ee3d
00000360: 12b0 d33d bfd8 e9ba 0230 023e 6801 01be
00000370: 118e 20be fcd7 da3d c67d b7bd e143 0dbe
00000380: b269 b0bc 0d1d 443a 5d27 233e dc0b 28bd
00000390: f548 8c3c 4e39 f43a e982 23be bab0 093e
000003a0: 6b26 40be 7b24 413e 8d0e f03d f29b acbd
000003b0: 8b30 563e 19cd 4b3d 2b15 a8bd 3143 523e
000003c0: 5682 093e d7cb 0dbe bd11 473d 1dbd 19be
000003d0: 4432 b73d abdb 0a3e e561 d63d 2e20 e33d
000003e0: d522 5cbd 36fa 433e 4096 75bd c27b 4a3e
000003f0: 4238 f9bd fadd b7bd 52ef 043e cc6a dabd
-0.027750004 0.09142688 -0.25194412 -0.094729595 0.14579608 0.04669543 0.25137305 0.058702867
-0.072166115 -0.07968086 -0.13039859 0.16716206 -0.23243785 0.09734494 0.009610176 -0.20171955
0.11238183 0.17068766 0.042520005 0.2434946 0.0031775497 0.028902946 0.15399042 -0.08783267
-5.8700694e-05 -0.20415342 0.1309734 0.03379267 -0.12369449 0.14007752 0.1306569 0.06806104
0.14023651 0.08339912 -0.10599153 0.13032041 0.15277861 -0.11061956 -0.013858747 -0.052228767
0.14319785 0.037384387 0.1653743 -0.100360006 -0.13530594 -0.012000539 0.124778435 -0.23702122
-0.10365089 0.10770419 -0.17487118 0.21779744 0.041759714 -0.059163302 -0.033788595 -0.09442276
0.12261102 -0.16555682 -0.0071540303 -0.03998812 -0.057635758 0.10190254 0.062814355 -0.10246481
-0.049303006 0.045042492 -0.223281 0.08035259 -0.0011067461 0.16957127 0.11172754 -0.099423006
0.013990893 0.062283166 0.015754445 0.062908 -0.07901375 0.07844009 -0.13913521 0.052969027
0.17238325 0.035108253 0.13955466 0.083503895 -0.11632824 -0.028147837 -0.19502479 -0.044612605
0.09241267 -0.18112315 -0.11971143 -0.008037172 -0.17790817 0.17410798 -0.011898672 -0.060353227
0.1846894 0.18027876 -0.023953948 -0.20427467 -0.15030338 0.048387036 0.178851 0.12573539
-0.0249213 -0.020460034 0.12581755 -0.07059696 -0.11788612 -0.18940985 -0.15017125 -0.11182144
0.12715955 -0.07443564 -0.06459446 0.34314406 0.15489882 0.01505034 0.09303022 -0.09590285
0.17487636 0.03605253 0.2100724 0.10886748 -0.16822942 0.014738173 0.15847585 -0.13414684
-0.032522608 0.06393621 -0.20430028 0.014405605 -0.06740888 -0.03408398 0.097869955 0.19042626
-0.16834863 -0.05097899 0.1294632 0.048676223 -0.23481204 0.04584723 -0.0023231332 0.0031388272
0.18490948 0.09607658 0.066163406 0.15329438 0.106784314 0.06233988 -0.14378501 -0.03124431
-0.13560744 -0.1529712 0.12100233 -0.17366362 -0.14137475 0.11189182 -0.017233234 -0.050595257
0.036029406 -0.13496557 -0.022448948 -0.21608667 -0.16313991 0.26147804 -0.07441436 0.22768828
-0.07123526 0.08057072 0.07364464 0.201151 -0.23568927 -0.028172646 -0.10844014 -0.29530978
0.20371911 0.12300389 -0.02015661 0.008468921 0.0002303124 -0.07377536 -0.097149715 0.0017621766
0.16760252 -0.12420396 0.15252988 -0.064034626 -0.01790808 0.055601604 0.04458657 0.050391454
0.07766561 -0.031331368 -0.0043137334 -0.026650997 -0.12287148 -0.023059094 0.10710693 -0.0097830715
-0.20035301 -0.085078135 0.14246152 -0.020302052 -0.14439483 0.07906964 -0.029097566 -0.2336195
0.20388371 0.008575643 0.06342868 0.1694752 0.07018395 0.026071332 -0.15324426 0.11643024
0.10336317 -0.0017841085 0.12713626 -0.12598193 -0.15679194 0.10685727 -0.08959536 -0.13795425
-0.021534774 0.00074811355 0.15932985 -0.041026935 0.017124632 0.0018632801 -0.15967907 0.13446322
-0.18764655 0.18861572 0.11721525 -0.08428182 0.20916955 0.049756143 -0.082071625 0.20533444
0.13428625 -0.1384729 0.0486009 -0.15013547 0.08945134 0.13560359 0.10467891 0.11090122
-0.053744156 0.19138417 -0.059957743 0.19773772 -0.121689335 -0.089778855 0.12981918 -0.10664901

reformer.layers.blocks.0.f.net.fn.tov.weight f4 [32, 32]
00000000: ce44 4c3d 474b d1bb d56d cfbd ea5b 5cbd
00000010: c218 01bd 6370 0dbe a98e 6abd ea59 a3bb
00000020: 89e9 323e 9b6d 113d 2151 28be f158 87bd
00000030: 9a58 e13d 22a4 993c 7c6f a8bd 3122 47be
00000040: b198 0fbe e53d cbbc 380b 423e 04f7 89bd
00000050: 10d2 033e 6b01 82bd 32b8 22be 113d 513c
00000060: b978 71bd 53d2 0d3e 4169 95bd 57da c6bd
00000070: b85c 02be f05e d0bc b5da da3d edbf fd3c
00000080: 171e 353e 7482 5fbc ba98 edbd 45a2 99bd
00000090: abe7 1fbe 4a38 813c 0897 f63d 30de bbbd
000000a0: 742e ff3c 5c0b 953d 8bb6 2f3e 8379 b1bc
000000b0: fc35 b43d 4749 0c3e 0f65 053e c1f7 c6bd
000000c0: 0b4c 7f3e c9f6 b33d c377 a9bd 8f42 91bc
000000d0: a248 d23d b91f f6bd 1620 77bb 2660 11be
000000e0: 047c 223e 4c49 dcbd b981 533d 96d1 c4bc
000000f0: 2ca3 c9bd d258 3e3d a3ca a63d ca23 d13c
00000100: d5be 2bbe 8251 cdbd 3f1f 0a3e 8b4c ab3d
00000110: bce5 a2bd d1e4 173e 64c1 efbc bb5e c1bd
00000120: 5db2 86bd ab4e 3a3e 5353 0fbe 26c0 12be
00000130: 56af 3b3e a270 b73d 3d23 ebbd c64c cdbd
00000140: 2fa7 96bd 78b8 4abd 4ded 143e 6b75 e5bd
00000150: ccfd 4fbb a291 843d dac3 18be 3eb4 033e
00000160: 9b37 a7bd 4017 41bd 2885 233e e93d 92bc
00000170: 5c40 8cbd 8ec1 2f3e 2495 a9bd 3e8b a73d
00000180: 69ce 173e 16b2 55bb 4206 f1bd dcb1 5dbd
00000190: d0f8 3e3d 2cc0 14be 17d1 f7bd 9c2c 1a3e
000001a0: c335 55bd 2d6b 06bd 1542 023d 1ad7 c9bb
000001b0: 72c2 c6bd d91f 483d 04eb dd3d 1697 103d
000001c0: d121 01be 7c58 903d 3fa7 95bd 014d 303e
000001d0: 08fd 1dbe 7dfc 14bd 996c 5dbd 2a43 e93c
000001e0: 7c64 70bd ccaf ba3d 4871 793c 5204 d1bc
000001f0: 44e3 58bd c1f2 35bc 9867 95bd de10 0a3e
00000200: 6149 e0bd 90eb 7dbb 64ab 01bd 825f 9b3d
00000210: 0b26 27be 01d7 0dbe 40f2 86bc ef7c 823a
00000220: 14eb ba3c 9c55 be3d 2885 17be a93d e4bd
00000230: 0918 2cbe a36c 4b3d bc64 1ebe b516 ee3c
00000240: 5534 d53d d14c 983d db0e fc3d d458 473e
00000250: dd86 2d3d ffac f63d 3ae5 e3bc db9d 10be
00000260: b09f 0d3e be43 57bd 5b3d 963d c77d 363c
00000270: 1ff6 d4bd bd35 febd 3b46 0b3d 8479 cdbd
00000280: 44eb 0abe 33ee f93d 0bf6 f73c 5534 fb3c
00000290: 528c 103e 3de4 cfbc 5e5f d13b d275 32bd
000002a0: 006b 16be 93c4 133e f7de d13d e566 ebbd
000002b0: c2be b33d 161e cebd 31f2 a13d 7efb f4bd
000002c0: 774f e83d d648 1abe c50f 2e3d b283 353d
000002d0: b7e6 173e 8f5f 323e dc53 01be e803 3bbd
000002e0: 2d9f 9e3d 3d06 f73d 8f1e fcbd 0e98 cc3d
000002f0: 3352 8d3d 5a64 af3d 3e28 5dbc cc95 75bd
00000300: bb0f 0e3e 3954 4ebd 01a5 2dbe 8281 053e
00000310: 8b62 28be 999d 20be 5ab5 a7bd fe41 fabc
00000320: ef76 97bd f9d6 93bd 345b 8a3d dd45 b63d
00000330: 29fd e83d a820 e43d ba9a b2bd 6196 15be
00000340: cbdb 113e 29f3 b7bc 62a7 84bc 68f5 44be
00000350: 5017 efbd 738c 11bd 41c5 a03d 44c1 dbbd
00000360: 4982 393d 6bf5 93bd 3c6d e3bd 8e2c c43c
00000370: 5b19 313d 359c abbd 9dc9 123e a522 2bbe
00000380: e535 573d b15e 823d 49ca cdbd a48d 37be
00000390: 6700 01bd 6872 c03d 93c1 b0bd 771f 90bc
000003a0: 63c2 84bd df81 d8bd 6360 a2bd 83f2 fe3d
000003b0: f8ba 02be db78 f4bd aced 383e b07b 21be
000003c0: 79ad 03be 6432 2fbe 2871 c4bc 5c7f 10be
000003d0: f095 80bd 0699 efbd 8482 8bbd a290 7ebd
000003e0: d1ef b5bd 9920 d8bc 2433 193e aee5 c73d
000003f0: b8e7 49bd 03f7 3abe e6e8 20be 905d 0fbe
0.049870305 -0.0063871476 -0.10128371 -0.053798594 -0.03151775 -0.13812403 -0.057264958 -0.004985084
0.17471899 0.03550492 -0.16437198 -0.06608761 0.110032275 0.018755022 -0.08224389 -0.19446637
-0.14023091 -0.024809787 0.18949592 -0.067365676 0.12873101 -0.06347927 -0.15890577 0.012770907
-0.05895302 0.13849764 -0.07295466 -0.09709614 -0.12730682 -0.025435895 0.10686246 0.030975306
0.1768726 -0.013641942 -0.11601396 -0.075016536 -0.15615718 0.015773911 0.12040526 -0.09173238
0.03115008 0.07277557 0.17159478 -0.021664387 0.08799359 0.13699828 0.13026832 -0.09715224
0.24931352 0.08787305 -0.08274796 -0.017731933 0.1026776 -0.12017769 -0.0037708334 -0.14196834
0.1586762 -0.10756168 0.051637385 -0.02402572 -0.09845576 0.046471424 0.08144119 0.02552976
-0.16772015 -0.10025312 0.13488482 0.08364209 -0.079539746 0.1483338 -0.02926702 -0.094418965
-0.06576989 0.18194072 -0.1399663 -0.14331111 0.18328604 0.0895703 -0.114813305 -0.10024409
-0.073561065 -0.04949233 0.14543648 -0.11204036 -0.0031736968 0.0647309 -0.14918461 0.12861726
-0.08164903 -0.047141314 0.15968764 -0.017851787 -0.06848213 0.17163679 -0.082803994 0.08180855
0.14824833 -0.0032607368 -0.11768772 -0.054124698 0.046624005 -0.14526433 -0.121004276 0.1505608
-0.052053224 -0.032817055 0.031801302 -0.0061596753 -0.09705056 0.048858497 0.10835841 0.035300337
-0.12610556 0.07048127 -0.0730729 0.17216875 -0.15428555 -0.036373604 -0.054058645 0.02847441
-0.05868958 0.09115562 0.015224762 -0.025514755 -0.052951112 -0.01110524 -0.072951496 0.13482997
-0.10951496 -0.0038745143 -0.03165759 0.07586576 -0.16323106 -0.13851549 -0.016472936 0.0009955446
0.022817172 0.092936724 -0.14796889 -0.11144573 -0.16806044 0.04966415 -0.15468115 0.029063562
0.10410372 0.074365266 0.12307521 0.19467479 0.042364944 0.12044715 -0.027819265 -0.14122717
0.13830447 -0.05255484 0.073359214 0.011138386 -0.103985064 -0.124125935 0.034002524 -0.10032943
-0.13566309 0.12203636 0.03026869 0.030664602 0.14116028 -0.025377387 0.0063895425 -0.043569393
-0.14689255 0.14430456 0.10247605 -0.11494235 0.087766185 -0.10064332 0.079075225 -0.11962031
0.11343282 -0.15066847 0.042495508 0.044315048 0.14834104 0.17419265 -0.12629646 -0.045658022
0.07745204 0.12061737 -0.12310516 0.0998994 0.06900444 0.085640624 -0.013498364 -0.05995731
0.13873188 -0.05037329 -0.16957475 0.13037685 -0.16443841 -0.15685119 -0.08188887 -0.030549046
-0.07395732 -0.07218737 0.06755677 0.08900044 0.113764115 0.11139041 -0.08720918 -0.14608146
0.14244 -0.022454815 -0.016193096 -0.1923424 -0.116743684 -0.035534333 0.07850123 -0.10730222
0.045290265 -0.07224544 -0.11104819 0.023947027 0.04323707 -0.083794035 0.14334722 -0.16712435
0.052541632 0.06365717 -0.100483485 -0.17925125 -0.031494524 0.09396821 -0.08630671 -0.017593129
-0.06482389 -0.10571646 -0.079285406 0.12448599 -0.12766635 -0.11937114 0.18059415 -0.1576984
-0.12859143 -0.17109066 -0.023979738 -0.14111084 -0.06278598 -0.11699109 -0.06812003 -0.06214965
-0.08883632 -0.026382731 0.14960915 0.09760605 -0.04929325 -0.1825829 -0.15713844 -0.14000535

reformer.layers.blocks.0.f.net.fn.to_out.weight f4 [32, 32]
00000000: 2dbd 18be e8f1 87bd 3e99 293e 5acc 3dbe
00000010: 0981 b83d 1e34 0fbd 1c29 aabd ae9d 0ebe
00000020: 912a 9b3d e85f 19bd a003 e03c a632 f6bb
00000030: 5355 2bbd cd97 cebd 9815 07be 9d9a 0cbd
00000040: a01f 3f3d d626 2e3e d90d 5d3d cca9 debd
00000050: 46f1 d63c 048e f63d 80c8 0d3e 1399 42be
00000060: ccdd 35be ed35 143e fae1 b3bb 0742 b1bd
00000070: cd3e 6c3d 64c3 38be da01 60bd e283 0a3e
00000080: 6d2b 753b c54c 2a3e c0ea f23d 70c8 ecbd
00000090: 2e46 cebd acda 4c3a d819 39be 840a 813d
000000a0: cc45 393c a8dc 2bbe c691 fb3d 2ffa 3cbe
000000b0: 527e a1bc b8f0 1bbe b5ae 12bd a2c1 373e
000000c0: e5da e6bd 9f9a 11be 746f e73b 7493 243d
000000d0: 7638 6d3c 220c 583d 932e d2bc 7445 003e
000000e0: bf10 463d 4800 df3c 4e2e de3d feaf adbd
000000f0: 0aba 823c ffec a9bd 3d2a 4abd d16c 39bc
00000100: d9a4 18bd 53ea 88bd 8b72 1d3e f75a b9bd
00000110: f66f c1bd 574d 15bc fdce 9dbc d119 29be
00000120: bf57 c13d 1389 88bd 7c53 01be a50f 89bd
00000130: 76d1 1b3e 8626 e3bd d740 54bc 6b5a d63c
00000140: a00d 7bbd 6c61 b6bd 4494 12bd 9e19 fe3d
00000150: 2349 edba c2ee 503e c6ab b0bd d9c0 a9bd
00000160: bdd2 f0bd 0ad6 0a3e 4da1 c33d 6afb 11be
00000170: c8ca f93c 9176 973d 6e06 0cbe 2f42 7abc
00000180: 82a9 4fbe 9d3f d33d 3ac3 bdbc ad97 093e
00000190: 6c81 3bbd ba91 443d 19f1 90bc 971b 813d
000001a0: 28cd 23be d29d 17bd 185d 913c 6f5d 0dbe
000001b0: 7c96 8abd 7caf 243d c96e 783d 083b 74bd
000001c0: 46a1 f93d 72c5 aabc d2c7 f5bd d25d b43d
000001d0: dc99 7d3d f0e5 31be 02e2 bebd ab8b 95bd
000001e0: cb36 3cbe d08a 37be 8c3b 5dbe 8498 f83d
000001f0: 4a51 0f3e 61a2 c0bc 4ef3 62bc 05d9 16bb
00000200: c730 f13d fc63 e23d 08db 0cbe 14d2 97bb
00000210: ce4a e63d d9a9 3f3e 3839 52bd 4860 b0bd
00000220: bd4b 96bd 9548 06bd 5418 6abd 9997 a6bc
00000230: c196 43be ae7f 5ebb 3039 12bd f9d6 313e
00000240: 3ad4 e1bd 809a 003e 6dfa dc3c c6e9 1e3e
00000250: 3cfa 1c3d 0bd6 13be 6419 d73c a65b 96bd
00000260: 62ff dfbc 8804 35bd a1ae bf3b b2b1 e93d
00000270: 5884 033e 4cbc b3bd ba80 e3bc 3c4d b43d
00000280: 2680 58bd 0f0f e6bd affa 043e a579 ad3d
00000290: c6bc c1bd cb2e b4bd 50db b5bd b6a4 67bd
000002a0: b9dc a0bd d944 1dbe 1bc8 813c c934 fc3c
000002b0: 21b6 863c d0aa adbd a394 0ebe a82e 173e
000002c0: 88cd ecbc 55e8 cfbc fffb 193c cbee 8fbd
000002d0: 0c44 07be 56e5 1dbe ca68 a03d ac9c d73c
000002e0: ad6d dfbd 6c87 cebd df3b 1d3c 63d8 283c
000002f0: 14c7 953d 04d3 09be 8627 16be 2bcc 063e
00000300: f58f b4bc 030c 043e d13d 86bd 4044 003e
00000310: 0f17 07be 9abb 263d 0992 e0bd d20d 5a3d
00000320: 67af e73d e0ce 8bbd d2db 2dbe 06cc b83d
00000330: 46c0 b0bc 6e18 cc3c 9915 a33d 01a0 27be
00000340: 6ed7 a13c df7c edbd c9e3 b3ba 5fd6 53be
00000350: d4c9 2fbe e419 bb3d 8a48 75bd 4852 233b
00000360: 6071 7f3d aaa4 febd 5ef4 debd a9aa cbbd
00000370: 1712 1b3c 81b9 f4bd f60d 4e3e da82 04be
00000380: af7f 11be 0ee7 cbbd ab7c 903d 8e5d af3d
00000390: 9bf5 1cbe 4bba d23d ffa3 0bbc df26 d8bd
000003a0: 1ebe 17be 7701 49bd 026d 8abe 3035 963c
000003b0: 3123 85bd be4b 40bd 07e4 a53c bc92 8c3d
000003c0: 76c9 453d af35 55bd e222 5f3d 0a85 203e
000003d0: 0200 15bd 32bf c93d 5d0c 6abd 1286 023e
000003e0: 30c4 b1bd 15d7 473e 2ca2 36bd be7a 95bd
000003f0: e270 c0bd 4e6b 08be db6a 09be 3255 513e
-0.14915915 -0.06637937 0.16562364 -0.18534985 0.090089865 -0.034961812 -0.08308622 -0.13927338
0.07576478 -0.03744498 0.027345479 -0.007513362 -0.04182942 -0.100875475 -0.13191831 -0.03432714
0.04666102 0.17007002 0.053968284 -0.1087223 0.026238095 0.12038806 0.13846016 -0.19003706
-0.1776039 0.14473696 -0.005489585 -0.08655172 0.05767708 -0.18043286 -0.054689266 0.13526872
0.0037409917 0.16630848 0.11861181 -0.11561668 -0.100719795 0.0007814567 -0.18076265 0.06300834
0.011308145 -0.16783392 0.122836635 -0.18454812 -0.019713555 -0.15228546 -0.035811145 0.17944959
-0.112722196 -0.1421914 0.007062847 0.040179685 0.014478793 0.052745946 -0.025656974 0.12526494
0.048355814 0.027221814 0.10848676 -0.084808335 0.015957851 -0.082971565 -0.049356688 -0.011317448
-0.037266586 -0.06685319 0.15375726 -0.09050553 -0.09445183 -0.009112678 -0.019263739 -0.16513754
0.09440564 -0.0666677 -0.12629503 -0.06692437 0.15216622 -0.11091332 -0.012954912 0.026166162
-0.06129229 -0.089053005 -0.03578593 0.1240723 -0.0018103461 0.20403579 -0.08626513 -0.08288736
-0.11758945 0.13558212 0.0955225 -0.14256063 0.030492201 0.073956616 -0.13674328 -0.015274568
-0.20279506 0.10314868 -0.02316438 0.13436766 -0.045777723 0.04799054 -0.01769309 0.063040905
-0.1599623 -0.037015744 0.017744586 -0.13805173 -0.06766984 0.040206417 0.060652528 -0.05962661
0.121889636 -0.020846102 -0.12001003 0.08806957 0.06191431 -0.1737287 -0.09320451 -0.0730203
-0.18380277 -0.17924047 -0.21604747 0.12138465 0.13995853 -0.023514928 -0.013851954 -0.0023017537
0.11776882 0.11054227 -0.13755429 -0.0046331976 0.112447366 0.18717135 -0.0513241 -0.08612114
-0.07338665 -0.032784063 -0.057152107 -0.02033596 -0.19100477 -0.0033950615 -0.03569907 0.17367162
-0.11026807 0.12558937 0.026974881 0.15518865 0.03832458 -0.1443712 0.026257224 -0.07341699
-0.027343456 -0.044193774 0.005849675 0.11410846 0.12843454 -0.08776149 -0.027771343 0.08803794
-0.052856587 -0.11233341 0.12986253 0.084704675 -0.09459834 -0.087979876 -0.08879721 -0.056553565
-0.078545995 -0.15358295 0.015842488 0.030786889 0.016444268 -0.084798455 -0.13923888 0.14763892
-0.028906599 -0.02537934 0.009398459 -0.07027968 -0.13209552 -0.15419516 0.07832487 0.026319824
-0.10909591 -0.100844234 0.009596794 0.010305497 0.07313362 -0.13459402 -0.14663514 0.13163821
-0.0220413 0.12895207 -0.06554759 0.12526035 -0.1319239 0.040706255 -0.10965354 0.053235836
0.11312752 -0.06826568 -0.16978386 0.090232894 -0.021576058 0.024913993 0.07963104 -0.1636963
0.019756045 -0.11596083 -0.0013724501 -0.20687245 -0.17166835 0.091357976 -0.05988363 0.002492087
0.062363982 -0.12433751 -0.10886453 -0.0994466 0.009464762 -0.119494446 0.20122513 -0.12940541
-0.14208864 -0.099561796 0.070550285 0.08562766 -0.15328066 0.10289439 -0.008522986 -0.10554289
-0.14818618 -0.049073663 -0.2703629 0.018335909 -0.06500853 -0.046947233 0.020250333 0.06863925
0.04828783 -0.05205315 0.054476626 0.1567575 -0.03637696 0.09850921 -0.057140697 0.12746456
-0.08679998 0.19515641 -0.044588253 -0.07298802 -0.09396531 -0.13322183 -0.13419668 0.20442656

reformer.layers.blocks.0.f.net.fn.to_out.bias f4 [32]
00000000: 0e3c 0a3d c688 793d b833 16be ae44 13be
00000010: 286c 2d3d ee68 aa3d 3604 2fbe f865 993d
00000020: 3188 363e ded5 7d3d 2979 e5bd b9ba 1f3d
00000030: 67d4 0fbe 2278 e93d f274 f4bd c366 d73d
00000040: 04c4 9abd 49ef 3c3e 4321 003e f193 8ebd
00000050: 6f35 133e 5cb8 783d b9e3 90b9 e4ca 3e3d
00000060: e25b 32bd c847 8f3c 4971 153d 874b ffbd
00000070: 4b58 04be 011f ff3b 7ebd 63bd 3bdb 72bd
0.03374868 0.060921453 -0.14668167 -0.14381668 0.042339474 0.08320795 -0.1709145 0.07490152
0.1782539 0.061971538 -0.1120475 0.038996432 -0.14045869 0.11399867 -0.11936368 0.10517647
-0.07556918 0.18450655 0.12512688 -0.06961811 0.14375852 0.060722694 -0.00027635487 0.04658021
-0.043544658 0.017490283 0.03648499 -0.124655776 -0.12924306 0.0077856784 -0.055600636 -0.059291106

reformer.layers.blocks.0.g.net.norm.weight f4 [32]
00000000: daaa 813f ac51 7b3f d3ae 7c3f a46f 783f
00000010: 1e0d 833f 50fe 823f 4e2f 823f d45c 813f
00000020: 5461 823f 3f27 823f eb5a 883f 484d 813f
00000030: f118 683f 40c7 793f c3c2 7e3f 4f80 7a3f
00000040: b57a 683f 4132 853f bb82 893f e806 813f
00000050: 073e 863f c3a8 823f 6e37 773f 5af0 843f
00000060: 90d3 7f3f a832 8a3f db88 823f 2fc9 7c3f
00000070: 154d 7f3f 4772 803f df89 833f 1127 823f
1.0130265 0.98171496 0.9870426 0.9704535 1.0238378 1.023386 1.0170686 1.0106454
1.0185952 1.0168227 1.0652746 1.0101709 0.9066306 0.97569656 0.9951593 0.97852033
0.90812236 1.0405961 1.0743021 1.0080233 1.0487679 1.0207752 0.96568954 1.038585
0.99932194 1.0796709 1.0198015 0.9874448 0.9972699 1.0034875 1.027645 1.0168172

reformer.layers.blocks.0.g.net.norm.bias f4 [32]
00000000: 20ab c8bc b4cb b03c 94c0 06bd eaa7 a1bc
00000010: 5c66 953b 612a a83c 03c4 023d efec 15bc
00000020: dacf e2bc b130 0cbd 9d4d fb3c fbb5 d1bb
00000030: 6fe1 353d c4da 4e3c e0a3 babb f0bc 00bc
00000040: c3a3 803d d045 92bc b516 543b 7958 763b
00000050: 7a5a c7bc c313 cfb9 f94a cf3b eeb9 813a
00000060: b7fa e93c ce3d a5bc 3e7f de3b afd0 913c
00000070: 3550 20bd 8d8c 44bb 4b9f bc3b 596e 3e3b
-0.024495661 0.021581508 -0.0328985 -0.019733388 0.0045593213 0.02052802 0.031925213 -0.009150728
-0.027687002 -0.034226123 0.030676657 -0.0063998676 0.044404443 0.0126254 -0.005695805 -0.007857546
0.06281235 -0.017855555 0.0032362167 0.0037589355 -0.024335135 -0.0003949684 0.006326076 0.000989733
0.028561933 -0.020171072 0.006790071 0.017799703 -0.03913899 -0.0029991001 0.005756294 0.0029057472

reformer.layers.blocks.0.g.net.fn.fn.w1.weight f4 [128, 32]
00000000: 1f35 0ebe b3a6 b13d 40bb bf3d ec81 12bd
00000010: 0a64 403e ea70 9cbd e58f d53d 353f 193d
00000020: fab6 f3bd 065a 49be 0ed5 b1bd ad91 dbbd
00000030: 17bd c7bd c88b edbd 9186 003e 8ff0 f0bd
00000040: 88b8 ecbd f211 9f3a 1fd2 b63d 9bba 073e
00000050: 8a7e 48be 389a 2a3e f654 0cbe ab70 0fbd
00000060: a789 bc3d 79cc 503e 2b0c abbc f0a6 ef3c
00000070: 3bd0 14be d2cb ecbd 0db1 f53c 844f 14be
00000080: be7e 5b3c efa3 8abd 83fa a23d 6eed 48bd
00000090: a5d2 423d 3ad1 8e3d 2912 08be 4d1b fc3d
000000a0: 943d 20bd 2d7e 113e 1904 1bbe 1062 b23d
000000b0: 9c5c 543d 85aa cfbc e35b e53c d305 e2bb
000000c0: dc2c 06be c5ae ea3d 2e59 82bd c709 303e
000000d0: 8017 b3bd e9d1 c5bd a79b 133e a08d 433e
000000e0: cf11 9b3d 798a 03be b2c9 473b cbfd d93d
000000f0: 4981 893d 1a14 91bb 87d2 6cbe 97cd 0ebe
00000100: 46f5 fa3c fdff 0dbe 8d68 0abe f236 0fbe
00000110: 62b3 24bd 04d9 4b3e f01a d4bd 63b1 693e
00000120: e282 343e 3998 193e e782 1ebe dbca a3bd
00000130: d88c 153e 77bc bdbd e8c9 78bd c648 01be
00000140: 2ba8 403e 2752 aebd ce94 ecbd 412b febd
00000150: 4d00 0d3e d7e3 38bd 2f25 9fbd 21ed 2abe
00000160: 319d b83d 050d 063e f28e 6abd 8dc0 083e
00000170: 0f90 ff3d 8399 7abd 3138 1dba 6d04 ccbd
00000180: 049f 3d3e 1ec3 663e 25d8 9f3d fdf5 aebd
00000190: 0e51 dcbd 15ef 7a3e 23af abbd c2d3 95bd
000001a0: e0d2 e2bd 3b79 9ebd a3cb 123e dc14 bc3b
000001b0: 36cb a9bd fe8d 8a3d 31e8 cd3d 0c92 c9bd
000001c0: fc46 07be 3296 17bd d7a7 1a3d 03ba 5a3e
000001d0: a598 62be d370 2ebe 5662 973d b8d4 16be
000001e0: 05c5 1b3e e3ee 73be 42a1 abbd 060f 023e
000001f0: 4257 bc3d 82cb 173e aa2f 21be 7a2c 04bd
00000200: fb59 51bd fde2 0cbe 5e20 cc3d 5eae 2d3e
00000210: 8231 043d daf1 ae3d c83d e8bd 404b 023e
00000220: c103 a0bd 1bbf 4fbe 8041 073d 3dc0 1dbd
00000230: 8fb4 933d 635c 8b3b 2205 7c3d cb40 a0bd
00000240: 1049 9dbc cffb 193e 8872 203e 392b 853d
00000250: 002a 24bd c359 c33d 09dd 363c 6980 fa3d
00000260: dd88 083e c7f7 2f3e 1e69 3d3d d2b5 363d
00000270: b01e 1dbd 6dec 2cbd a01c dbbd 6683 033c
00000280: 34da 2b3e 0d43 c33d df18 1b3d e67d 323e
00000290: 0c9e a73d 21a6 bb3d 2e0f 03be c791 633e
000002a0: 185d a23c f826 43be f500 26be d715 843c
000002b0: c541 8d3d d37a 063e 1e7e 4cbc 301f f3bd
000002c0: 596c 163d 70df 463c 5210 b33d afdf 49bd
000002d0: 9c49 6c3d 9454 00be 9f54 2e3e eae2 013d
000002e0: 7952 b63b 127d 24bd 7848 623d 4028 ab3c
000002f0: 2042 febc 2ac6 613d 4795 fcbd 8d77 053d
00000300: 0a50 f13c 3cd8 d83d fe24 cb3d d2ce c9bd
00000310: 95fb 1c3e b326 d83d 536d ecbd cec3 543e
00000320: ccc8 623d 3cc3 d53b 6873 aabd 4317 083e
00000330: 248d 3abe 118a 073d 0a3b 29be 0467 b7bd
00000340: 6689 05be 067e e1bd 8c46 debd 06ca de3c
00000350: 2ff8 ab3d 6423 b2bd f268 d9bd c276 efbd
00000360: cbf3 21bd 271c 0dbe d1d4 78bc 74eb 0c3e
00000370: 5265 26be 379b 94bd df96 c0bd b198 a9bd
00000380: b406 77be ab33 ce3c cde1 9f3d eb34 bfbd
00000390: 034d cbbd 9500 8d3d 058e 8dbd e971 b33c
000003a0: 0e86 85bd d339 e23a c52f 1cbd 9480 e33c
000003b0: dc0c 7f3d 82ec 28be b110 69be f86f 17be
000003c0: 5a9d b0bd 4e61 84bd b16b 62be e588 c23d
000003d0: c735 1dbc c021 34be fdaa 0cbe aead eebc
000003e0: 7a79 333e c874 243d 9caf a23d 3241 233d
000003f0: b34e 813d 49de b13d b14b 543e f157 a93d
-0.13887452 0.086743735 0.09361887 -0.035768434 0.18788162 -0.07638724 0.10427836 0.037413795
-0.119001344 -0.19663247 -0.08683215 -0.10721145 -0.09752863 -0.11598927 0.12551333 -0.11764633
-0.11558634 0.0012136085 0.08926796 0.13254778 -0.19579521 0.16660392 -0.13704285 -0.035019558
0.092059426 0.203905 -0.020879826 0.029254407 -0.14532559 -0.11562313 0.029991651 -0.14483458
0.013396917 -0.06769549 0.079579376 -0.049054556 0.047564168 0.069735005 -0.13288178 0.12309895
-0.039121225 0.14208288 -0.15138282 0.0871011 0.05184613 -0.025349865 0.027997917 -0.006897667
-0.1310305 0.11459116 -0.06364666 0.1719123 -0.08744717 -0.09659178 0.14414845 0.19096994
0.07571756 -0.12845792 0.003048521 0.1064411 0.06714112 -0.004427445 -0.23127185 -0.13945614
0.030634534 -0.13867183 -0.13516445 -0.13985804 -0.040210135 0.19907004 -0.103567004 0.22821574
0.17628053 0.14999475 -0.15479623 -0.07997676 0.14604509 -0.092644624 -0.060739428 -0.12625417
0.18814151 -0.08511763 -0.1155182 -0.12410594 0.13769646 -0.04513916 -0.07770764 -0.1669202
0.09014357 0.13090904 -0.05726523 0.13354702 0.12478649 -0.061181556 -0.0005997448 -0.09961782
0.18517691 0.22535369 0.07804898 -0.08543012 -0.107576475 0.24505265 -0.08383014 -0.0731578
-0.110753775 -0.077379666 0.14335494 0.0057397913 -0.082907125 0.06765364 0.100540526 -0.09842309
-0.13210672 -0.03700847 0.03775772 0.2136002 -0.22128542 -0.17035227 0.07391803 -0.14729583
0.15211876 -0.23821597 -0.08380367 0.12701043 0.091963306 0.14823726 -0.15740839 -0.03226898
-0.051111203 -0.13758464 0.09967111 0.16961047 0.032273777 0.08542223 -0.11339909 0.12724018
-0.07813216 -0.20287745 0.03302145 -0.03851341 0.07212173 0.0042529567 0.061528333 -0.07824858
-0.019199878 0.15037464 0.1566869 0.06502385 -0.040079117 0.09538605 0.011161097 0.122315235
0.13333459 0.17184363 0.046242826 0.04460699 -0.038359344 -0.04221766 -0.10698819 0.008026933
0.16782457 0.09534273 0.037865516 0.17430839 0.08184442 0.09162546 -0.1279876 0.22223578
0.019819781 -0.19057834 -0.16211303 0.016123695 0.0689731 0.13132791 -0.012481241 -0.11871183
0.036724422 0.012138233 0.08743347 -0.049285587 0.057687387 -0.12532264 0.17024468 0.031710543
0.0055640307 -0.04015834 0.055244893 0.020893216 -0.03103739 0.055120625 -0.1233316 0.032584716
0.02945711 0.105881184 0.09919165 -0.09853901 0.15330346 0.10554256 -0.115442894 0.20777819
0.055367276 0.006523518 -0.08322793 0.13290124 -0.18217903 0.033090655 -0.16526428 -0.089551955
-0.13040695 -0.11010365 -0.108532995 0.027195942 0.08396947 -0.086981565 -0.1061572 -0.11692573
-0.03953914 -0.1378027 -0.015187458 0.13761693 -0.16249588 -0.072561674 -0.094037764 -0.08281077
-0.24123651 0.025171122 0.0780674 -0.09336265 -0.09926798 0.06884877 -0.06911854 0.021904903
-0.065197095 0.0017259665 -0.038131494 0.027771272 0.062268123 -0.1649647 -0.22760274 -0.14788806
-0.086237624 -0.06463872 -0.22111394 0.09498767 -0.009595341 -0.17591 -0.13737102 -0.029135551
0.17526808 0.040150434 0.07943651 0.039857097 0.06313839 0.08684976 0.20731999 0.082687266

reformer.layers.blocks.0.g.net.fn.fn.w1.bias f4 [128]
00000000: 64aa 16be db7c 36bc addb 40be 8215 e9bd
00000010: 205b f5bd 6d65 4d3d b1f0 8ebd 9298 dc3d
00000020: b03b 75be d64c 89bd 0712 1cbe 53dd dcbd
00000030: 62af 95bd 52c5 1c3e 58d5 2bbd d87f 353d
00000040: 9afe c53d a3d5 e13d 5c79 0dbd ae6d 51bd
00000050: ee51 703d 64fa 3cbd a2bc 16be ac6b 6a3d
00000060: 2f05 4bbe 2293 983c 7588 22bd 3848 143a
00000070: b400 253d 1731 b33d 0bf0 f2bd d035 973d
00000080: 3f8a abbc bd3c 74bd 117f 14be a3f8 d73d
00000090: d689 6bbc 7853 b7ba 3ab8 01be 0669 7cbe
000000a0: 0836 cd3c 2f0c 393d 7a8b f8bd 6491 ce3c
000000b0: 57e6 09bc 1b86 193e e174 a4bd e2ec 793d
000000c0: 7341 e4bd 2fd3 82bd dc0a 023e 90d2 35be
000000d0: f9db 9cbd 829b 7c3d 2417 80bd 7a98 18bc
000000e0: 4c4f 5dbe 6df2 4abe 684a 12be 3bd5 10be
000000f0: 12f7 043e dd30 003d 4e84 fabc c621 ed3d
00000100: 9cde cebd bb61 58bd 0a85 63bd ef13 db3d
00000110: 7eb8 09be 4bfd 1cbe 7004 35be 0f5f 88bd
00000120: dd01 093e c5ab 1cbe a6e4 9bbd 9d82 353e
00000130: 8be7 d1bd 040c 053d c9c6 6b3c d6c2 2bbe
00000140: fdba e4bd 0871 13be d5e2 f9bb 9f7d 723d
00000150: ae9a 2bbe 9003 3a3e 9d35 78bd 87a7 1dbd
00000160: 478e eabd 91ee 9dbd c6d2 c33d acf2 143e
00000170: 5680 d53d 5ad3 a73d f8f8 8d3d 4b22 e93c
00000180: 6784 a33c d35c 063e f01d 7abd 58b7 d4bd
00000190: fb59 ffbc 3023 1e3c a0c2 34be 65db fdbd
000001a0: 5b3e 0b3e cd7a 88bd 5d54 f1bc aa97 61be
000001b0: 86eb 083e 9fda 69bd 7026 143d f81c 63bd
000001c0: 2d03 5a3b 5c93 f5bd b402 30be 29ca 0dbe
000001d0: 4050 8cbd 4035 c43d 9a9b 69bd 32ec 873d
000001e0: 63d6 1f3e 1fde 34bc 52b6 053e 8ed2 f9bd
000001f0: 4dde bd3c ac54 133d c2f4 04be 3131 b1bd
-0.14713436 -0.011138166 -0.188338 -0.113810554 -0.11980271 0.050145555 -0.06979502 0.10771288
-0.2394855 -0.067041084 -0.15241252 -0.10784402 -0.07308842 0.15309647 -0.041951507 0.044311374
0.09667702 0.11027076 -0.034539565 -0.05112999 0.058671884 -0.04613723 -0.14720395 0.05723159
-0.19826196 0.018624846 -0.039680917 0.00056565134 0.040283874 0.087495975 -0.11862191 0.07383311
-0.020939944 -0.059628237 -0.14501597 0.105454706 -0.014376124 -0.0013986668 -0.12667933 -0.24649438
0.025050178 0.045177635 -0.12135978 0.025215812 -0.008416734 0.14992563 -0.080301054 0.061016925
-0.11145296 -0.06387936 0.12699455 -0.17756104 -0.07659144 0.06167174 -0.06254414 -0.009313697
-0.2161228 -0.1981904 -0.14286196 -0.14143841 0.12984875 0.0312966 -0.030580666 0.115787074
-0.10101053 -0.052827578 -0.055546798 0.106971614 -0.13449284 -0.15330999 -0.17677474 -0.06658756
0.13379617 -0.152999 -0.076119706 0.17725606 -0.102492414 0.032482162 0.014390656 -0.16773543
-0.11168478 -0.14398587 -0.0076259174 0.059201833 -0.16758224 0.18165421 -0.060598005 -0.038489845
-0.114529185 -0.077115186 0.09561686 0.14545697 0.10424869 0.08194609 0.06932253 0.028458735
0.019960595 0.13121347 -0.061063707 -0.103865325 -0.031170836 0.009651944 -0.17652369 -0.12395362
0.13598005 -0.066640474 -0.029459173 -0.22030511 0.13371095 -0.05709326 0.03616947 -0.05544755
0.0033266053 -0.11990997 -0.17188531 -0.13846649 -0.06851244 0.09580469 -0.05703316 0.066368476
0.15609126 -0.011039286 0.13057831 -0.12198363 0.02317729 0.03596942 -0.12983993 -0.08651961

reformer.layers.blocks.0.g.net.fn.fn.w2.weight f4 [32, 128]
00000000: 5129 9fbc d7ee 0abc bcc0 9fbd eee3 563d
00000010: 743a f5bd d17c 69bd c0a8 b6bc b85e 20b8
00000020: c5b2 aa3c eb21 293d b88f ee3c 1130 5abd
00000030: 3844 0abc 3864 023d b8aa 1c3d c93f 143d
00000040: b3ab 38bd 5b7b e53d af45 cdbd 87cf 8fbc
00000050: 6f98 7d3c ea26 a93d 7173 58bd 9705 88bd
00000060: 89e9 313d 74c4 9ebc d7c8 bb3a 03e2 833d
00000070: 86a9 013d 785f 10bd 36d3 7cbd 1bd1 043d
00000080: 9455 d73d 3376 6ebc 8b57 403d b0ca bcbd
00000090: 7292 f93c 3fe0 f3bc 9bc6 e03c 9a18 b6bc
000000a0: 70e6 a6bd a9a4 7c3b 6845 b43c 28c4 85bd
000000b0: b342 f7bc aea8 4f3d bf43 2f3c 00d2 dabc
000000c0: 0edc 273d 1258 0e3d 6f76 113c f6a5 9b3d
000000d0: 94c5 e7bb 049c 0a3b b504 813d abd0 4abd
000000e0: 4f91 773c 0658 373d 47a3 abbd 0dab 79bb
000000f0: 8903 c8bd f5d6 983d c0f6 e43b a3e6 44bd
00000100: 791c be3c e6ea d2bd 8618 883d 3e26 a1bd
00000110: 18f5 963b f4ab b9bc 7e46 c9bc ccfd 0d3d
00000120: 198e 90bc 3188 28bd 0c8c 983d c155 fa3d
00000130: 4beb 34bd b8b0 27bd 1d91 aabc 9770 973d
00000140: e8dd e4bc e236 9cbd 2c5a 113d 233e 95bc
00000150: 8bcf 823c d331 d13d 3566 93bd b196 923d
00000160: 277b 64bd 7646 bf3d 68ad b2bd 30f2 d93d
00000170: cdf6 6ebb e4a4 b2bd 22a0 613d d1ad 1a3d
00000180: 1302 8d3c 949a 0fbc aa73 b5bc 95ba 9d3d
00000190: d222 3cbd 5fdc 543d c68c 66bd 0778 c5bd
000001a0: 6855 a2bc 3f79 32bd d14e c13d 5056 79bd
000001b0: f60e b1bd c31e a83d 25c0 fd3c ecc1 1b3d
000001c0: 0953 8cbc cd5a 9e3d 31c6 e3bd 2b1e 6d3d
000001d0: fa84 34bd a335 06bc fcba 53bd 5c30 e43b
000001e0: e0b8 e63d 44a5 87bd 215a afba e4d9 9ebb
000001f0: 579f 8dbc 0f80 b5bc 99aa 9dbc ae34 a6bd
00000200: d704 a93c 7bbe 45bc 0281 b0bc f060 ac3c
00000210: 8c60 37bd 8ae0 05bd 5f3b 383c 7472 a03d
00000220: 6e40 84bc 7d9a 8dbd 1d99 6e3d 91c4 af3d
00000230: c28f a2bd a46f 90bd 72ca 5dbd 1994 febd
00000240: 0318 81bd c56c 2dbd 4d0a 983d 6734 09bd
00000250: 4770 a2bc 2da6 603d 7714 62bd 02e4 c7bd
00000260: f7dd c4bd 9aff c03b 6ac7 203c bbaa 0b3d
00000270: 10e6 653c fb32 ccbc d62c fabc dd57 61bc
00000280: 3a67 58bd 85eb 83bd 84d4 0b3d a97d 9b3d
00000290: a17b e53c feab 4fbd 08e3 f73d a282 113d
000002a0: b633 323d ed22 71bd 0ffd 88ba 74b5 8dbd
000002b0: ad45 85bd 030e dd3d 48a5 c2bd 31ca 063e
000002c0: fad3 9a3d 3094 32bc a9fe 70bd e507 c83d
000002d0: 628a b43b 905e 11bd e00e 2a3d 2feb 84bd
000002e0: f42b cdbc c6e8 52bd 193a d93c a582 9dbd
000002f0: 6204 8d3d e6b3 79bd 2cf6 733d 5dec 47bd
00000300: 4f05 c7bc 6c82 37bd c759 8dbd f2b2 24bd
00000310: fdf3 2abd c7e0 fdbc 041b c5bd 7b57 5c3d
00000320: 9975 bbbd c9b7 24bc 6ee4 1c3d 1fb7 c53d
00000330: 5646 42bd d99e c73d 1f60 a6bc 9f49 473b
00000340: 7c12 46bc 2489 83bd 67ff c13d a0e8 31bd
00000350: f72d fa3d 35f9 d63c 45d6 e7bc 6ed9 bebd
00000360: e4bb 693d e850 ce3d b9c2 82bd 6fce c93d
00000370: e1df 5dbb eb13 83bc 25d7 3c3c 0695 e13c
00000380: bd91 b4bc 2bb9 333d 5b43 9b3d b96a ddbd
00000390: 8d55 e0bc 0ce0 d7ba 7edd e83c 0620 743d
000003a0: c26b c0bd f2eb 9cbc df21 8fbd 36b8 d0bd
000003b0: cc7d 3abd 0114 d33b 3a4d 44bc 50c2 7e3d
000003c0: 84d3 95bc dbf9 9dbd c042 223d 8a88 a1bd
000003d0: 2b8d 02bd 091e 7bbc 24c2 95bd 8091 933c
000003e0: 2917 01bd 0dba 6f3d 2f1d d23c e4b5 d9bc
000003f0: d06d a23d 6f45 613d 0726 933d 3b9b cf3c
-0.01942888 -0.008479795 -0.07800433 0.052463464 -0.1197404 -0.0570038 -0.022297263 -3.8235186e-05
0.020837197 0.041292112 0.029121265 -0.053268496 -0.008439116 0.031833857 0.038248748 0.036193643
-0.04508562 0.11205169 -0.10023057 -0.017555011 0.0154782375 0.082593754 -0.05284447 -0.06641691
0.043435607 -0.019380786 0.0014326823 0.06439593 0.03165581 -0.035247296 -0.061724864 0.03242598
0.105143696 -0.014554548 0.046958487 -0.09218347 0.030465338 -0.029770015 0.027438452 -0.022228528
-0.08149421 0.0038550294 0.022005752 -0.065315545 -0.030183172 0.050697975 0.010697304 -0.026711464
0.040981345 0.03475196 0.008878334 0.07600014 -0.0070731137 0.0021150121 0.06299726 -0.049515408
0.015110328 0.04476168 -0.08380752 -0.003809634 -0.09766299 0.07462875 0.0069874227 -0.048071515
0.023206936 -0.102987096 0.066453025 -0.07868622 0.004606854 -0.022665001 -0.024569746 0.034665868
-0.017645882 -0.041145507 0.07448587 0.122233875 -0.044169705 -0.040940017 -0.020821149 0.07394522
-0.027937844 -0.076276556 0.035486385 -0.018218106 0.015968105 0.10214581 -0.07197229 0.07157648
-0.05578151 0.09339611 -0.08724481 0.10641897 -0.0036463023 -0.08722857 0.055084355 0.03776342
0.017212903 -0.008764882 -0.02214988 0.07701603 -0.045931645 0.051967975 -0.056286596 -0.09642034
-0.019816115 -0.04357266 0.09438861 -0.06087333 -0.08645432 0.08208992 0.03097541 0.038026735
-0.017129438 0.077321626 -0.111217864 0.0578901 -0.04407213 -0.008191499 -0.051691994 0.0069637727
0.11265731 -0.06623319 -0.0013378301 -0.004847752 -0.017287893 -0.02215579 -0.019246386 -0.081155166
0.02063219 -0.01206934 -0.02154589 0.021042317 -0.04476981 -0.03268484 0.011244624 0.0783433
-0.016144004 -0.06914232 0.05825149 0.08582414 -0.07937576 -0.07052544 -0.054148145 -0.12430591
-0.06303408 -0.04234006 0.0742384 -0.03349724 -0.019828929 0.054845978 -0.055195298 -0.09760286
-0.09612649 0.005889845 0.009813169 0.03409837 0.014031902 -0.024926653 -0.030538958 -0.013753858
-0.05283282 -0.06441406 0.034138218 0.07592327 0.028013052 -0.050701134 0.1210385 0.03552497
0.043506347 -0.0588712 -0.0010451394 -0.06919375 -0.0650743 0.10793688 -0.09504181 0.13163067
0.075599626 -0.0108995885 -0.058836613 0.09767131 0.0055096606 -0.035490572 0.041518092 -0.0649017
-0.025045373 -0.05149152 0.026516961 -0.07690934 0.068856016 -0.06096258 0.05956094 -0.048809398
-0.024294524 -0.044802114 -0.06901889 -0.040209718 -0.04173659 -0.030990971 -0.096242934 0.053794365
-0.09153289 -0.010053583 0.038303785 0.09654068 -0.04743036 0.09747095 -0.020309506 0.0030408872
-0.012089368 -0.06422642 0.09472542 -0.04343474 0.12215798 0.026241878 -0.028300414 -0.09318815
0.057063952 0.100740254 -0.06384797 0.09853827 -0.0033855366 -0.016000709 0.011525904 0.02753688
-0.02204215 0.04387776 0.075812064 -0.10811371 -0.027384544 -0.0016469969 0.028425928 0.059600852
-0.09395553 -0.019155476 -0.06988882 -0.101913854 -0.045530125 0.0064415936 -0.011981303 0.06219703
-0.018289335 -0.07713672 0.03961444 -0.07887371 -0.03187291 -0.015326985 -0.0731242 0.018013716
-0.031516228 0.05852704 0.025648681 -0.02657599 0.07931101 0.054997858 0.071849875 0.025342574

reformer.layers.blocks.0.g.net.fn.fn.w2.bias f4 [32]
00000000: 8c24 593c 69cd 233d 2303 88bc 2200 183d
00000010: 5db8 233c 628e 0c3d ca2e 4f3d 2012 6a3d
00000020: 5257 493d 6805 193b 32da 033d 07a4 38bc
00000030: a6d2 d43c 2f75 263d 8c3b 8f3d 1fc4 303c
00000040: 618d 88bd b545 49bd 34b9 7e3d dfa4 61bc
00000050: eb94 a9bc 1565 753c 3b74 a0bd d73d e2bc
00000060: 7da7 c1bd f394 a23d b199 04bd 4d2f 49bd
00000070: c082 04be ffc8 f63b eece 4b3d 16b3 89bd
0.013253342 0.039990816 -0.016603058 0.0371095 0.009992686 0.034315474 0.05058173 0.05714619
0.04915554 0.002334917 0.03219051 -0.011269576 0.025979351 0.0406391 0.069937795 0.010788946
-0.06667591 -0.049138743 0.062188342 -0.0137722185 -0.020700892 0.014977713 -0.07834669 -0.027617378
-0.09455774 0.07938566 -0.032373134 -0.049117375 -0.12940502 0.007531285 0.04975789 -0.06723611

reformer.layers.blocks.1.f.net.norm.weight f4 [32]
00000000: e09a 6d3f a4e6 7b3f 7c0f 7b3f 6913 763f
00000010: e342 7c3f c6ee 7d3f f8d5 823f f0d3 793f
00000020: 53b2 833f 30a5 803f 2050 883f 12af 803f
00000030: b8da 693f a3d5 743f 3f40 843f 06e7 793f
00000040: 6ef2 7f3f f951 823f d1bb 6f3f b660 7a3f
00000050: d8c4 833f a7db 793f 7b8e 6d3f 9093 833f
00000060: f9a8 863f 86a6 7c3f 4b7e 853f 4d19 6e3f
00000070: 43ca 773f e51d 793f 8b7c 643f 323a 7e3f
0.92814445 0.98398805 0.980705 0.9612337 0.9853956 0.99192464 1.0221548 0.97589016
1.0288795 1.0050411 1.0649452 1.0053427 0.91349363 0.95638484 1.0332106 0.9761814
0.99979293 1.0181266 0.9364596 0.9780382 1.0294447 0.9760079 0.9279553 1.0279408
1.0520316 0.98691595 1.0429167 0.93007356 0.96793 0.9731124 0.8925254 0.9930755

reformer.layers.blocks.1.f.net.norm.bias f4 [32]
00000000: 9a17 283d 499b 913b 3fa5 71bd ddd9 d8bc
00000010: f6c6 7fbc 44c8 0c3a c5a1 9a3c 78d2 9b3c
00000020: 3c86 08bd 24da 4f3b 8520 bebc 1608 c83c
00000030: 77a1 e0bb 0647 c0bc 37fe 19bd 19d5 15bd
00000040: 1e0b 44bc f9b5 a7bc d7ae 8fbd b445 f23c
00000050: f33f 023d 7c97 8ebc fcc6 7d3c b930 00bc
00000060: ed72 72bb 920c 01bd 22b4 53bb 1eea 703c
00000070: 321b 85bd 1de4 da3c 5a1c 5cbd 8d0a 6ebc
0.041038133 0.0044435603 -0.05899548 -0.026471073 -0.015611401 0.0005370418 0.018875966 0.019021258
-0.03333114 0.0031715715 -0.023208866 0.024417918 -0.0068551856 -0.023471367 -0.037595954 -0.03658018
-0.011965541 -0.020472514 -0.0701577 0.029574253 0.031799268 -0.017406218 0.015489336 -0.007824116
-0.003699477 -0.03150613 -0.0032303412 0.014704255 -0.06499328 0.026720101 -0.053737976 -0.014528883
