best_lstnet_model.pth (torch, 25144 bytes, 8 tensors)

conv1.weight f4 [16, 1, 6, 5]
00000000: 878a 26bd 8ff6 3fbe b192 353d 607c 883d
00000010: 0fa7 dfbc a992 41be b45c 113e df5c 33bd
00000020: 6cd8 9fbd 910b 103d 5133 c4bc f4d0 61bd
00000030: 2811 483a a08c 383c 2901 dcbc 2f78 fe3b
00000040: ba28 883d 5b52 0abe 4b89 853d 59d8 803d
00000050: a6c9 c43c 88f7 61bd 7fd2 5d3d 0311 e63d
00000060: 9ec4 91bd f169 8fbe 7154 b0be 7117 16be
00000070: ef11 833d 9573 13be 95bc 6cbd 6ae1 363c
00000080: 5c93 a43c 8cb8 7bbd 1ce0 263c 4d07 57be
00000090: 2f9f 91bc e016 19be 149d 4f3d d4ef 19be
000000a0: cb0c c0bc 6727 f6bd 98de 0c3c 762a a1bd
000000b0: 44d7 993d d144 57bd 9110 753d f4a3 4dbd
000000c0: 2c0e 71bd cbb5 76bd 8924 8b3d b146 52bd
000000d0: 8344 f43d 4f2a 07bd 1bcb ad3c dffd a23e
000000e0: fa2c 333e 709c 08bf d4f4 aabd b2a0 523e
000000f0: dee9 b03d c636 8cbd e6dc 533c 9cbb d8ba
00000100: 2dce 9b3d f859 16bd cd26 4f3d 9291 3c3e
00000110: 998d 12be 50b9 b73d 3e58 a63d 8d6d 1abe
00000120: 64a5 e93d d460 99bd c785 cfbb e69a 013e
00000130: a271 1bbe 3904 d33c c3ec cdbd 1755 f83d
00000140: a4fd b4bd 4243 19be c768 083e 5d90 3d3e
00000150: b2d9 893d ca8e 30be 2e70 a2bd 744d 01be
00000160: 0709 593e 4d27 b23e e0c9 6e3d 9ad8 3e3e
00000170: 1f80 36bc abdf 463d be9a d8bc 2087 bb3d
00000180: ca35 d2bd 9928 18bd 06ee 693d e993 9b3c
00000190: e21e efbc c454 b03d 8f55 88bd 8231 b63d
000001a0: d0db 063d 0705 973d c5d6 ac3d feda 503d
000001b0: 1aaa 2d3b ddd0 b6bd 0bc9 a7bd f1eb 813c
000001c0: deff 1ebd c162 a3bd 4236 60bd fef0 f9bb
000001d0: b97a b83e 21ce 5cbd e8d1 cfbe 85f6 4bbe
000001e0: e22a cb3d a9fb 9c3d db21 d4bd 23e9 44bd
000001f0: 4689 1bbc 7f25 51bd bce5 27bb cd34 85bd
00000200: 0656 333d f217 863d 58f9 c13b 1624 09be
00000210: a4d7 8e3d fca6 883c 6ee4 03be 735b 793d
00000220: 882c 50bc a418 b5bc 11eb e43c 40e5 653d
00000230: bc02 54be 4b7b e43d be47 6dbd 8f9f 9ebd
00000240: e407 87bd a647 563e 5271 d3bd 9535 c6be
00000250: a2d7 f2be 8982 dcbe 2eea f13d 19e1 033c
00000260: d5f6 033e 34d9 1bbc d29a 4c3d 3e9d 8a3d
00000270: 283b 6b3d 7b65 96bd c8e5 56bd 5914 72bd
00000280: 6ab6 0ebe 7880 32be 4973 a93d c2a9 8dbd
00000290: 1464 a9ba 1676 623e 3d24 33be 9529 38bd
000002a0: d6ce 413d e713 e4bd 8e2f 07be 0324 76bd
000002b0: ca6d c7bd 006e 073c 7b6d 83bd 77d2 2fbe
000002c0: 1553 b1be 06ad 3cbe c485 fcbe 5c25 663c
000002d0: b8ec 30bd 856c f63d d5ca 1f3c f055 c3bd
000002e0: 5fcf e23d c64d 46bd 82c9 a3bd 0cef 1c3d
000002f0: 7f22 20bd a696 32bd 189e 913d 175e 303e
00000300: e207 58bd 6ffe 9f3b 96db 7a3d 6b66 04bd
00000310: cab5 3ebb 07e4 ccbc c703 be3c e221 32be
00000320: 9ee6 003c 9cd2 bd3c e0c0 a53d c5b2 3b3d
00000330: 1f9f b03d 2608 89be bd14 38be bc25 e63e
00000340: d285 88be c8ad f3bd dc8c 3fbd e586 86bc
00000350: 6af0 27bd e8fe c2bc 219c eebc 3861 6ebd
00000360: 3765 ef3d 5546 07be 7e29 0d3d 4140 f4bc
00000370: 4870 013e f2b9 15be 6d41 e13d 8fc3 ca3d
00000380: 3d48 f13d d524 f1bc 8fd3 ad3d 0601 c8bc
00000390: 238b cabd f110 e13c 214c 09be 3d73 223e
000003a0: a875 10be 4d12 80bd d8cb 663c b55f 41be
000003b0: 6193 aebd bcfa 623e bc19 49be 3fca 0b3f
000003c0: 53ab d3bd 2205 633d 00f1 253d 024f c73d
000003d0: 8553 a0bd da09 51bd 7ac4 bcbd c7bd e5bb
000003e0: 5679 5f3c 81d0 0cbe a1d2 553e 3aa4 58bb
000003f0: 318d 473d 2423 363d 141a 2abe b433 753d
-0.040659454 -0.18746398 0.04432935 0.06664348 -0.02730134 -0.18903603 0.1419552 -0.04378974
-0.07804951 0.03516728 -0.02395025 -0.055130914 0.0007631951 0.011263996 -0.026856022 0.007765792
0.06648393 -0.13507979 0.06520327 0.06291265 0.024021935 -0.055167705 0.054155823 0.112337135
-0.0711758 -0.28010514 -0.34439424 -0.1465738 0.06399905 -0.1439956 -0.057797033 0.011162141
0.020089798 -0.061455294 0.010185268 -0.20998879 -0.0177761 -0.14950132 0.05068691 -0.15032893
-0.0234436 -0.12019234 0.008597992 -0.07869427 0.07511762 -0.052555863 0.059830252 -0.050205186
-0.058851406 -0.060231965 0.06794078 -0.051336948 0.1192713 -0.032999333 0.021215012 0.31834313
0.17497626 -0.53363705 -0.083474785 0.20569113 0.086383566 -0.06846385 0.012931084 -0.0016535404
0.07607684 -0.036706895 0.050574113 0.18414906 -0.14311828 0.089708924 0.081222996 -0.15080853
0.11408499 -0.074891716 -0.006333086 0.12656745 -0.15180066 0.02575885 -0.10054924 0.121256046
-0.088374406 -0.14967063 0.1332122 0.18512101 0.06730975 -0.1724197 -0.07931553 -0.12627202
0.2119485 0.3479561 0.05829799 0.18637314 -0.011138945 0.04855315 -0.026440974 0.091566324
-0.10264166 -0.037148092 0.057111762 0.018991427 -0.02918953 0.08609918 -0.06656944 0.088961616
0.032924473 0.07374006 0.084394015 0.050990097 0.0026499094 -0.08926556 -0.08192643 0.015859576
-0.038818233 -0.0797782 -0.054739244 -0.0076276055 0.3603113 -0.053907517 -0.40589833 -0.19918258
0.099202886 0.07665188 -0.1035802 -0.0480739 -0.009493178 -0.05106115 -0.002561911 -0.065042116
0.04378321 0.06547536 0.0059196167 -0.13392672 0.06974724 0.016681187 -0.12880108 0.06087823
-0.01270593 -0.022106476 0.02794412 0.056126833 -0.20704168 0.11156329 -0.057929747 -0.07745277
-0.06593302 0.20925769 -0.103243485 -0.38712755 -0.4743014 -0.4306834 0.11812244 0.008049273
0.12887128 -0.0095122345 0.049952336 0.06768273 0.057429463 -0.073435746 -0.05246523 -0.059101436
-0.13936773 -0.1743182 0.08273942 -0.06917144 -0.0012923502 0.22115359 -0.17494293 -0.04496153
0.047316395 -0.111366086 -0.13201734 -0.060092937 -0.097377375 0.008265972 -0.06417366 -0.1717013
-0.346337 -0.18425378 -0.49320805 0.014046993 -0.043194503 0.12032417 0.009752949 -0.09537876
0.11074709 -0.048414014 -0.07997419 0.03831391 -0.039095398 -0.0436007 0.07110232 0.17223392
-0.052741893 0.004882626 0.06124457 -0.032324236 -0.0029100054 -0.025011076 0.02319516 -0.17395738
0.007867483 0.023171715 0.080934286 0.045824785 0.086241 -0.2676403 -0.17976661 0.44950664
-0.26664597 -0.118983805 -0.046765193 -0.016421745 -0.04100076 -0.02380319 -0.029127182 -0.058198184
0.11689227 -0.13210423 0.0344634 -0.029815795 0.12640488 -0.14621714 0.10998807 0.09900581
0.117813565 -0.029436508 0.08487617 -0.02441455 -0.098898195 0.027473899 -0.13407947 0.15864272
-0.14107382 -0.062534906 0.014086686 -0.18884166 -0.08524204 0.2216596 -0.19638723 0.5460548
-0.10335412 0.055424817 0.04051304 0.097318664 -0.0782843 -0.051034786 -0.092171624 -0.0070111486
0.013639769 -0.13751413 0.2088113 -0.003305687 0.048718635 0.044467106 -0.1661151 0.05986376

conv1.bias f4 [16]
00000000: a577 6b3c 1fd2 923e 9070 e4bd bf80 193e
00000010: df0d e03d 50c9 973e 5644 553e 6a92 4e3d
00000020: d634 4fbd de6c a93e 2c86 d23e de7d aa3d
00000030: fda1 553e 8a1b 81bd dc2f 063e 6896 163e
0.014371787 0.28675935 -0.11154282 0.14990519 0.10940146 0.29645777 0.2082685 0.0504326
-0.050587498 0.33090872 0.4111799 0.083247885 0.20862575 -0.06304081 0.13104194 0.14705813

gru.weight_ih_l0 f4 [96, 16]
00000000: ce2f 20bd c474 4b3e 7ea1 683d 2766 093d
00000010: e0c2 183d 1634 603d 352b 103e 2b28 3a3d
00000020: 346f 573d 5c7a a1bd 859d cdbd 2560 483e
00000030: f244 80bd d88d b23c 5de4 f73c 7425 a93e
00000040: a88d 4e3d 4edb 41be e87f 02be 6e50 2bbc
00000050: c458 3bbe 00d3 11bd 4d8a febd 596f 5dbe
00000060: 6585 cf3d 98da 0abe 84d9 4abc 5ec3 b63b
00000070: 8785 1dbe 4e7a 05be 45b6 2a3e fef2 84bd
00000080: 576c 16bd aba2 0fbe 89e2 49be 5628 033e
00000090: 26af 673e fbaa 31bc 0203 fb3d a63e 0b3d
000000a0: 2efb 863d 959c 7abd 448a 033e da52 9e3d
000000b0: 253d 713e 3671 f23c 2e59 e33d d82e 043e
000000c0: d5eb 8bbe 745a 0a3e f17d 22be d7cf 503d
000000d0: 088f df3d cc52 963d 6600 5cbd 79bd 8dbd
000000e0: 244e 863c 1f2c 00be a512 dbbd 2f93 95bd
000000f0: 1636 9abe b3fd 33bd 141d 1cbe 67f3 4dbe
00000100: 560f c03d c8d7 ea3d a644 90be 72a9 fdbd
00000110: 287b 593e 67cf 0abe a32b b43d 3730 92be
00000120: d64f 2cbe 5373 2f3d 3def 6dbe e70b 14bd
00000130: 74c8 823e d1b1 0cbe 44ce 8abe 031d cbbd
00000140: f195 51be 5347 2ebe 8233 3abe f4a2 04bc
00000150: a6fd 8bbe 50cc c63d 89d8 233d b975 65bd
00000160: 8e8f bdbd 893c 903e 0727 48be 84e3 e8bb
00000170: 16cd 3fbe 9688 d9bd e37a 9a3e 34f2 14be
00000180: 4623 3ebd 356f ad3d 35da 543d 3ef9 19be
00000190: 7d32 333d c57e 643d e4e4 d83d 4385 8a3d
000001a0: ac2b 3dbd 1a85 abb9 15a1 393d 19d1 91bc
000001b0: c05d 26be 8d67 33be f434 c13d 40ff 76be
000001c0: 64f4 68bc 804c b93d ab64 15be 63e1 a0bd
000001d0: 9a5e e1bd 93c6 42bd 4b14 a0bb 7848 0a3e
000001e0: 45ec 7bbc d240 cbbc a10d a5bd 4056 f2bd
000001f0: 03c6 e0bd dada 92bd 06db 003e 0de2 53bd
00000200: 1541 733b 0814 423e 79e9 2cbe 7959 8e3e
00000210: d433 703e 7ec6 fd3d 9f5f 273e 4022 8bbd
00000220: 884c 57be 14bb 1c3d a942 c7bd e40e c939
00000230: ac20 36bd 83ed b9be db2c 593d 4d8a 75be
00000240: 7a0e a63b e880 7c3d fa03 34be cb27 25bd
00000250: a343 463d c171 c33c 699f 483d 14f0 54bc
00000260: de8a 4ebe b2cf 1bbe c850 51bc e6ed bb3d
00000270: 7682 46bc 2d9b 913d fa58 c6be 977c 263c
00000280: 868b 953d b2ea 33bd 19d9 debd d7e3 97bc
00000290: 083d 21be 64bd a7bd 5ae2 fb3d 33be ecbd
000002a0: 90a9 ed3d 7a5c 6f3b 0a6f 2bbe e171 0a3d
000002b0: 9231 5d3c 7508 d5bc e6d9 583d 6f3b d33b
000002c0: 8fde d0bd 81e4 ccbd 822b 223d c9ad ff3d
000002d0: 6caa 8ebd c365 f13d 8c97 a43e 2305 c23d
000002e0: 1a91 70bb 6aee b03e 09bf 54be ba70 c83c
000002f0: 4b4a da3b ddcd 0ebe 053a 923e efa5 67bd
00000300: 6464 c9bd 56f7 f83d f97d b43d 74e7 443d
00000310: 95a9 50bd 1e56 793d 9acc f2bd 0326 a03d
00000320: 781c 2b3e 97d8 babd 1ef2 c63e 7d07 c83c
00000330: b9c8 2bbe cdb6 3fbc a913 48bd a7ed b6bd
00000340: 630e 0b3c 574e 01bd d2b6 c0bd b8fe 8fbe
00000350: a693 003e 7eb3 073e d926 b13d a545 37bc
00000360: 292a 73bd 5c84 b03d a8ef dc3d 8257 0a3e
00000370: e659 3e3e e317 e83d 9c81 9b3d fce6 383e
00000380: 59a4 a43d c28c c33d d85a 3f3d ab0b 693b
00000390: 7b6c 56be 6371 02bd a0a8 2b3d 0e4e 163d
000003a0: ce40 93bd 34f9 ee3d a50f 063e b97e 583d
000003b0: ee21 42b9 967e 6b3d 412e 823e 0d5a 34bd
000003c0: 74f8 ce3d 51a7 06be 3e16 80bd 081f ccbd
000003d0: 8712 82bd 7838 443c 82c8 0c3e 3de2 0d3e
000003e0: 2d03 95bd 6984 8a3c b19d 2f3e 4282 c83c
000003f0: 52fb 973e 9831 d63c 9699 c23d b1ea 953e
-0.03910809 0.19868761 0.056794636 0.033544686 0.037295222 0.054737173 0.14078982 0.045448463
0.052596286 -0.07884666 -0.1003981 0.19567926 -0.0626315 0.021796152 0.03026026 0.33036387
0.050428063 -0.18931314 -0.12744105 -0.010456188 -0.1829558 -0.035601616 -0.124287225 -0.21624507
0.10132865 -0.1355995 -0.012380961 0.005577489 -0.15382968 -0.13034937 0.16671093 -0.064916596
-0.036724415 -0.14026897 -0.19715323 0.12808356 0.22625408 -0.010843988 0.12256433 0.033995293
0.065908775 -0.061184485 0.12845713 0.077306464 0.23558481 0.029594999 0.11100994 0.12908494
-0.27328363 0.13511068 -0.15868355 0.05097946 0.10915953 0.07340011 -0.053711317 -0.06920905
0.016394682 -0.12516831 -0.106969155 -0.07303464 -0.3011939 -0.04394312 -0.15245467 -0.20112382
0.09377925 0.11466938 -0.28177375 -0.12385835 0.21238387 -0.1355568 0.087973855 -0.2855241
-0.1682733 0.04283459 -0.23235793 -0.036144163 0.2554356 -0.13739707 -0.27110493 -0.09917643
-0.20467354 -0.17019396 -0.18183711 -0.008095492 -0.27341956 0.09706938 0.040001426 -0.056020472
-0.092558965 0.28171185 -0.19546138 -0.0071072 -0.18730578 -0.10621755 0.3017188 -0.14545518
-0.046420358 0.08468477 0.05196591 -0.15036485 0.04374932 0.05578496 0.105905324 0.06763699
-0.046184227 -0.0003271483 0.045319635 -0.0177999 -0.162467 -0.1751997 0.09433928 -0.24120808
-0.0142184235 0.09047794 -0.14589183 -0.07855489 -0.11004372 -0.047552656 -0.0048852316 0.13504207
-0.015376155 -0.024811182 -0.0805924 -0.11832857 -0.10975268 -0.07170649 0.12583551 -0.05172925
0.003711765 0.18952954 -0.16885938 0.27802637 0.23457271 0.12391375 0.1634507 -0.06793642
-0.21025288 0.03826435 -0.09729511 0.00038348802 -0.044464752 -0.3631402 0.053021293 -0.23978539
0.0050676437 0.061646372 -0.17579642 -0.040321153 0.048404347 0.023857953 0.04898015 -0.012996692
-0.20170161 -0.15215948 -0.012775607 0.09176235 -0.012116065 0.071096756 -0.3873976 0.0101615405
0.073020026 -0.043924995 -0.10881252 -0.01854126 -0.15745938 -0.0819042 0.122990325 -0.11559715
0.11604607 0.0036523626 -0.16741577 0.03380001 0.013500588 -0.02600501 0.05294218 0.006446294
-0.101987 -0.10004521 0.039592274 0.12484319 -0.06966099 0.11786988 0.3214687 0.09473636
-0.003670758 0.34556895 -0.20775999 0.024467815 0.0066616884 -0.13945718 0.2855989 -0.05655473
-0.09833601 0.121565506 0.0881309 0.048072293 -0.050942976 0.060873143 -0.11855431 0.0781975
0.16710079 -0.091233425 0.38856596 0.024417633 -0.16775788 -0.011701298 -0.048846874 -0.08932047
0.008487317 -0.03156885 -0.0940987 -0.28124022 0.12556323 0.13252065 0.08649988 -0.011186038
-0.05936638 0.086189955 0.10787898 0.13509944 0.18588981 0.11332681 0.075930804 0.18056864
0.08039159 0.09548332 0.046717495 0.0035559933 -0.2093982 -0.031846415 0.04190886 0.036695533
-0.07190095 0.116686255 0.13091905 0.052855227 -0.00018513922 0.05749377 0.25425914 -0.04403119
0.101059824 -0.13149764 -0.06254242 -0.09966856 -0.0635119 0.011976354 0.13748363 0.13855834
-0.07275996 0.016908841 0.17149998 0.024476174 0.2968393 0.026146695 0.095019504 0.29280618

gru.weight_hh_l0 f4 [96, 32]
00000000: 98dc 153e 8936 4bbd ce6b 89bd 224b 1a3e
00000010: 3977 ab3d 2122 8a3d d741 313e 17fc f63c
00000020: 0e59 663c 749e 963d 7e2f 533d 664d 023c
00000030: 2e86 443c f56f 0f3e c1bb 953d 8316 afbc
00000040: bd9a d53d 933f 433d 536f 51be 7ec0 70bc
00000050: 125b 46be 206b 28bd 8ad8 9b3d 90af 013e
00000060: a0c1 21b7 1adb fe3c be1d 063e c604 263e
00000070: a39a 9d3d ded7 883c 5cee 283c 7c9b d83d
00000080: 360f 54be 080f 2ebe 92fe 3bbe 1f9b d4bd
00000090: 9ad1 b9bd a9c6 05be 1339 943d 2ff0 08bd
000000a0: fa68 c43d 5e6d a2bd f4af 533e 9f13 7f3d
000000b0: 7d10 6e3e d7b2 4dbd 5562 bfbb 5511 d5bd
000000c0: a780 b73d 2a8c 1f3d 1223 cd3b 3bbd ccbd
000000d0: 48e8 2cbe 5439 f0bd 53d2 96be 4923 e93d
000000e0: ade9 d43d d2f0 c13d 256b 27bd e1c1 8e3d
000000f0: 1003 68be 45df b8bc 3d20 ed3d e915 4d3c
00000100: a9a5 2fbd db48 df3c d05f 73bd 0fb7 863d
00000110: 1dc7 f0bb 236f 8a3e 9c64 1b3d 8a1d 443d
00000120: 8950 b5bb 5d92 543e ed86 96bd bb9b 51be
00000130: 5927 c7bd 2eed f8bc d82b 13be 38d7 b8bd
00000140: 5555 e83d 1865 dd3d 9c78 b8bd 54ba 903d
00000150: 9d4e 14be a73c 7e3d 7bcb 7a3c b534 f0bc
00000160: 93bc 8bbc b3ee 91bb b8c4 be3d 724e 10be
00000170: ca84 a33d 60aa 90be 1c4b 6bbe c24a 8dbd
00000180: 0a2a c83d 07a2 a93d 1717 22be b933 d8bc
00000190: 9683 133e 4664 413e 98d0 28bd 481b 26be
000001a0: e03c 5e3b 9a31 57bd 645d d63d d60c 82bd
000001b0: 142e 213d 5965 86bd 422e 1d3d f1f5 12be
000001c0: 138d b93d a065 4bbe f9b3 2dbd 90e2 c63d
000001d0: 5319 ce3d e999 0b3d f976 56bd 979a a6bd
000001e0: a968 583a 3a1c 033e 7e72 9abd 62ce 72bd
000001f0: e8a8 4ebc 4f41 163e 3db2 debd 37b3 6c3e
00000200: 4438 bcbd 0aaf 093d 0cc3 8a3c 7636 c4bd
00000210: d2d0 0c3e d099 603e d871 9dbe 2023 5bbc
00000220: 4fa6 b33e d624 643e 0775 04be 4a52 103e
00000230: c888 023e 126c 3d3e 4e4f b2bd b7e6 bbbd
00000240: 518c 793d 2b84 8dbc b81a de3b 50e8 a4bc
00000250: 02b0 38be e708 14bd bb3e 17bd 33d0 5bbe
00000260: 4eb5 2dbe 4bfa 2cbe 3822 9c3c 11f5 05be
00000270: c00a b83c 1d20 1dbe 64dd cabc b648 47bc
00000280: 3f6d 403e 112f 43bd 4c9e 573e 2909 5cbd
00000290: 73a7 4e3e 65c8 8a3e 4285 27be b7fa 83bd
000002a0: b47c 013e a865 e83d c402 debd aac5 1bbe
000002b0: d650 89be befd a23e e9b8 363e 9ff9 473e
000002c0: 4cc0 303e 8c18 a8bd 4e35 e6bd be15 bfbc
000002d0: 443d b0bc a760 e13d 036b bd3d 5f8f 763e
000002e0: 7711 103e 0889 98bd 9a24 6c3e 32cf dc3d
000002f0: 9467 27be e5a4 83be 410b c4bd e405 933d
00000300: 1ae1 813c 9eee 433d bea4 1b3e ff87 853e
00000310: 7c9d 5d3e a8ce 7cbd b522 2fbc 8471 8fbd
00000320: ef1d 9abb 93cf e1bc a4f9 053d c47c 91be
00000330: 5243 b7bd e1a0 503d dc22 9f3d 17dc f93d
00000340: ffc1 53be 7ad4 103d f79f 573e 6ce0 253e
00000350: 92bc 983d 23c7 15bd ed32 003e edb2 633a
00000360: a493 8e3c e580 44be c5c7 983d 2c28 383e
00000370: 980e 113e 5d8b 9cbd b0e6 0cbe ed2e 073b
00000380: b809 0d3e e391 18be 1054 99bd 6b7e 933d
00000390: c025 753c 0e83 813d 86b1 613e de5b 04be
000003a0: 3093 073e a785 02be bbb8 073e 97d2 ac3d
000003b0: cc97 443e ad25 313c f41a 843d 5f1b a53d
000003c0: 88a5 2bbe 96a3 c53d 41d2 98bd b6f8 bebd
000003d0: 7519 bb3d 7887 81bb 36ad 2dbe f1f9 8b3d
000003e0: 4546 36bb 5e23 fdbc 842a 0d3e ba20 033e
000003f0: cd39 d03d 2985 043e 5000 dc3d 3499 613d
0.14634931 -0.049612556 -0.06710015 0.15067723 0.08372349 0.06744791 0.17310272 0.030149503
0.014059318 0.07354441 0.051558964 0.007953024 0.011994882 0.14007552 0.07311202 -0.02137304
0.104299046 0.04766805 -0.20452623 -0.014694331 -0.19370678 -0.041117787 0.07609661 0.12664628
-9.64143e-06 0.031110335 0.13097283 0.16212758 0.0769551 0.016704496 0.010310736 0.10576531
-0.20708928 -0.16997921 -0.1835883 -0.103811495 -0.090731815 -0.13064064 0.072374485 -0.033432182
0.09590335 -0.079310164 0.2067259 0.06227457 0.23248477 -0.050219383 -0.0058405795 -0.104036964
0.08960085 0.03895203 0.006260284 -0.0999703 -0.16885483 -0.117296845 -0.2945734 0.11383683
0.103961326 0.09469761 -0.040873665 0.06970573 -0.22657418 -0.0225674 0.115784146 0.012517431
-0.042882595 0.02725642 -0.059417546 0.065778844 -0.007347955 0.27037916 0.037937745 0.047879733
-0.005533282 0.20758958 -0.07349954 -0.20469563 -0.09724302 -0.030386534 -0.14372194 -0.09025425
0.11344401 0.10810298 -0.090073794 0.07066789 -0.14483114 0.06206956 0.015307303 -0.029322008
-0.017057693 -0.004453504 0.09314865 -0.14092425 0.07984312 -0.28254986 -0.2297787 -0.068990245
0.09773643 0.082828574 -0.1582912 -0.02639185 0.14405665 0.18885908 -0.041214556 -0.16221344
0.0033910796 -0.052537538 0.104670316 -0.063501045 0.039350584 -0.06562299 0.038374193 -0.14351632
0.09060111 -0.19862986 -0.042407963 0.09711182 0.10063424 0.034082327 -0.052359555 -0.081349544
0.00082553417 0.12803736 -0.07541369 -0.059278853 -0.012613513 0.14673351 -0.1087384 0.2311524
-0.09190419 0.033614196 0.016938709 -0.095807 0.13751534 0.21933675 -0.30750918 -0.013375074
0.3508782 0.22279677 -0.12935267 0.14093891 0.1274749 0.18498257 -0.087065324 -0.09174865
0.06092483 -0.017274937 0.0067780875 -0.020130306 -0.18035892 -0.036141302 -0.03692506 -0.2146614
-0.16963693 -0.16892354 0.019059286 -0.13081767 0.022466063 -0.15344281 -0.02476377 -0.012163332
0.18791674 -0.047652308 0.21056479 -0.053719673 0.20181064 0.27106014 -0.16359428 -0.064443044
0.12645227 0.113475144 -0.10840371 -0.15212122 -0.26819485 0.31834215 0.17843975 0.19528817
0.17260855 -0.08207807 -0.11240636 -0.023325797 -0.021513589 0.11004763 0.092489265 0.24078129
0.14069162 -0.07448012 0.23060837 0.10781707 -0.16348106 -0.25711742 -0.09572459 0.07178858
0.015854407 0.047834985 0.15199563 0.2608032 0.21642107 -0.06172052 -0.010689427 -0.07004073
-0.0047032754 -0.0275648 0.03270878 -0.284155 -0.08948387 0.050934676 0.07770321 0.12200182
-0.20679472 0.035358883 0.21057115 0.16198891 0.07457842 -0.036566865 0.12519427 0.0008686025
0.017404385 -0.19189794 0.07459978 0.17984074 0.14165723 -0.07643769 -0.13759875 0.0020627335
0.13773239 -0.14899401 -0.07486737 0.07201847 0.014962614 0.06323825 0.22040376 -0.1292567
0.13239741 -0.12746297 0.13254063 0.08438604 0.19198531 0.010812205 0.064504534 0.08061861
-0.16762364 0.09650342 -0.07461978 -0.093247816 0.09135715 -0.0039529167 -0.16960606 0.06834782
-0.002781288 -0.030900653 0.1378575 0.12805453 0.101672746 0.12941422 0.10742247 0.055077747

gru.bias_ih_l0 f4 [96]
00000000: 0fd0 8bbc 087e 3fbd 7eef 523d a194 db3d
00000010: a0b8 c83d ae15 c13d abe5 533d 886f 54bc
00000020: 17eb b9bd 771e ecbc c23f a2bd c83f 5b3e
00000030: dd38 8a3c 144b 20bd 70d9 513d 69ed 533e
00000040: c935 1c3e 2b67 4b3d d94b 1e3a 9d23 493c
00000050: 9273 9e3d 9384 1b3d 1429 63bd bb1e b3bb
00000060: 9139 cf3c c950 533e 51b4 3fbe 2a0d 073e
00000070: 2674 7b3c 4a95 a9bd aaa9 ec3d 7971 823d
00000080: 7806 5d3d b290 f0bc 599e aebe 5d49 893e
00000090: a037 fdbe 6c0b a0be da23 cbbe 1750 edbe
000000a0: d24f fcbe 034e c3be a48e d0be f68e 0cbf
000000b0: b8bd 02bf 51e8 45be 7fb7 fbbe 430b cdbe
000000c0: 61fa 6ebe 3083 2dbe 23ab b5be d55b 6f3e
000000d0: 8586 a3be 6506 e8be 3216 16be f394 c7be
000000e0: ddde 80be 380c a4be 6786 56be ac44 93be
000000f0: fb2f b6be 5a16 a7be f84b 90be efdf f2be
00000100: 6103 893d b2ac 403e a73f ceb8 57f6 01be
00000110: 9ee0 043e 5634 ca3d d53b e8bd eced 7cbd
00000120: feed eabd 7e25 b0bd ba84 353e 2baa f73b
00000130: 85ee 9c3d 5f13 283e 22ed e63d afff 2f3d
00000140: e3d9 a5bd 0557 8abd dcdd a03d f675 e8bd
00000150: a05b 023e 5cc0 333e 9d92 edbd a949 8cbd
00000160: 4ce7 d43c 04c9 85bd 9a4e af3c 7d8b 043e
00000170: 4bc3 a0bd 6d65 183e c500 cb3d a51e c43c
-0.017066984 -0.046751052 0.05149793 0.10721708 0.098008394 0.09427963 0.0517327 -0.012966044
-0.09078043 -0.02882312 -0.07922317 0.2141105 0.016872818 -0.0391341 0.051232755 0.20696034
0.15254892 0.049658936 0.0006038524 0.012276557 0.07736887 0.03796823 -0.055459097 -0.00546631
0.025296004 0.20636286 -0.18721129 0.13188615 0.015347516 -0.08280428 0.11555798 0.063692994
0.053961247 -0.029365871 -0.34105185 0.26813784 -0.494565 -0.31258714 -0.3967579 -0.46350166
-0.49279648 -0.38145456 -0.40733826 -0.5490564 -0.5107074 -0.19326903 -0.49163434 -0.40047655
-0.233377 -0.16944575 -0.3548213 0.23374875 -0.31938568 -0.4531738 -0.14656904 -0.38980827
-0.2517003 -0.32040572 -0.20949708 -0.2876333 -0.3558348 -0.3263424 -0.2818296 -0.47436473
0.066900976 0.18815878 -9.8347016e-05 -0.12691627 0.1297631 0.098732635 -0.11339537 -0.061750337
-0.11471175 -0.08600901 0.17726412 0.0075581274 0.076626815 0.1641364 0.11275698 0.04296845
-0.08098199 -0.06754879 0.07854816 -0.11350624 0.12730265 0.17553848 -0.1160023 -0.06849987
0.025989197 -0.06532481 0.021399785 0.12943836 -0.07849749 0.14882441 0.09912256 0.023940394

gru.bias_hh_l0 f4 [96]
00000000: 4426 f03d 79a6 73be 9eea 803d ddc0 3d3e
00000010: e946 a7bd 7150 3d3e 7eb8 763e bb54 12be
00000020: cab2 fdbd e9c6 cbbd 61c8 243d 7c9d d43d
00000030: 128d 853d 2eae 9fbd 70e4 073e 2db9 51bd
00000040: 09b4 80bd d247 debd d15d dbbd 4e78 893d
00000050: 4b3c a1bd 97d9 cabd 993c 6e3d 3263 473e
00000060: 4030 913d 323d 823e 276f 83bd 5587 bb3d
00000070: 62db 3d3e 98f9 cabd 4b4e 61bd c7fc 313c
00000080: f7be 9cbd a335 95be d080 02bf b9e3 9f3e
00000090: 6816 04bf 58c4 f3be 8c74 02bf cf7e 03bf
000000a0: a126 78be 1ccd 05be 1326 d9be 8ee2 e9be
000000b0: 35f7 dbbe d3e7 bebe 5c14 bbbe 1fde d3be
000000c0: 2ae0 8cbd 3082 6abe b834 f6be b0a7 be3e
000000d0: 0350 51bd bba7 89be a717 07be 9c4f 1bbf
000000e0: aa84 90be 7982 c4be f457 efbd f962 b0be
000000f0: e857 4dbe 5cca c8be 50ab acbd 93a3 d9be
00000100: 555b c03d 41bd 26bc 2d91 403d b412 2bbe
00000110: 0eb2 993c c4e3 3fbe ea88 a5bc 8fa6 9e3d
00000120: ef18 1a3e cd51 243e 5458 1a3e 0a72 f13d
00000130: fd45 e9bd 0311 f23d 7a42 ad3d 4fbe b6bc
00000140: af7c e9bd ae10 03be 859f 7fbd 0cc8 1dbe
00000150: c097 15bd 1db8 2bbc 7fbf ec3d 4040 f0bd
00000160: e037 a73d 35d0 253c 8406 1ebe 1264 52bd
00000170: e92f 8b3d f23f 673d d1b9 f1bc ddc7 3a3e
0.117260486 -0.23793973 0.0629475 0.18530603 -0.08167822 0.18487717 0.24093816 -0.14290135
-0.12387617 -0.099500485 0.04023016 0.103816 0.06521048 -0.07796894 0.13270736 -0.051201988
-0.06284339 -0.108535424 -0.107112534 0.067123994 -0.07872828 -0.09904783 0.05816326 0.19471434
0.07089281 0.25437313 -0.06417685 0.09156672 0.18540719 -0.099108875 -0.055006307 0.0108634895
-0.07653611 -0.29142484 -0.509778 0.31228426 -0.5159669 -0.47610736 -0.50959086 -0.5136537
-0.24233486 -0.13066524 -0.4241186 -0.4568066 -0.42962041 -0.37286243 -0.3653897 -0.41380402
-0.068786934 -0.22901225 -0.48087096 0.3723731 -0.051101696 -0.2688578 -0.13192616 -0.6066835
-0.28226215 -0.38380793 -0.116866976 -0.3445051 -0.20053065 -0.39216888 -0.08431113 -0.4250761
0.0939242 -0.010176958 0.04701345 -0.16706353 0.01876166 -0.1873923 -0.020206887 0.07746612
0.15048574 0.1604683 0.15072757 0.11789329 -0.11390302 0.11819651 0.08459945 -0.022307543
-0.11400735 -0.12799332 -0.06240799 -0.15408343 -0.036521673 -0.010480908 0.115599625 -0.11731005
0.08164954 0.010120441 -0.15432173 -0.051364966 0.067962475 0.056457467 -0.02950755 0.18240304

fc.weight f4 [5, 32]
00000000: 6413 3a3e ad43 1f3d 6922 2abd 1d90 20be
00000010: eeef 813d 4418 173e 4031 4d3d c7f1 4cbe
00000020: 7fd3 de3d c48d 29be 6710 123e 2dd4 193e
00000030: 2978 8f3c 50e6 343e 2ed9 353e a9c4 c13d
00000040: 58b8 3b3e f061 58be 0fcb 41be 18c8 1d3e
00000050: c1ab 0abe ed2a c33d 5060 13be ba86 6c3e
00000060: 23be 523e 7792 f4bd 214c 1b3e a8da 283e
00000070: a860 4ebe 7817 263d 2019 66bd 9fce 243e
00000080: 2908 0f3e db6c 363d 2181 0abe cf44 d2bd
00000090: 2551 80bd 5e37 713c 486e 473e 9870 7bbe
000000a0: 8953 4a3d 1131 73be 83cc 813e 8ef3 5f3e
000000b0: 4406 ee3d 16ea fd3d 2ee7 4d3e 64aa 933d
000000c0: 1fb0 e03d 7f6e 23be 5475 1fbe 7615 263e
000000d0: d4c3 27be 3388 0c3e 96a7 36be 4d99 263e
000000e0: 12ed 743e 2504 38be ffc8 e73d 2f54 5e3e
000000f0: f9d9 14be 6cab a53d a410 e73b fe0c b13d
00000100: d32c 29be cb2b 4ebd ce2e eabd cad7 033e
00000110: a6e1 5fbe 7458 a7be e991 863e 0881 6c3d
00000120: 58b6 2bbe 2903 37be 6f67 1d3e 5d09 323e
00000130: 28c4 643e ddee 93be 956b 39bd b204 27bd
00000140: 8476 50bc 7a1c af3d 4b44 863d e2a0 c43b
00000150: 1884 263d f2d7 993c 67a5 0d3d f87b 23be
00000160: 31c0 4e3d 562f 3dbe 3a1d 09be f7b0 cf3d
00000170: f8d0 ff3d 989e 5f3e 0cd3 523e ba7f 18be
00000180: da05 98bc efdf f6bd 1dbb 9bbe dda8 4fbd
00000190: 540f 7bbe 2e7e b23d 1ac1 e23d 6434 44bd
000001a0: 1b9b 23bc 0e29 3d3d 17c4 84bd 7c22 c6bc
000001b0: 42bc 833e 53b7 afbc 5e1f bbbd 6a33 95be
000001c0: 3179 823e 6e25 383c 7046 24be 4179 4bbd
000001d0: c956 8bbe 76b4 ecbd 6349 48be 6337 563d
000001e0: 2d1c 24be 1b7f d23d 0f76 81bc cb37 40be
000001f0: fef5 49be 61c7 3d3d 176f 033e 057a ca3c
00000200: a64f 993c d85b 2abe f07a 923e 5d62 0e3c
00000210: 72fd 143d 85b5 7abb 1a8c a23e 721f ccbd
00000220: 5bdf 81be b40b 643d 04b7 20be b28b 43be
00000230: 03c6 18be 1b1f babd a44d f3bd b5a2 9dbd
00000240: e2e5 87bd 769b a63d 6185 9d3d 663b 3e3d
00000250: a779 153d aaaa 8cbe 9422 e13d d724 683e
00000260: f276 193e 8da7 963e 1f22 20be 4d3d 763e
00000270: 01ec bbbd 4e5b 78be 370e 283e 211f 54be
0.1817146 0.0388829 -0.041536722 -0.15679975 0.06344591 0.1475535 0.050095797 -0.20014106
0.108801834 -0.16557986 0.1426407 0.15022345 0.017513352 0.17665982 0.17758629 0.09461338
0.1833204 -0.2113111 -0.18925117 0.15408361 -0.13542081 0.09529672 -0.14392209 0.23098269
0.20580344 -0.119419985 0.1516576 0.1648966 -0.20154059 0.040549725 -0.056176305 0.16094445
0.13967957 0.044537406 -0.13525821 -0.102670304 -0.06265477 0.014722673 0.19475663 -0.2455467
0.04939607 -0.23749186 0.25351343 0.21870252 0.11622289 0.12398164 0.2010772 0.07210234
0.109710924 -0.1596012 -0.15572101 0.16219124 -0.16383296 0.13723831 -0.17837366 0.16269417
0.2391856 -0.17970331 0.11317634 0.21711801 -0.14536275 0.08089337 0.0070515443 0.08645056
-0.16521005 -0.050334733 -0.114347085 0.12875286 -0.21863422 -0.32684672 0.26283196 0.05774024
-0.16768777 -0.17872299 0.15371488 0.17386384 0.22340453 -0.28893176 -0.045268614 -0.040775962
-0.012723569 0.08550353 0.065559946 0.006000624 0.04065332 0.018779729 0.034581568 -0.15965259
0.050476257 -0.18475088 -0.13390055 0.10141175 0.124910295 0.21837842 0.2058832 -0.14892474
-0.018557478 -0.12054431 -0.30416194 -0.05069815 -0.24517566 0.08715473 0.110719875 -0.047901526
-0.0099857105 0.04618173 -0.06482714 -0.024186365 0.25729567 -0.02144972 -0.09136842 -0.29140788
0.25483087 0.011239393 -0.16042495 -0.049676184 -0.2721465 -0.11557858 -0.19559245 0.052298915
-0.16026373 0.1027815 -0.015803365 -0.18771283 -0.19722745 0.04633272 0.12835346 0.024716387
0.018714737 -0.16636598 0.2860942 0.008690444 0.036374517 -0.0038255167 0.31747514 -0.09966935
-0.2536572 0.055675223 -0.15694815 -0.19096258 -0.14919285 -0.09087964 -0.11880043 -0.076970495
-0.066356435 0.081351206 0.07691456 0.046443366 0.03649297 -0.27473956 0.109929234 0.22670303
0.1498678 0.29424706 -0.15638016 0.24046822 -0.091758735 -0.2425358 0.16411673 -0.20715

fc.bias f4 [5]
00000000: a507 a7bd 20f6 70bd a970 7e3d 8d20 c83c
00000010: 839a a83d
-0.08155755 -0.058828473 0.06211916 0.024429584 0.08232596
