best_reformer_model.pth (torch, 112770 bytes, 52 tensors)

input_projection.weight f4 [32, 5]
-0.07736956 -0.370696 0.022261878 0.18477447 -0.019508589 -0.18768646 -0.1754497 -0.3912958
-0.12273416 0.42704672 0.3699836 0.39706033 0.014484069 -0.06255213 -0.088349074 0.031441625
-0.27340868 0.2428701 -0.21147148 0.37028357 0.2555944 0.12596577 0.19187962 0.28988376
0.110504374 -0.038299855 -0.41153237 -0.356103 -0.4823929 -0.45089516 0.28319773 0.27417678
0.13587014 0.021589747 0.07128763 0.19465505 0.073824234 -0.36898133 -0.37653092 0.49903238
0.31422192 -0.20829828 -0.12923682 0.43891442 0.34319317 -0.15490328 0.24980678 0.1855661
0.23620163 -0.1560575 -0.059705533 -0.33325753 -0.056374244 0.40609244 0.25023103 -0.06960783
-0.113505274 -0.0820466 -0.3667127 -0.44429383 0.01096756 0.43211892 -0.060680695 0.2800215
0.4998236 -0.30712345 0.42201108 0.004787084 -0.16304694 0.45544004 0.26834354 -0.061182283
-0.012187234 0.36271286 -0.12221428 0.18637489 -0.004180074 0.22191964 0.21219829 0.43307
0.1674277 0.40853184 0.007536106 -0.23631221 -0.26496655 -0.21859474 -0.21094145 -0.32551348
0.07503168 -0.29554656 -0.01183397 -0.06575839 0.45783585 -0.25719854 -0.04776219 -0.14806336
-0.28787282 0.16100577 0.11005431 0.180915 -0.30832857 -0.21773311 0.26696888 0.08992488
-0.034970418 -0.011971854 -0.3311874 -0.30242398 0.2534759 -0.14464132 -0.23996742 -0.35278127
0.32186258 0.13607381 0.11727254 0.34376806 0.15291384 -0.31596717 0.0072017573 -0.30320185
0.19664894 -0.35082972 -0.4271142 0.36431718 -0.036527544 -0.13600075 -0.32359812 0.20188561
-0.23183773 -0.39250472 0.073033236 0.14200006 0.33813936 0.16560169 -0.026447872 -0.18598679
-0.28912133 0.035321094 -0.44874275 -0.08731978 -0.34863102 0.034998477 0.19433594 0.035588454
0.10628787 0.09753771 -0.37371257 0.14475496 -0.10983721 0.14283226 0.34414208 0.20868778
-0.34206995 -0.088232845 -0.36269757 -0.32248846 0.14109224 0.044506345 -0.1866676 -0.44510537
00000000: ef73 9ebd decb bdbe 8b5e b63c 8535 3d3e
00000010: 7ad0 9fbc e130 40be 16a9 33be ec57 c8be
00000020: 0c5c fbbd dea5 da3e 7e6e bd3e 7e4b cb3e
00000030: 974e 6d3c 551b 80bd 5cf0 b4bd efc8 003d
00000040: 39fc 8bbe f1b2 783e fb8b 58be cf95 bd3e
00000050: 45dd 823e 2cfd 003e 177c 443e a56b 943e
00000060: 1e50 e23d 4fe0 1cbd 5fb4 d2be 2253 b6be
00000070: 34fc f6be bbdb e6be 4bff 903e e660 8c3e
00000080: 8b21 0b3e fbdc b03c 40ff 913d a753 473e
00000090: 2931 973d 1feb bcbe a9c8 c0be 2c81 ff3e
000000a0: b2e1 a03e 254c 55be a856 04be 64b9 e03e
000000b0: 04b7 af3e f79e 1ebe 59cd 7f3e 0a05 3e3e
000000c0: d7de 713e 8acd 1fbe ca8d 74bd bba0 aabe
000000d0: aee8 66bd 59eb cf3e 481e 803e 8d8e 8ebd
000000e0: 7475 e8bd 0c08 a8bd c4c1 bbbe 7b7a e3be
000000f0: 48b1 333c b13e dd3e 528c 78bd fa5e 8f3e
00000100: e1e8 ff3e 493f 9dbe d611 d83e f9dc 9c3b
00000110: c7f5 26be 702f e93e 5364 893e 469a 7abd
00000120: f7ac 47bc 80b5 b93e 7b4b fabd 0fd9 3e3e
00000130: 01f9 88bb e73e 633e 824a 593e 5abb dd3e
00000140: 2b72 2b3e 162b d13e 70f1 f63b d4fb 71be
00000150: b2a9 87be 4dd7 5fbe 0901 58be b4a9 a6be
00000160: 36aa 993d e151 97be 45e3 41bc 56ac 86bd
00000170: 7669 ea3e 87af 83be 49a2 43bd ec9d 17be
00000180: 1164 93be b2de 243e 2764 e13d c841 393e
00000190: 3edd 9dbe 6ef5 5ebe 25b0 883e 892a b83d
000001a0: 243d 0fbd 9825 44bc 6591 a9be 51d7 9abe
000001b0: 98c7 813e db1c 14be 05ba 75be bf9f b4be
000001c0: 2ccb a43e ef56 0b3e 962c f03d 5e02 b03e
000001d0: 7295 1c3e 73c6 a1be b8fc eb3b 463d 9bbe
000001e0: 575e 493e f49f b3be b6ae dabe c887 ba3e
000001f0: e89d 15bd c843 0bbe a7ae a5be 1abb 4e3e
00000200: df66 6dbe 61f6 c8be 7392 953d 7768 113e
00000210: 9a20 ad3e 7d93 293e 35a9 d8bc 5273 3ebe
00000220: b607 94be daac 103d 9cc1 e5be b6d4 b2bd
00000230: c47f b2be 905a 0f3d 0000 473e 33c5 113d
00000240: 74ad d93d dac1 c73d 4157 bfbe a53a 143e
00000250: 55f2 e0bd 9f42 123e 6433 b03e 40b2 553e
00000260: cb23 afbe 6cb3 b4bd 7fb3 b9be 351d a5be
00000270: 7c7a 103e 494c 363d cb25 3fbe dae4 e3be

input_projection.bias f4 [32]
-0.43664244 0.014184867 0.35356572 0.21504238 -0.07899838 -0.20279856 0.16402653 -0.12774311
0.45733398 -0.31229088 -0.04093659 0.28274435 0.35081512 0.20264052 -0.036401942 -0.28660965
0.25914976 0.3643209 0.34352332 -0.28789958 -0.14356916 -0.23134269 0.34036225 0.1719
0.25694463 0.15926985 0.30546635 -0.21856597 0.0016382545 -0.27207324 -0.107980765 0.36516795
00000000: 998f dfbe a567 683c 9106 b53e 1234 5c3e
00000010: e7c9 a1bd 6daa 4fbe 92f6 273e 17cf 02be
00000020: ae27 ea3e 97e4 9fbe 20ad 27bd dec3 903e
00000030: 0a9e b33e ff80 4f3e 341a 15bd 80be 92be
00000040: 47af 843e 4588 ba3e 4ae2 af3e 9367 93be
00000050: cb03 13be 19e5 6cbe f643 ae3e 8e06 303e
00000060: 3f8e 833e a317 233e 1666 9c3e c2cf 5fbe
00000070: b3ba d63a 2f4d 8bbe 0525 ddbd 4bf7 ba3e

reformer.layers.blocks.0.f.net.norm.weight f4 [32]
0.985074 0.93138903 0.97354025 0.9799172 0.9933302 0.96297437 0.97063106 0.9812807
1.006503 0.98019964 0.97154146 0.9751685 1.0016363 1.0631901 0.9248334 0.9927675
0.9439783 1.0063893 0.9480196 0.96131206 0.9716879 1.0007184 0.96626085 0.97814053
1.0234812 0.9772936 0.9575337 0.9150532 1.008558 1.0116191 0.95849967 0.9723934
00000000: cf2d 7c3f 836f 6e3f ef39 793f dbdb 7a3f
00000010: e34a 7e3f 7d85 763f 477b 783f 3635 7b3f
00000020: 17d5 803f 5dee 7a3f f1b6 783f a5a4 793f
00000030: 9e35 803f 9d16 883f e2c1 6c3f 0326 7e3f
00000040: 90a8 713f 5dd1 803f 6ab1 723f 8c18 763f
00000050: 8ac0 783f 8a17 803f df5c 773f 6b67 7a3f
00000060: 6f01 833f ea2f 7a3f ee20 753f ed40 6a3f
00000070: 6e18 813f bc7c 813f 3c60 753f c6ee 783f

reformer.layers.blocks.0.f.net.norm.bias f4 [32]
0.015305199 -0.00536392 -0.02071165 -0.030470246 0.0082813 0.010764858 0.034438457 0.05632766
0.012305418 0.024997158 0.009086563 0.014182126 -0.0009839396 -0.010397868 0.06330688 0.027383776
-0.0032287135 0.005511102 -0.020362487 0.017285895 0.035764765 -0.00041375996 -0.02011357 0.009146698
0.007286223 -0.028079467 -0.03418724 0.0325337 0.009159537 -0.008999738 0.011637258 -0.044382557
00000000: a8c2 7a3c d2c3 afbb 7aab a9bc bd9c f9bc
00000010: 4aae 073c 165f 303c 570f 0d3d d5b7 663d
00000020: aa9c 493c d7c6 cc3c cfdf 143c 265c 683c
00000030: 89f7 80ba d25b 2abc 0aa7 813d f153 e03c
00000040: d398 53bb 7996 b43b 3bcf a6bc 269b 8d3c
00000050: 137e 123d eced d8b9 37c5 a4bc 08dc 153c
00000060: 45c1 ee3b e906 e6bc eb07 0cbd 0f42 053d
00000070: e211 163c a373 13bc 33aa 3e3c 7cca 35bd

reformer.layers.blocks.0.f.net.fn.toqk.weight f4 [32, 32]
0.063901186 0.1625853 -0.065956205 -0.034262896 0.0105013745 -0.06596619 -0.14537826 0.12144258
0.018590398 -0.17999688 0.10059706 -0.17265014 0.13427018 -0.102818154 0.074433506 -0.012050416
0.03367594 0.13021897 -0.04293784 -0.07531737 0.019165847 -0.12835269 -0.1511469 -0.15689152
0.115474224 0.078858405 -0.17935093 0.08886705 0.12012049 -0.15494092 -0.08498278 -0.09188984
0.13250692 0.13113488 0.043034095 -0.07979368 0.102007106 -0.19050688 -0.060044087 0.056622054
0.04982271 -0.097316235 -0.02105098 -0.051901042 0.01446599 0.026197623 -0.087730385 0.12036011
-0.24486856 -0.010787582 -0.144216 0.21126032 0.054854564 -0.097235456 0.17218551 -0.18149076
-0.108349144 0.13141523 0.101003975 -0.10637387 -0.06567978 0.0939579 0.07111569 -0.17340527
-0.1515939 -0.1824953 0.0017981564 -0.0037511783 -0.08591122 -0.09599361 0.10885621 -0.1700984
-0.13483159 0.15450089 -0.029763287 0.13492861 -0.16318187 0.049779862 -0.0064510456 -0.17552876
0.089611165 -0.13173142 0.056154937 -0.18780833 -0.10826979 -0.09054277 0.03523687 0.07301244
-0.008843477 0.13828826 0.12265621 0.05888502 -0.061640617 0.15293738 0.09463288 0.22151364
-0.12930167 -0.11707886 -0.12945843 -0.039623164 -0.07148449 -0.19890773 -0.1340231 0.095557645
0.22312093 0.15761535 0.06978868 0.064556494 0.2035362 0.09605395 0.15150473 0.16594115
-0.13072531 0.04470332 -0.19163029 -0.06631844 -0.13554214 0.0484263 0.13445307 -0.17870536
-0.0033091544 -0.15193003 -0.0957749 0.04292251 0.062346384 0.10248527 0.085407645 -0.097827695
-0.0889741 0.03271166 -0.12758838 0.08110606 -0.11077269 -0.1486055 0.074496515 0.15377682
0.11194135 -0.12362829 -0.07399382 0.13106896 0.20610452 0.18441743 0.06626353 0.019405745
-0.14816964 -0.019297361 -0.083232336 0.055226114 0.040637784 0.1689482 0.15789287 0.07306285
0.16371673 0.10930542 0.078410804 -0.13567682 -0.10686097 0.07622117 0.100595094 -0.09635274
0.10043981 -0.113113366 0.052177165 -0.13250026 -0.093051165 -0.11703177 -0.123648256 0.033057738
-0.066711456 -0.038191948 -0.11635075 -0.120882906 -0.16893803 0.078621574 -0.0784887 -0.20177762
0.09105417 -0.07141581 0.10821802 -0.09880401 0.03813302 -0.046382453 -0.1735842 0.07374301
0.038690526 0.16419156 0.027537152 0.094380535 0.064709656 -0.06809691 -0.011305889 0.2169232
-0.01427062 -0.090510696 -0.13471068 0.113710314 0.058156144 -0.019575313 -0.18036108 0.06255232
0.18619536 0.08616638 0.043001305 -0.1785219 0.0066620223 0.069860406 -0.13298906 -0.046200838
-0.14612277 0.100888975 0.059629366 0.100285344 0.08487162 -0.11805293 0.067583375 -0.10326996
0.1287029 -0.06634423 0.1082339 0.025893737 0.16919269 -0.1246274 0.074218206 -0.010103312
-0.08436187 0.08420628 0.047324166 -0.15059012 -0.082880124 0.12552616 0.07282703 -0.07411816
0.09320169 -0.14948374 0.13779531 0.18458278 -0.15596765 0.059699 -0.1673798 0.09093963
-0.07470228 -0.0068917647 0.16288082 -0.023193378 0.08775147 -0.03215367 -0.015568594 -0.13788186
-0.15020172 0.1073651 0.014070537 -0.012806847 -0.15467532 -0.0630028 0.019543076 0.0534168
00000000: a0de 823d c37c 263e 0c14 87bd 4057 0cbd
00000010: f50d 2c3c 4819 87bd 0ade 14be e3b6 f83d
00000020: e44a 983c 1a51 38be d505 ce3d 33cb 30be
00000030: 1f7e 093e 5392 d2bd 9870 983d 1c6f 45bc
00000040: c8ef 093d 1f58 053e 97df 2fbd fe3f 9abd
00000050: b201 9d3c e36e 03be 41c6 1abe 2ca8 20be
00000060: c07d ec3d 8480 a13d c5a7 37be eeff b53d
00000070: bb01 f63d d5a8 1ebe 740b aebd be30 bcbd
00000080: e5af 073e 3948 063e 8544 303d de6a a3bd
00000090: 1ae9 d03d 3c14 43be caf0 75bd 87ec 673d
000000a0: e612 4c3d bc4d c7bd 1b73 acbc 3096 54bd
000000b0: c202 6d3c 669c d63c fdab b3bd 5d7f f63d
000000c0: d3be 7abe 66be 30bc 5cad 13be a054 583e
000000d0: 2eaf 603d 6223 c7bd 6651 303e b7d8 39be
000000e0: 28e6 ddbd b791 063e 2cdb ce3d 8bda d9bd
000000f0: 1f83 86bd 006d c03d 1aa5 913d 2791 31be
00000100: 6e3b 1bbe 0ce0 3abe 1eb0 eb3a 54d6 75bb
00000110: 39f2 afbd 4c98 c4bd 01f0 de3d 462e 2ebe
00000120: 4b11 0abe 7b35 1e3e 23d2 f3bc ba2a 0a3e
00000130: 2619 27be f8e5 4b3d 4b63 d3bb d0bd 33be
00000140: 0f86 b73d 9ae4 06be b802 663d d450 40be
00000150: 8dbc ddbd 7d6e b9bd 8954 103d 8c87 953d
00000160: 3be4 10bc 709b 0d3e 2e33 fb3d 6b31 713d
00000170: df7a 7cbd 9e9b 1c3e e2ce c13d 79d4 623e
00000180: a867 04be 0bc7 efbd c090 04be e64b 22bd
00000190: 7666 92bd 78ae 4bbe 5a3d 09be bab3 c33d
000001a0: d079 643e eb65 213e 5eed 8e3d 3236 843d
000001b0: cb6b 503e efb7 c43d 0e24 1b3e 7aec 293e
000001c0: dbdc 05be d41a 373d bb3a 44be f6d1 87bd
000001d0: 8fcb 0abe a85a 463d 11ae 093e 8afe 36be
000001e0: 66de 58bb 8c93 1bbe a125 c4bd 84cf 2f3d
000001f0: ec5e 7f3d cce3 d13d 34ea ae3d e359 c8bd
00000200: 0e38 b6bd a9fc 053d 87a6 02be ef1a a63d
00000210: cbdc e2bd 0a2c 18be a191 983d ac77 1d3e
00000220: 8241 e53d d430 fdbd 128a 97bd f136 063e
00000230: 100d 533e ecd7 3c3e 2cb5 873d ccf8 9e3c
00000240: c8b9 17be 8015 9ebc b775 aabd c734 623d
00000250: ce73 263d c200 2d3e abae 213e faa1 953d
00000260: 5ca5 273e 85db df3d d895 a03d ddee 0abe
00000270: edd9 dabd d819 9c3d cd04 ce3d 9654 c5bd
00000280: 63b3 cd3d fba7 e7bd b9b7 553d 26ae 07be
00000290: 9c91 bebd 5aae efbd 4c3b fdbd 8d67 073d
000002a0: 04a0 88bd 296f 1cbd 4d49 eebd 7591 f7bd
000002b0: 17fe 2cbe 5904 a13d afbe a0bd cb9e 4ebe
000002c0: 9c7a ba3d 7442 92bd 69a1 dd3d c259 cabd
000002d0: 5f31 1c3d 87fb 3dbd 0ec0 31be 9306 973d
000002e0: f579 1e3d d521 283e 9895 e13c 954a c13d
000002f0: 7f86 843d 6576 8bbd 563c 39bc 1e21 5e3e
00000300: 52cf 69bc ac5d b9bd 99f1 09be f4e0 e83d
00000310: 2335 6e3d 685c a0bc 93b0 38be 6e1b 803d
00000320: ffa9 3e3e 0078 b03d 2322 303d 72ce 36be
00000330: 184d da3b f912 8f3d 492e 08be 173d 3dbd
00000340: 35a1 15be e19e ce3d ec3d 743d 6762 cd3d
00000350: 2cd1 ad3d bcc5 f1bd 2769 8a3d 337f d3bd
00000360: b1ca 033e 7cdf 87bd bca9 dd3d 1a1f d43c
00000370: d940 2d3e a63c ffbd b7ff 973d 5d88 25bc
00000380: ebc5 acbd 5874 ac3d fcd6 413d 4c34 1abe
00000390: 0ebd a9bd ee89 003e 5726 953d 43cb 97bd
000003a0: 87e0 be3d 4412 19be 371a 0d3e 4503 3d3e
000003b0: fcb5 1fbe f086 743d 9c65 2bbe 8f3e ba3d
000003c0: 82fd 98bd 50d4 e1bb 3bca 263e 0a00 bebc
000003d0: 0bb7 b33d 91b3 03bd 6b13 7fbc e730 0dbe
000003e0: 7bce 19be 3ce2 db3d 1c88 663c cfd3 51bc
000003f0: 3563 1ebe 9d07 81bd cd18 a03c 93cb 5a3d

reformer.layers.blocks.0.f.net.fn.tov.weight f4 [32, 32]
0.026225986 0.097154684 0.097587585 0.09008077 0.07521733 0.13225172 0.060581386 -0.10827037
0.09123157 -0.068588264 -0.00042521115 -0.0655179 0.034895796 0.067243606 0.15636145 0.08719444
0.0025024961 -0.16087587 -0.030843878 0.03684048 -0.16282557 -0.054608636 -0.015958978 -0.06438243
-0.17667454 -0.054208152 -0.036296505 0.13149717 -0.039313708 -0.08636637 0.03558253 -0.06239071
0.029691666 0.04702836 -0.1313767 -0.035667293 -0.1026098 -0.15864265 -0.10353538 -0.09633796
-0.121175796 0.010560185 0.004874001 -0.11150204 0.14622411 -0.07081111 -0.0018310272 0.010155743
0.073979884 -0.16633773 0.017844738 -0.17445794 0.071450196 0.11339743 0.06365174 0.06968929
0.09056476 0.12184272 0.10018212 0.034676015 0.051981784 0.12968463 0.15164821 0.07445896
0.13145427 -0.101720266 0.040130366 0.18442069 0.11188443 0.12972666 0.09742224 0.047245447
0.15017942 0.0052616834 0.034552924 0.060491312 -0.056212846 0.11268397 -0.034997124 -0.11039155
-0.028692467 -0.1675092 -0.12978847 0.012750304 -0.10098647 0.031369407 0.16727193 -0.012579318
-0.08724777 0.09620536 -0.1346342 0.1559061 0.16623946 -0.028634503 -0.05091606 0.07131511
0.10777474 0.076882005 0.12742934 0.0754562 -0.09242429 0.071382865 0.07103309 -0.18823776
-0.19760105 0.17304878 -0.08932422 0.11218843 -0.09943013 -0.2146851 0.062091824 0.031280767
-0.018817762 -0.06389908 0.14542833 0.15005888 -0.08937097 -0.0044558314 -0.038693123 0.19342132
0.056187898 -0.10576137 0.051026776 -0.08005017 -0.11843481 0.09675488 -0.030534053 0.094638586
-0.08046716 0.020034451 -0.03273368 0.07026856 0.10365423 -0.11994254 0.11568042 -0.09917898
0.11369405 0.10278544 0.005265719 0.10565896 0.123303674 0.067809865 0.16104597 0.006446545
0.1161219 0.05312167 0.09204977 0.13421977 0.003065698 0.060956866 -0.029319655 0.15745582
0.05759664 -0.0588398 0.073948465 0.036267564 0.008528526 -0.06269101 -0.04661788 -0.1336198
0.08498855 0.15577708 0.111260906 0.17085011 -0.06281158 -0.050581492 -0.11437679 -0.038575284
-0.06643121 -0.080845 -0.15241177 0.0042685797 -0.13488156 -0.040862095 0.030360423 -0.028503459
-0.022683447 -0.076440714 -0.11777813 0.117476575 -0.08323908 0.01579601 -0.084597215 0.14014445
0.020723417 0.020292489 -0.05887637 -0.07684566 0.13192436 0.16229215 -0.16246895 0.10059085
0.034815323 -0.11635943 0.11246922 0.11409143 -0.0894135 0.09698605 0.040165026 -0.16381356
-0.15215863 -0.08864164 -0.008562445 -0.07734495 -0.0052595497 0.13144924 -0.06210182 -0.09054493
0.11447848 -0.11069575 -0.1256176 -0.030975813 0.15535897 -0.111806296 -0.12033962 -0.016399296
-0.19910744 -0.031381205 -0.038183097 -0.0011095828 0.023534501 0.15360276 -0.013286271 -0.1568493
0.04876083 -0.06670646 0.008675942 0.1318134 0.18013236 0.032130618 0.02557116 -0.12311709
-0.038562696 -0.031249467 0.13692427 -0.15734906 0.05526839 0.10710832 0.18256631 0.17128125
-0.13857114 -0.1688667 -0.09840215 0.04643516 -0.16441458 0.17018206 0.16355981 0.08338342
-0.15644804 -0.045898233 0.11422704 0.05148427 0.120662466 0.14964668 0.0029652242 0.15039945
00000000: e1d7 d63c 09f9 c63d 00dc c73d 447c b83d
00000010: 8b0b 9a3d ff6c 073e 3024 783d dbbc ddbd
00000020: 9ed7 ba3d 0178 8cbd e0ee deb9 402e 86bd
00000030: e5ee 0e3d 04b7 893d 371d 203e 0093 b23d
00000040: eb00 243b a5bc 24be 4dac fcbc 0be6 163d
00000050: bfbb 26be 4ead 5fbd 67bc 82bc efda 83bd
00000060: 2cea 34be 5e09 5ebd a5ab 14bd 32a7 063e
00000070: 6907 21bd dae0 b0bd fdbe 113d 678d 7fbd
00000080: f03b f33c cfa0 403d 9d87 06be de17 12bd
00000090: 1625 d2bd 3873 22be 5b0a d4bd d64c c5bd
000000a0: 042b f8bd a004 2d3c 15b6 9f3b 2e5b e4bd
000000b0: c6bb 153e 6a05 91bd 14ff efba 4664 263c
000000c0: c482 973d 7054 2abe 212f 923c 1aa5 32be
000000d0: 7b54 923d e93c e83d d85b 823d 42b9 8e3d
000000e0: 047a b93d ad88 f93d 492c cd3d 7008 0e3d
000000f0: daea 543d 0ccc 043e ab49 1b3e f07d 983d
00000100: f39b 063e b752 d0bd bd5f 243d c7d8 3c3e
00000110: aa23 e53d 11d7 043e 5085 c73d 7184 413d
00000120: a2c8 193e 336a ac3b 5e87 0d3d bdc5 773d
00000130: 713f 66bd dac6 e63d 2559 0fbd f714 e2bd
00000140: 770c ebbc 8887 2bbe 45e7 04be a7e6 503c
00000150: ffd1 cebd 357d 003d 5549 2b3e 7c19 4ebc
00000160: f5ae b2bd 5107 c53d 8cdd 09be d9a5 1f3e
00000170: ad3a 2a3e e892 eabc 5c8d 50bd a80d 923d
00000180: 01b9 dc3d 5074 9d3d d67c 023e c888 9a3d
00000190: f248 bdbd 2e31 923d cc79 913d 66c1 40be
000001a0: ee57 4abe b333 313e 9eef b6bd 0cc3 e53d
000001b0: 06a2 cbbd 69d6 5bbe ff53 7e3d 4320 003d
000001c0: b527 9abc 85dd 82bd 2aeb 143e 09a9 193e
000001d0: 2108 b7bd 3902 92bb ae7c 1ebd 3d10 463e
000001e0: 4825 663d 6b99 d8bd 7401 513d 58f1 a3bd
000001f0: f38d f2bd 6c27 c63d 8d22 fabc e0d1 c13d
00000200: f7cb a4bd 4a1f a43c c013 06bd f6e8 8f3d
00000210: ab48 d43d 6fa4 f5bd dbe9 ec3d 591e cbbd
00000220: 6dd8 e83d 2c81 d23d 0d8c ac3b ba63 d83d
00000230: a386 fc3d e6df 8a3d 3ce9 243e 8a3d d33b
00000240: 52d1 ed3d 1c96 593d 9784 bc3d e870 093e
00000250: e1e9 483b e8ad 793d c62f f0bc 193c 213e
00000260: 74ea 6b3d 0102 71bd 4b72 973d 4c8d 143d
00000270: 3bbb 0b3c 2564 80bd 64f2 3ebd a1d3 08be
00000280: 7a0e ae3d 0784 1f3e c2dc e33d 55f3 2e3e
00000290: 5ca3 80bd 8a2e 4fbd 613e eabd 1e01 1ebd
000002a0: 160d 88bd 1092 a5bd d511 1cbe 71df 8b3b
000002b0: 641e 0abe 035f 27bd 6cb6 f83c 1680 e9bc
000002c0: a3d2 b9bc f38c 9cbd a935 f1bd 8f97 f03d
000002d0: 4079 aabd a266 813c 4e41 adbd 0782 0f3e
000002e0: 28c4 a93c 6f3c a63c 5928 71bd 4261 9dbd
000002f0: 2e17 073e ea2f 263e 435e 26be 9302 ce3d
00000300: 839a 0e3d da4d eebd 4356 e63d c5a8 e93d
00000310: 6d1e b7bd 9fa0 c63d 1584 243d bebe 27be
00000320: 79cf 1bbe c089 b5bd 7f49 0cbc 0767 9ebd
00000330: 4d58 acbb a19a 063e 7a5e 7ebd 9f6f b9bd
00000340: b173 ea3d 74b4 e2bd e6a1 00be fdc0 fdbc
00000350: 6c16 1f3e b3fa e4bd 9e74 f6bd d157 86bc
00000360: d2e2 4bbe 9489 00bd e165 1cbd 6c6f 91ba
00000370: 6dcb c03c 0b4a 1d3e a9ae 59bc 1a9d 20be
00000380: 70b9 473d 669d 88bd 8a25 0e3c 18fa 063e
00000390: 9e74 383e 659b 033d 9c7a d13c d024 fcbd
000003a0: ebf3 1dbd e2fe ffbc e035 0c3e 1d20 21be
000003b0: 1b61 623d 9b5b db3d aaf2 3a3e 5a64 2f3e
000003c0: 98e5 0dbe 64eb 2cbe 1187 c9bd cb32 3e3d
000003d0: 4c5c 28be 3544 2e3e 397c 273e edc4 aa3d
000003e0: ea33 20be c9ff 3bbd deef e93d 2be1 523d
000003f0: e21d f73d fb3c 193e 3554 423b 5002 1a3e

reformer.layers.blocks.0.f.net.fn.to_out.weight f4 [32, 32]
-0.04389444 -0.062187795 -0.13569008 -0.05930372 0.04837087 -0.06663872 0.19951749 0.19260877
-0.09992257 -0.082408585 0.014802464 0.19707707 0.097576864 0.076313235 -0.04004476 -0.09857041
-0.18164782 0.09438573 -0.11930989 0.06702726 0.058724247 0.095278084 -0.06912448 0.009895373
-0.023956185 0.093148954 0.026727531 0.12811309 -0.09976275 0.052720785 0.094716884 0.1045488
0.16388267 0.0011211776 -0.16566952 0.10786543 0.14315952 -0.12289727 -0.16641039 0.007405255
0.019511854 0.113348804 -0.06191197 -0.044859216 0.038908646 -0.18066216 -0.08757303 -0.12815756
-0.11435619 0.060205147 0.02198378 0.006370786 -0.090127006 -0.1510533 -0.15788268 0.037189897
0.09728978 0.06632552 -8.982818e-05 -0.13175122 0.010097678 -0.12704006 -0.13355172 0.00038734512
0.030440897 -0.15031242 0.1620145 -0.0476532 0.020944763 0.14952493 0.043837395 0.15050939
-0.13370952 -0.13924643 -0.11333175 -0.09255535 0.016848126 -0.037346918 -0.081540644 0.08368712
0.10457469 0.02003657 0.010230729 -0.11519278 0.071986146 -0.08539665 0.14468841 0.007096466
0.02160247 0.12421246 0.06323936 -0.036555246 0.18798342 0.13674845 0.0016254602 0.14509022
-0.13667974 -0.05104251 0.1550544 -0.14421403 0.014218211 0.045443688 -0.096107684 -0.17482385
0.015815316 0.060887158 -0.054093994 -0.09555004 -0.12746596 0.11994918 -0.16851078 0.15083821
-0.10891045 0.07367367 0.156628 -0.14334366 -0.04203758 0.15009439 0.111451775 -0.13480237
0.010983294 -0.15847364 0.09145126 0.052407507 -0.12663516 -0.17182675 -0.029056469 0.08277105
-0.115266584 0.036626622 -0.123459965 0.090045065 0.16957305 0.12432296 -0.048740976 0.014116966
0.065823406 -0.032780744 -0.13158813 -0.07396756 -0.11655168 -0.16411613 0.07497341 -0.1321887
0.05529197 0.07716698 0.030448874 0.043488108 -0.10698118 0.072252266 0.17797093 0.06646638
0.04236511 -0.17583206 0.1715614 -0.13057211 -0.0838711 -0.1469523 0.094649166 -0.11055615
-0.039195053 0.12378148 0.16178916 -0.07102021 0.0061925054 -0.049265604 0.154147 0.045669895
0.0008046582 -0.121210545 -0.08460625 -0.013685789 0.045231428 0.08771792 -0.11742766 -0.035034
-0.04820887 0.075073324 -0.13013914 0.12219779 -0.075977534 -0.022236329 -0.09950538 -0.103517614
0.03806836 -0.06589479 0.11417592 0.1412068 0.090896234 0.10416321 -0.0978448 0.046837185
0.053091116 0.031913888 0.0037102904 -0.06495858 0.17097116 0.09155322 -0.1956376 -0.09710897
-0.076159224 -0.04986327 -0.028494747 -0.0113380365 0.14864348 -0.07205238 0.0952962 0.017689653
0.15821667 0.13254811 -0.10783149 0.055526987 0.097339265 0.08771303 0.088008314 -0.073336594
0.025478454 0.07186325 0.02907449 -0.052909408 0.08577663 0.057627954 0.10279199 0.1281307
0.043354508 0.010587965 -0.09693465 -0.07121667 0.020892052 -0.075220354 -0.076631226 0.095371984
-0.044786666 -0.121363826 -0.15423262 0.13359325 -0.031981915 0.06975005 0.06894517 0.038648106
0.007299208 0.044417795 0.15711395 0.13485433 0.021298872 0.12236135 0.09548148 0.0032216941
0.050428197 0.07513514 -0.10653303 0.10637118 0.09901317 0.05419139 0.16571835 0.11002839
00000000: a8ca 33bd a1b8 7ebd 57f2 0abe 75e8 72bd
00000010: 8920 463d e279 88bd 504e 4c3e 3c3b 453e
00000020: 34a4 ccbd d5c5 a8bd 0986 723c 92ce 493e
00000030: 61d6 c73d 1d4a 9c3d f905 24bd 48df c9bd
00000040: e301 3abe 4e4d c13d be58 f4bd 9745 893d
00000050: d688 703d 2821 c33d 2391 8dbd 3420 223c
00000060: c33f c4bc e1c4 be3d b2f3 da3c 1430 033e
00000070: 6a50 ccbd c0f1 573d edfa c13d ae1d d63d
00000080: dcd0 273e 7af4 923a 45a5 29be 8de8 dc3d
00000090: 6998 123e 90b1 fbbd 7c67 2abe c8a7 f23b
000000a0: 53d7 9f3c 6b23 e83d 6897 7dbd 4cbe 37bd
000000b0: ac5e 1f3d 80ff 38be 7d59 b3bd bc3b 03be
000000c0: 9433 eabd ac99 763d 5417 b43c 07c2 d03b
000000d0: 8294 b8bd b7ad 1abe ffab 21be 6f54 183d
000000e0: dd3f c73d add5 873d 2362 bcb8 cbe9 06be
000000f0: bb70 253c ca16 02be c8c1 08be 9514 cb39
00000100: 305f f93c 80eb 19be 21e7 253e 0030 43bd
00000110: 5a94 ab3c 101d 193e d78e 333d 221f 1a3e
00000120: 26eb 08be 9e96 0ebe 7a1a e8bd a98d bdbd
00000130: 1505 8a3c 15f9 18bd c8fe a6bd 2764 ab3d
00000140: 412b d63d bc23 a43c ca9e 273c 31ea ebbd
00000150: 796d 933d 70e4 aebd 3329 143e 7989 e83b
00000160: aaf7 b03c 1a63 fe3d a383 813d f4ba 15bd
00000170: ba7e 403e c907 0c3e 650d d53a 8892 143e
00000180: c6f5 0bbe f311 51bd 95c6 1e3e d8ac 13be
00000190: 80f3 683c 2923 3a3d 1bd4 c4bd 0605 33be
000001a0: 1f8f 813c d064 793d aa91 5dbd bdaf c3bd
000001b0: 7086 02be eaa7 f53d 178e 2cbe 5575 1a3e
000001c0: 710c dfbd 39e2 963d 1763 203e aec8 12be
000001d0: 992f 2cbd 58b2 193e d440 e43d a209 0abe
000001e0: 46f3 333c ea46 22be cc4a bb3d 41a9 563d
000001f0: a6ac 01be 5af3 2fbe d507 eebc de83 a93d
00000200: e310 ecbd cc05 163d 94d8 fcbd 8c69 b83d
00000210: 8fa4 2d3e 099d fe3d 9ea4 47bd d94a 673c
00000220: 6cce 863d 1a45 06bd 0abf 06be 4e7c 97bd
00000230: a6b2 eebd 0f0e 28be a98b 993d 795c 07be
00000240: d579 623d b909 9e3d eb6f f93c 9620 323d
00000250: f318 dbbd fff8 933d 033e 363e 871f 883d
00000260: 0a87 2d3d 520d 34be cbad 2f3e b2b4 05be
00000270: 9cc4 abbd aa7a 16be 6cd7 c13d 436b e2bd
00000280: fe8a 20bd 2581 fd3d 0fac 253e 0b73 91bd
00000290: 80ea ca3b bbca 49bd b6d8 1d3e 5b10 3b3d
000002a0: b3ef 523a 3c3d f8bd 0b46 adbd 5c3a 60bc
000002b0: 9744 393d 74a5 b33d ea7d f0bd d07f 0fbd
000002c0: aa76 45bd 0bc0 993d 3243 05be d642 fa3d
000002d0: 1c9a 9bbd f628 b6bc 7ac9 cbbd 0b01 d4bd
000002e0: 92ed 1b3d d9f3 86bd 11d5 e93d 8498 103e
000002f0: ce27 ba3d 8553 d53d db62 c8bd 59d8 3f3d
00000300: 1276 593d 23b8 023d 5828 733b 0109 85bd
00000310: 1013 2f3e 4180 bb3d 3955 48be 11e1 c6bd
00000320: 5ef9 9bbd 6e3d 4cbd d16d e9bc 2cc3 39bc
00000330: ff35 183e 3390 93bd a72a c33d e4e9 903c
00000340: 8d03 223e b1ba 073e c2d6 dcbd 4470 633d
00000350: cf59 c73d e4a2 b33d b43d b43d 7f31 96bd
00000360: 31b8 d03c 0a2d 933d a02d ee3c 89b7 58bd
00000370: a8ab af3d 4a0b 6c3d 9b84 d23d b234 033e
00000380: 7f94 313d 2579 2d3c ac85 c6bd 0cda 91bd
00000390: cf25 ab3c 210d 9abd d5f0 9cbd 6352 c33d
000003a0: 3972 37bd 998d f8bd 28ef 1dbe abcc 083e
000003b0: 78ff 02bd 1dd9 8e3d 2033 8d3d 7a4d 1e3d
000003c0: 322e ef3b 6fef 353d 7be2 203e 4117 0a3e
000003d0: f97a ae3c 9698 fa3d cb8b c33d 0f23 533b
000003e0: cc8d 4e3d 74e0 993d fd2d dabd 22d9 d93d
000003f0: 6bc7 ca3d caf7 5d3d 12b2 293e 9156 e13d

reformer.layers.blocks.0.f.net.fn.to_out.bias f4 [32]
-0.15123476 0.13700326 0.15212545 0.06416436 -0.024190068 -0.008035132 0.121887065 0.00092337787
0.039592255 -0.08506187 -0.12527536 -0.07377717 -0.1354742 -0.10655865 -0.082282834 0.22475085
-0.0018213616 0.083523564 0.048272382 -0.07176603 0.025832837 -0.122516096 0.036890816 -0.15822941
0.10529016 -0.0010324649 0.15573616 -0.10182191 -0.07989472 0.14792414 -0.028310198 -0.09977658
00000000: 49dd 1abe 954a 0c3e c6c6 1b3e 9b68 833d
00000010: 402a c6bc c9a5 03bc ed9f f93d d70e 723a
00000020: 7d2b 223d eb34 aebd 2f48 00be 7c18 97bd
00000030: c0b9 0abe 6c3b dabd e783 a8bd 1625 663e
00000040: c1ba eeba 670e ab3d 43b9 453d 11fa 92bd
00000050: 639f d33c b8e9 fabd d31a 173d e406 22be
00000060: 5ea2 d73d c653 87ba 4d79 1f3e 0188 d0bd
00000070: d89f a3bd 6d79 173e caea e7bc aa57 ccbd

reformer.layers.blocks.0.g.net.norm.weight f4 [32]
1.0304607 1.0212053 0.95150965 0.96710026 1.0107979 0.9893959 0.9714339 1.0411062
0.9825278 1.0110785 0.96801454 1.0074459 1.0228163 1.0190178 1.0042721 1.0252448
0.9482266 1.0846052 1.0146646 1.0471416 0.96497715 0.95037943 0.987809 0.9797158
0.966295 1.0111333 1.0449317 1.0622948 1.0120037 0.957873 0.9809521 0.975647
00000000: 23e6 833f dbb6 823f 2396 733f e293 773f
00000010: d361 813f 0d49 7d3f e4af 783f f842 853f
00000020: f186 7b3f 056b 813f cdcf 773f fdf3 803f
00000030: a5eb 823f 2d6f 823f fd8b 803f 393b 833f
00000040: fabe 723f 58d4 8a3f 88e0 813f bc08 863f
00000050: be08 773f 114c 733f 0de1 7c3f a8ce 7a3f
00000060: 1c5f 773f d16c 813f 52c0 853f 47f9 873f
00000070: 5689 813f 2a37 753f ad1f 7b3f 00c4 793f

reformer.layers.blocks.0.g.net.norm.bias f4 [32]
0.023509802 -0.033071473 -0.01338414 -0.0399611 0.018555075 -0.0411749 0.021214701 -0.019590503
0.01953248 0.033432707 -0.012191006 -0.03685577 0.00888012 -0.0051346654 0.009475641 0.010503604
-0.03352538 -0.020223012 -0.02272911 0.010823458 0.023945585 0.022145197 -0.01019866 0.010954195
-0.030903412 -0.02287119 0.027728142 -0.020404834 0.019003017 0.0047875755 -0.00801017 -0.042658865
00000000: a197 c03c f475 07bd 2749 5bbc 40ae 23bd
00000010: d000 983c 03a7 28bd 74ca ad3c 437c a0bc
00000020: 9402 a03c bcf0 083d c9bc 47bc 13f6 16bd
00000030: ec7d 113c b240 a8bb b83f 1b3c 4f17 2c3c
00000040: e951 09bd bbaa a5bc 6632 babc e054 313c
00000050: 8829 c43c d869 b53c 4818 27bc 3979 333c
00000060: 2729 fdbc 5d5c bbbc 2126 e33c 0a28 a7bc
00000070: 37ac 9b3c 18e1 9c3b 173d 03bc 10bb 2ebd

reformer.layers.blocks.0.g.net.fn.fn.w1.weight f4 [128, 32]
-0.012190405 0.16009678 0.019735094 -0.06250097 -0.020343876 0.1262924 -0.04568933 -0.11323521
-0.034793783 0.036888584 0.11602329 0.09115838 0.13277322 0.05430325 0.0942072 0.14836368
-0.0030398765 -0.059457503 -0.07456477 0.11842093 -0.13930063 -0.06954627 0.11958462 -0.06078566
0.07338465 -0.18330897 -0.054204505 0.08332222 0.124920085 -0.13101466 -0.0790553 -0.20225674
-0.0060813134 -0.1658698 -0.04364873 -0.16631708 -0.026619134 0.049061406 -0.026384635 0.17630836
-0.17907345 -0.15109795 0.06569697 0.038068186 -0.022380993 0.00039733778 0.07965942 0.043147698
-0.12052225 0.11175114 0.08204578 0.045988157 -0.002737634 0.14704053 -0.017711276 0.009509432
0.0035566841 -0.0116476035 0.0903253 -0.08288102 0.034172308 0.11320262 -0.012621022 0.077308334
0.0901611 0.05502633 0.08787992 0.18471724 0.020090027 -0.017114788 0.107830256 0.03562987
0.06634331 0.117511645 0.0024639599 -0.0940109 0.1431035 -0.105163045 0.0990499 0.08570779
0.120755635 0.08251578 -0.08216689 -0.13573806 0.043397546 0.06106997 -0.15233523 0.13282865
-0.0035398803 -0.0696565 0.089755304 0.10230822 0.092361495 0.13105983 0.04926473 0.13720211
0.031948257 -0.008565366 -0.10034572 0.027416114 0.07625665 0.04345498 -0.11674196 -0.09761765
0.13207124 -0.12314337 -0.03416019 -0.12317519 0.15652812 -0.17259787 -0.081040084 -0.12805504
-0.037792943 0.10195731 0.1534268 0.016740689 0.042869426 0.16654456 0.12370439 0.14219485
-0.0910891 -0.14327435 0.063227996 -0.071314245 0.195117 0.046813104 0.08673732 -0.018990582
-0.17997943 -0.048924856 0.085471176 0.15836167 0.07777569 -0.10690779 -0.13804722 0.24660382
0.11254615 -0.16322888 -0.08189021 -0.13706557 -0.0068239514 0.22655745 -0.03680911 0.17129512
0.15949675 -0.19988194 -0.14602767 -0.0101961605 -0.14218122 0.10899007 0.039762836 0.0025895385
0.06597279 0.12785658 -0.11199448 0.18274814 0.11217065 -0.00961108 0.14360029 -0.099134326
0.12547885 0.1587478 -0.04131472 -0.016785933 0.0659429 0.061118066 -0.1678966 -0.11406883
0.044129748 -0.080084935 0.050921056 -0.11222657 0.18124418 0.0573514 0.020408412 0.12357681
0.023561649 -0.11132259 -0.11904709 -0.117773816 0.17458461 0.013258831 -0.12259984 -0.016339663
0.0839613 0.14266904 -0.02383912 -0.06907772 -0.002639138 0.117058516 0.12865655 0.095057994
-0.09334038 0.13879108 -0.06965247 -0.1103241 0.014388845 0.20601076 0.05491569 0.07485547
-0.07755467 0.14515679 -0.14699486 0.18258734 -0.03307712 0.060265955 0.1616654 -0.02696042
-6.44682e-05 0.057539392 0.062179655 -0.04453749 0.109884344 -0.12686013 -0.1827229 0.051503364
-0.13727754 -0.09153432 -0.100281335 0.16461597 0.108505525 0.10709625 -0.016441885 -0.1252475
0.010833386 0.110289656 -0.17983474 -0.10567152 0.05527213 0.13278677 -0.054995667 0.100927785
-0.14441285 -0.0579048 0.024567952 0.0034877814 0.13945977 -0.053793617 -0.12502234 -0.077714585
0.08404877 0.09391347 0.16746676 0.21147482 -0.10044716 0.18254516 0.15121186 0.0073288777
-0.18616961 0.04848653 0.17060098 0.18734068 -0.033385508 0.0509078 -0.03029183 0.13758142
00000000: 44ba 47bc 69f0 233e 7eab a13c 8200 80bd
00000010: 33a8 a6bc cb52 013e bc24 3bbd dde7 e7bd
00000020: ed83 0ebd 7c18 173d 9e9d ed3d 3fb1 ba3d
00000030: b4f5 073e 166d 5e3d b4ef c03d a6ec 173e
00000040: aa38 47bb b689 73bd 6ab5 98bd ac86 f23d
00000050: d3a4 0ebe 466e 8ebd c8e8 f43d 62fa 78bd
00000060: b14a 963d 59b5 3bbe 8b05 5ebd d7a4 aa3d
00000070: 1ad6 ff3d b528 06be bfe7 a1bd 641c 4fbe
00000080: c145 c7bb c6d9 29be 03c9 32bd 064f 2abe
00000090: 5f10 dabc 9df4 483d 9724 d8bc 2e8a 343e
000000a0: 085f 37be 6cb9 1abe 228c 863d 63ed 1b3d
000000b0: 5858 b7bc c651 d039 7a24 a33d a4bb 303d
000000c0: 5fd4 f6bd c8dd e43d 9e07 a83d 145e 3c3d
000000d0: e069 33bb cb91 163e 3d17 91bc 73cd 1b3c
000000e0: 4217 693b 97d5 3ebc 79fc b83d 86bd a9bd
000000f0: 43f8 0b3d c6d6 e73d 67c8 4ebc d553 9e3d
00000100: 62a6 b83d 4a63 613d 63fa b33d 8426 3d3e
00000110: d793 a43c 5034 8cbc 1cd6 dc3d a0f0 113d
00000120: 00df 873d f2a9 f03d 637a 213b c988 c0bd
00000130: b989 123e b95f d7bd adda ca3d 9187 af3d
00000140: bb4e f73d 09fe a83d 1d47 a8bd ebfe 0abe
00000150: a0c1 313d 8124 7a3d c4fd 1bbe 3c04 083e
00000160: 56fd 67bb 11a8 8ebd a1d1 b73d f986 d13d
00000170: 0628 bd3d 8c34 063e d0c9 493d b67e 0c3e
00000180: 2ddc 023d c055 0cbc 0f82 cdbd c297 e03c
00000190: 722c 9c3d d9fd 313d 6916 efbd c3eb c7bd
000001a0: af3d 073e 9732 fcbd 8eeb 0bbd 4643 fcbd
000001b0: e848 203e 7fbd 30be 58f8 a5bd dc20 03be
000001c0: c6cc 1abd ffce d03d ea1b 1d3e c523 893c
000001d0: da97 2f3d a88a 2a3e ba58 fd3d 879b 113e
000001e0: ec8c babd 83b6 12be ae7d 813d 340d 92bd
000001f0: c0cc 473e 19bf 3f3d 56a3 b13d 2392 9bbc
00000200: 874c 38be 6e65 48bd 830b af3d 9029 223e
00000210: dc48 9f3d 79f2 dabd 405c 0dbe b685 7c3e
00000220: 997e e63d 7925 27be 0eb6 a7bd eb5a 0cbe
00000230: 749b dfbb adfe 673e 26c5 16bd fd67 2f3e
00000240: 1e53 233e daad 4cbe 4788 15be cc0d 27bc
00000250: f497 11be 3036 df3d 5bde 223d 3fb5 293b
00000260: be1c 873d d6ec 023e 5d5d e5bd 5422 3b3e
00000270: bab9 e53d cb77 1dbc f40b 133e f006 cbbd
00000280: 877d 003e c98e 223e a039 29bd a782 89bc
00000290: 120d 873d f056 7a3d 16ed 2bbe eb9c e9bd
000002a0: 65c1 343d 9203 a4bd 9992 503d 0bd7 e5bd
000002b0: 1398 393e 4de9 6a3d 8b2f a73c d715 fd3d
000002c0: 5c04 c13c 19fd e3bd f6ce f3bd 6633 f1bd
000002d0: 4fc6 323e 913b 593c a015 fbbd c2da 85bc
000002e0: e7f3 ab3d d517 123e 424a c3bc 9f78 8dbd
000002f0: 63f5 2cbb 60bc ef3d 8bbe 033e c4ad c23d
00000300: 3e29 bfbd 401f 0e3e f4a5 8ebd 9af1 e1bd
00000310: 31bf 6b3c 7cf4 523e 46ef 603d d34d 993d
00000320: fcd4 9ebd fba3 143e d285 16be 2df8 3a3e
00000330: e07b 07bd 6fd9 763d 9d8b 253e 19dc dcbc
00000340: 1a33 87b8 6dae 6b3d 18b0 7e3d f16c 36bd
00000350: 0b0b e13d 9fe7 01be b61b 3bbe 31f5 523d
00000360: 7c92 0cbe 5876 bbbd 4d60 cdbd 1791 283e
00000370: 2538 de3d 4755 db3d 22b1 86bc e140 00be
00000380: 847e 313c 8bdf e13d 9926 38be 4f6a d8bd
00000390: 0765 623d 41f9 073e 2343 61bd 3ab3 ce3d
000003a0: f6e0 13be 952d 6dbd bb42 c93c 4393 643b
000003b0: 8bce 0e3e b256 5cbd db05 00be d328 9fbd
000003c0: c321 ac3d b555 c03d 687c 2b3e db8c 583e
000003d0: 3eb7 cdbd 1eed 3a3e 48d7 1a3e 1527 f03b
000003e0: 3fa3 3ebe d099 463d 06b2 2e3e 3cd6 3f3e
000003f0: 3ebf 08bd b384 503d 9226 f8bc 25e2 0c3e

reformer.layers.blocks.0.g.net.fn.fn.w1.bias f4 [128]
-0.14432701 -0.16621518 0.111821905 0.0154572725 0.03309353 -0.034112714 -0.0082155485 0.06478227
0.119881816 0.14365664 -0.1079135 -0.120960474 -0.027425122 0.02450597 0.1350421 0.06989006
-0.12448545 -0.0883242 -0.15609998 -0.19987473 0.085193 0.007521906 -0.07079109 -0.1232767
0.0010681809 -0.08743285 0.037104186 -0.15316573 -0.026555782 -0.11153092 -0.16339828 0.053796973
0.10471628 -0.12959857 0.020755935 0.06780741 0.14754212 -0.071383655 -0.04035901 0.17330292
-0.17789997 -0.092479125 -0.08797618 0.07916839 0.11453225 -0.14898542 0.15378745 0.017388318
-0.022650855 -0.021624243 -0.119724706 0.14086547 0.002967993 0.043263435 -0.10141796 -0.019939996
-0.14269933 -0.17990457 -0.07815236 -0.05963998 0.054956708 -0.10250019 0.08767548 0.13680764
0.012283046 -0.027522156 -0.1273938 0.113557 -0.03787723 0.06594883 0.07236783 0.122718275
0.11579342 0.11577665 0.05451926 0.0049257968 0.09732684 -0.02876582 0.16469644 0.055817302
-0.1279746 0.07630231 -0.01367779 0.15026683 -0.0035038646 -0.14355414 -0.10362871 0.1766396
0.007836907 -0.058722585 0.05271448 -0.18230602 0.103266016 0.11320115 -0.0031051158 0.04727423
0.054339428 -0.01967876 -0.045565937 -0.10067088 0.07594988 -0.12557673 -0.11039062 0.0934802
-0.046147257 0.012122532 -0.17420341 -0.06188233 -0.06845237 0.07541955 0.09328715 -0.044183042
-0.17807838 0.014332625 -0.057579823 0.05795798 -0.025000002 -0.04103205 0.14403032 0.12867282
-0.009585862 -0.03313593 -0.012630079 -0.0010621801 -0.19352278 -0.14682846 -0.099801965 -0.10118551
00000000: 76ca 13be 5034 2abe e202 e53d 8040 7d3c
00000010: 158d 073d c6b9 0bbd 829a 06bc 91ac 843d
00000020: 9984 f53d ba1a 133e c101 ddbd 20ba f7bd
00000030: a6aa e0bc bec0 c83c 7a48 0a3e 8522 8f3d
00000040: 3af2 febd 51e3 b4bd acd8 1fbe f6ab 4cbe
00000050: ab79 ae3d 527a f63b ebfa 90bd 7f78 fcbd
00000060: 3402 8c3a fe0f b3bd 8ffa 173d 7ad7 1cbe
00000070: 838b d9bc 536a e4bd e151 27be 375a 5c3d
00000080: 7d75 d63d 7db5 04be 5a08 aa3c 9dde 8a3d
00000090: 4815 173e 9831 92bd 7d4f 25bd 5276 313e
000000a0: 692b 36be b265 bdbd db2c b4bd 0923 a23d
000000b0: e28f ea3d a28f 18be 757a 1d3e f271 8e3c
000000c0: 498e b9bc 5325 b1bc 3a32 f5bd 0a3f 103e
000000d0: a982 423b 0035 313d 38b4 cfbd 3459 a3bc
000000e0: c61f 12be e738 38be 580e a0bd 0d49 74bd
000000f0: 491a 613d 9feb d1bd 348f b33d 4d17 0c3e
00000100: d43e 493c 2576 e1bc 8573 02be 9390 e83d
00000110: 2825 1bbd 2e10 873d 9635 943d b853 fb3d
00000120: 1a25 ed3d 4f1c ed3d 964f 5f3d 9468 a13b
00000130: 4b53 c73d 4ca6 ebbc 2fa6 283e afa0 643d
00000140: c60b 03be 6344 9c3d cf18 60bc 8cdf 193e
00000150: 18a1 65bb dbff 12be 4a3b d4bd 03e1 343e
00000160: 5f66 003c 1887 70bd 23eb 573d 6eae 3abe
00000170: 227d d33d 01d6 e73d 337f 4bbb 9fa2 413d
00000180: 0593 5e3d 5a35 a1bc 59a3 3abd 892c cebd
00000190: 9c8b 9b3d 3097 00be 7a14 e2bd 8c72 bf3d
000001a0: e804 3dbd 969d 463c 6162 32be 5378 7dbd
000001b0: c230 8cbd 9175 9a3d 550d bf3d 47f9 34bd
000001c0: 2e5a 36be 63d3 6a3c d2d8 6bbd 5965 6d3d
000001d0: cecc ccbc 3911 28bd af7c 133e cfc2 033e
000001e0: 050e 1dbc 8ab9 07bd 64ee 4ebc da38 8bba
000001f0: d62a 46be 335a 16be f964 ccbd 593a cfbd

reformer.layers.blocks.0.g.net.fn.fn.w2.weight f4 [32, 128]
-0.04429954 0.061730016 -0.031427853 0.0025384463 0.007843316 0.01571801 0.05402199 -0.023932198
-0.0126528805 0.09329285 -0.0520602 -0.062378876 -0.11664556 0.06346779 -0.0042645377 -0.06623554
0.01820994 0.061779384 0.03599534 -0.03422308 0.003047521 0.06375098 -0.04389146 -0.031688374
-0.024704076 -0.044817895 -0.060131095 0.04625219 0.028355513 0.042280648 0.07794579 -0.047408495
0.022564467 0.036026176 -0.020426333 0.018961629 -0.063294254 0.033804726 -0.047181007 0.045375846
0.06401236 -0.0039870427 0.019566964 -0.047888756 -0.015544229 0.004562219 0.064126804 0.002750568
0.006060305 -0.021524567 -0.10287007 -0.062170725 0.024286564 0.035118088 0.014960701 0.023903547
-0.03012233 0.00820442 0.106213175 -0.0321246 -0.0049367626 0.00037171668 -0.03845242 -0.09655538
0.060487412 -0.020801438 -0.04004979 -0.08227869 -0.056945767 -0.079081245 -0.071011156 0.012670471
-0.022408064 -0.030657548 -0.015258694 -0.04807364 -0.07491836 0.03225633 -0.01975202 -0.016951747
0.05533429 0.031276423 -0.0071193865 -0.031094268 0.07321789 0.057876475 0.005143625 -0.058204684
-0.003403921 -0.0011616971 0.11060765 -0.08274869 0.06620772 -0.115344636 0.031586867 0.10616209
0.08690709 0.12030887 -0.0077068885 -0.09187658 -0.05897857 0.016799942 -0.025524566 -0.09884031
0.00025330618 -0.022707174 -0.068488695 0.045332223 -0.049986754 -0.097038075 -0.051931866 -0.029839031
-0.0048206924 -0.038608305 -0.046814892 -0.0074924603 0.017758261 0.008607679 -0.04294574 0.016425043
0.044077378 0.032566953 -0.08416491 0.123739496 -0.049330898 -0.038981102 0.12794946 -0.046006564
-0.028207857 -0.013180165 0.10366011 0.020360941 0.11424316 0.020928286 -0.024329491 0.0015195133
-0.049997248 -0.0676634 0.055520575 0.010860065 0.12208916 -0.036994815 0.022304596 0.050161947
-0.08543583 -0.044758283 -0.019862382 -0.06854918 0.004679612 0.064205915 -0.042563763 -0.08668123
-0.033207174 0.03707661 0.008823152 0.055421516 -0.058884148 0.047594808 -0.016319416 -0.02773661
-0.034864683 0.055307906 -0.0037482593 -0.014853161 0.01584244 -0.005763919 -0.013195407 0.03632628
-0.055228367 -0.010509027 0.030740583 -0.043636527 -0.118123494 -0.08132399 0.030753618 0.013163252
0.057103682 -0.04849757 -0.106787786 -0.0053829616 0.029791912 0.007311488 -0.016966334 -0.058311332
-0.09514628 0.056923646 -0.05876897 0.004887823 -0.07299607 0.0014664851 -0.07374897 0.0073226555
0.019114198 0.029736066 -0.048854947 0.047987737 -0.03635588 -0.081598915 0.050691895 0.0324658
0.054059092 -0.06288521 0.004982112 -0.076805316 -0.09281497 -0.12566118 0.041322075 0.05928284
-0.06030856 -0.0054747057 -0.03381877 -0.037348595 0.04986934 -0.03291407 0.049245354 -0.021060554
-0.032856055 -0.09328891 0.037154667 -0.009924732 -0.065232076 -0.022925884 0.029105661 -0.068636544
-0.10185428 -0.051193338 0.010703073 0.020374184 0.0048040664 0.04224182 -0.07543169 0.050875682
0.056994688 0.0010953458 0.027775135 -0.115742125 -0.09409375 -0.04644826 -0.04129071 -0.026669996
-0.016685221 0.045750804 -0.06348029 0.05812533 -0.03344647 -0.053206827 -0.022759123 0.079041466
0.1355648 0.10420085 0.033191364 -0.056426477 0.068015836 0.11585632 -0.07565157 -0.03535752
00000000: 6f73 35bd 9dd8 7c3d 7eba 00bd 105c 263b
00000010: 4081 003c 0ec3 803c 2a46 5d3d 750d c4bc
00000020: 074e 4fbc 5210 bf3d 143d 55bd fe80 7fbd
00000030: dee3 eebd 67fb 813d 89bd 8bbb 80a6 87bd
00000040: 032d 953c 610c 7d3d da6f 133d 802d 0cbd
00000050: ebb8 473b e08f 823d 88c7 33bd abcb 01bd
00000060: 3460 cabc f892 37bd 064c 76bd f072 3d3d
00000070: d249 e83c 792e 2d3d 0ba2 9f3d 692f 42bd
00000080: 1ed9 b83c 2f90 133d 2055 a7bc 6b55 9b3c
00000090: 6ba0 81bd d376 0a3d df40 41bd 06dc 393d
000000a0: ea18 833d bda5 82bb e64a a03c 0027 44bd
000000b0: 39ad 7ebc ab7e 953b ea54 833d e042 343b
000000c0: 8695 c63b 4a54 b0bc 8bad d2bd bba6 7ebd
000000d0: 9ef4 c63c fcd7 0f3d ba1d 753c 5fd1 c33c
000000e0: 1bc3 f6bc d56b 063c 4b86 d93d 1695 03bd
000000f0: 91c4 a1bb f8e2 c239 4980 1dbd d4be c5bd
00000100: a6c1 773d c767 aabc 400b 24bd bb81 a8bd
00000110: f73f 69bd 59f5 a1bd 4c6e 91bd cf97 4f3c
00000120: 1e91 b7bc 8a25 fbbc 9aff 79bc dde8 44bd
00000130: cc6e 99bd 371f 043d fdce a1bc 64de 8abc
00000140: 35a6 623d b51b 003d be49 e9bb 68b9 febc
00000150: 43f3 953d e20f 6d3d db8b a83b 0968 6ebd
00000160: 5114 5fbb 1644 98ba 4386 e23d 2578 a9bd
00000170: ea97 873d cf39 ecbd 3b61 013d 836b d93d
00000180: 58fc b13d 7f64 f63d 118a fcbb ca29 bcbd
00000190: 8393 71bd 08a0 893c e518 d1bc ca6c cabd
000001a0: 2ece 8439 6504 babc cd43 8cbd 48ae 393d
000001b0: e9be 4cbd e6bb c6bd 82b6 54bd fc70 f4bc
000001c0: e6f6 9dbb be23 1ebd f9c0 3fbd 5083 f5bb
000001d0: c679 913c 3907 0d3c dfe7 2fbd d08d 863c
000001e0: 7b8a 343d ed64 053d a75e acbd 226b fd3d
000001f0: 320f 4abd a6aa 1fbd 2f05 033e 6171 3cbd
00000200: 2a14 e7bc 9ef1 57bc c04b d43d fdcb a63c
00000210: 51f8 e93d cc71 ab3c a44e c7bc 682a c73a
00000220: eac9 4cbd 1c93 8abd 8b69 633d 6aee 313c
00000230: e209 fa3d e087 17bd 21b8 b63c 9d76 4d3d
00000240: fbf8 aebd 7654 37bd 6fb6 a2bc 8363 8cbd
00000250: 6e57 993b 647e 833d 5757 2ebd ee85 b1bd
00000260: 3f04 08bd a5dd 173d fb8e 103c ac01 633d
00000270: 8130 71bd c6f2 423d 4cb0 85bc e337 e3bc
00000280: 45ce 0ebd 8b8a 623d 5ba5 75bb ac5a 73bc
00000290: 01c8 813c 42df bcbb 8c31 58bc deca 143d
000002a0: 2437 62bd 0e2e 2cbc add3 fb3c 37bc 32bd
000002b0: bbea f1bd 318d a6bd 03ef fb3c aeaa 573c
000002c0: 8de5 693d 63a5 46bd 8eb3 dabd 8e63 b0bb
000002d0: 2b0e f43c 3595 ef3b fbfc 8abc ddd7 6ebd
000002e0: 0edc c2bd c528 693d bbb7 70bd 082a a03b
000002f0: f77e 95bd 1337 c03a b309 97bd e3f2 ef3b
00000300: 6195 9c3c 0d99 f33c 201c 48bd ca8e 443d
00000310: e7e9 14bd 551d a7bd 4ea2 4f3d dcfa 043d
00000320: 116d 5d3d f6c9 80bd fc40 a33b 1b4c 9dbd
00000330: c615 bebd 53ad 00be 5641 293d 90d2 723d
00000340: 1c06 77bd 2965 b3bb 8d85 0abd d7fa 18bd
00000350: cb43 4c3d e7d0 06bd 7fb5 493d 2f87 acbc
00000360: 1294 06bd 420e bfbd 7e2f 183d 589b 22bc
00000370: 6598 85bd 10cf bbbc ff6e ee3c 5191 8cbd
00000380: fa98 d0bd 1bb0 51bd f15b 2f3c c3e7 a63c
00000390: 6e6b 9d3b c205 2d3d ee7b 9abd 0563 503d
000003a0: 4373 693d b591 8f3a ae88 e33c 350a edbd
000003b0: 39b4 c0bd 8840 3ebd 7320 29bd 097b dabc
000003c0: 72af 88bc 3265 3b3d f401 82bd d314 6e3d
000003d0: 2aff 08bd 67ef 59bd 5771 babc 7ee0 a13d
000003e0: 80d1 0a3e 4167 d53d abf3 073d 731f 67bd
000003f0: e34b 8b3d 1446 ed3d 36ef 9abd 0cd3 10bd

reformer.layers.blocks.0.g.net.fn.fn.w2.bias f4 [32]
-0.032893196 -0.07603152 -0.060079876 0.011225386 -0.020120792 0.039967727 0.029809935 -0.053076893
0.10830561 -0.012844084 0.07422449 0.014348573 0.039758272 -0.032769464 0.045728914 0.1009321
-0.066128075 -0.05869161 -0.05136664 -0.015567827 -0.027472591 -0.056095514 -0.0589896 0.05857775
-0.10616964 -0.0100199245 -0.037897673 -0.05875873 -0.033786993 0.03783578 -0.053467527 -0.016751198
00000000: 04bb 06bd 6ab6 9bbd 5116 76bd aeea 373c
00000010: 5cd4 a4bc 33b5 233d f733 f43c 2867 59bd
00000020: 55cf dd3d fe6f 52bc 0203 983d 4716 6b3c
00000030: 92d9 223d 4639 06bd 3e4e 3b3d 7db5 ce3d
00000040: 286e 87bd 9d66 70bd d365 52bd 3310 7fbc
00000050: 330e e1bc 69c4 65bd 149f 71bd 39ef 6f3d
00000060: 786f d9bd 9c2a 24bc 973a 1bbd feac 70bd
00000070: 3b64 0abd b1f9 1a3d c400 5bbd cf39 89bc

reformer.layers.blocks.1.f.net.norm.weight f4 [32]
0.9440298 0.9984234 0.9881764 0.9980958 1.0064195 0.98829466 1.0104203 0.97736245
1.0094943 1.0186486 0.98994213 1.0005641 1.0087798 0.9767913 1.0015031 0.9996725
0.9606962 0.96541005 1.0154554 0.97707003 0.99565274 0.97660047 0.96812606 0.9667709
0.94051456 0.9366286 1.0005422 0.96727675 0.9724843 0.96177435 0.9848313 0.9962149
00000000: f0ab 713f ad98 7f3f 21f9 7c3f 3583 7f3f
00000010: 5bd2 803f e100 7d3f 7455 813f 6d34 7a3f
00000020: 1c37 813f 1463 823f d96c 7d3f 7c12 803f
00000030: b21f 813f ff0e 7a3f 4131 803f 89ea 7f3f
00000040: 30f0 753f 1d25 773f 71fa 813f 4321 7a3f
00000050: 19e3 7e3f 7d02 7a3f 1cd7 773f 4c7e 773f
00000060: 90c5 703f e4c6 6f3f c411 803f 739f 773f
00000070: bbf4 783f d836 763f e71d 7c3f f107 7f3f

reformer.layers.blocks.1.f.net.norm.bias f4 [32]
0.04586761 -0.00978844 -0.008155458 0.0052126925 -0.02131699 -0.021051563 0.008423993 0.02848766
0.0007049861 -0.0030016187 0.023004666 -0.014994879 0.02451042 0.028562035 0.0023903549 0.008083215
-0.011204401 -0.018981317 0.018093526 0.039158948 -0.023245715 0.013896502 -0.008375181 -0.031143377
-0.046397623 -0.03107992 -0.03187672 0.0016456725 0.0056274654 0.041018862 0.011256564 -0.021805197
00000000: addf 3b3d b15f 20bc 789e 05bc 3ccf aa3b
00000010: f8a0 aebc 5474 acbc ca04 0a3c f45e e93c
00000020: d1ce 383a ceb6 44bb 4874 bc3c 15ad 75bc
00000030: 14ca c83c eefa e93c 80a7 1c3b 766f 043c
00000040: aa92 37bc b57e 9bbc e038 943c 2265 203d
00000050: cc6d bebc 27ae 633c 0e38 09bc 6520 ffbc
00000060: 6f0b 3ebd 519b febc 2a91 02bd 9bb3 d73a
00000070: 9a66 b83b 6503 283d 746d 383c d0a0 b2bc
