vanilla_transformer_model.pth (torch, 233477 bytes, 41 tensors)

positional_encoding f4 [1, 500, 32]
1.0118602e-38 3.0974664e-26 1.280731e-10 -4.0456103e-38 -3.654606e-39 7.72904e-12 1.9752811e-38 1.1868957e-38
-8.2780305e-38 1.8614615e-37 1.5257891e-15 2.1668647e-15 1.4645797e-10 5.8861026e-38 4.8285317e-32 1.0660571e-27
3.63266e-38 -6.798469e-38 -7.5379146e-38 6.256794e-38 6.014852e-38 -2.884227e-38 3.37168e-40 8.4970545e-13
2.3768494e-12 -6.1356324e-38 2.2712342e-38 1.32386e-10 5.0778613e-26 -1.5004709e-38 8.528655e-24 4.1309814e-24
2.91895e-13 4.33082e-12 4.3823323e-38 -7.729237e-39 6.270337e-13 4.3315284e-20 3.2246823e-38 4.978798e-38
1.2938816e-14 4.460014e-28 1.2454844e-21 1.866188e-11 5.428261e-31 3.3619644e-38 3.9660142e-18 1.0401139e-38
3.5842732e-17 4.1108106e-30 -8.7620043e-38 -5.616205e-39 1.1829877e-12 8.3872676e-19 1.5642528e-17 3.1498155e-11
5.109754e-33 -2.7442547e-38 6.3727467e-38 3.434533e-38 -2.2038357e-38 2.27333e-14 1.1959669e-12 6.3295947e-22
3.8333878e-15 1.2228311e-11 7.7433536e-14 6.662601e-14 -1.1502116e-37 7.326501e-38 3.1026867e-38 2.0374137e-38
1.9460692e-38 3.3279758e-37 9.794275e-39 1.4764074e-38 1.2414065e-11 -2.3653133e-38 -4.2492966e-38 3.989862e-12
6.656302e-38 2.7301795e-38 1.1694095e-16 4.1751975e-13 4.828433e-16 6.240341e-38 3.9049648e-38 3.6086682e-23
1.129141e-11 7.5423533e-38 2.970674e-38 4.903882e-38 1.8740074e-38 9.054559e-39 2.5338861e-11 6.966578e-38
-7.533203e-38 1.9034321e-37 -1.1575686e-37 1.734024e-28 -4.37164e-38 5.9917254e-14 3.9831356e-18 9.974169e-26
2.6189268e-38 3.5785766e-38 5.7643934e-18 3.615305e-38 -7.567527e-39 1.6502562e-38 -5.848192e-38 1.679069e-12
3.1243205e-38 1.190686e-37 5.267413e-38 1.9074963e-18 6.579206e-38 -1.2548905e-37 -6.3724126e-38 1.0169724e-17
1.0988358e-30 1.5343916e-28 -8.685528e-39 -4.0667332e-38 6.251336e-38 -9.905408e-38 -3.096693e-39 2.9720897e-36
-7.561645e-39 -4.008832e-38 9.4796506e-17 4.832385e-38 -7.3064655e-38 1.1959781e-28 1.2879609e-38 -5.578997e-38
1.8914467e-37 1.712493e-37 5.0574624e-19 4.996678e-38 1.3021696e-12 -6.09746e-38 1.1483366e-33 1.0126021e-19
5.310779e-38 6.920842e-38 -9.134765e-39 -1.3221185e-37 1.4987573e-29 1.2648502e-22 1.402083e-38 -1.5155587e-38
4.3563903e-38 -5.1187174e-38 -8.365853e-39 9.389327e-16 -6.105684e-38 -5.8566485e-38 5.9002836e-24 7.411762e-14
5.9410613e-27 2.3461881e-38 2.6135572e-15 3.3677913e-38 -9.912791e-38 -6.934144e-38 1.1837737e-13 1.0392089e-16
3.113497e-29 -1.0861775e-37 2.0221098e-38 -7.2031197e-38 -1.2111116e-38 -3.3418443e-38 4.9769247e-14 1.6142077e-30
3.270992e-37 2.6580856e-11 1.9030792e-37 2.4172862e-11 4.2905983e-14 7.416153e-18 -2.8494143e-38 6.0499786e-11
1.9630232e-37 1.7108182e-26 3.4951115e-12 -4.4703316e-38 -7.262911e-38 6.4870382e-15 1.6591225e-23 3.0735425e-11
2.758483e-38 4.5246164e-11 -3.478847e-39 5.4378435e-28 8.710987e-14 -9.082157e-39 -5.216143e-38 2.276722e-39
-1.8593878e-38 3.5172084e-38 6.1436906e-19 -1.4169361e-37 6.4956335e-12 -2.9926427e-38 1.056067e-38 6.90379e-12
2.3042234e-38 1.7833698e-15 -2.022676e-38 3.1966566e-38 -5.551216e-39 2.619641e-12 2.543919e-11 -7.9042146e-38
2.5572367e-18 4.312358e-38 -6.14614e-38 -5.1671564e-38 4.5219442e-38 2.0385012e-13 1.2365102e-16 1.7585145e-30
9.0589466e-35 5.9621887e-38 7.4893063e-38 8.369028e-28 2.3114368e-30 2.6137246e-22 1.0974858e-12 4.444192e-12
7.5343623e-16 1.8047122e-37 -2.1923498e-38 4.243726e-39 2.01094e-15 8.845442e-24 1.8534146e-37 1.3149493e-11
1.2801697e-18 -5.2824104e-38 6.881035e-24 1.4165071e-17 -6.5985996e-38 4.9268652e-23 5.906833e-12 -6.311163e-38
7.044989e-38 9.880951e-16 6.8360714e-38 8.101694e-12 -1.2732778e-38 7.032902e-18 7.74677e-38 2.2008157e-38
00000000: 8c2e 6e00 0d61 1915 5fd1 0c2f 9443 5c81
00000010: 8ecb 2780 80f8 072d cd16 d700 d33d 8100
00000020: 7459 e181 775e 7d02 afe3 db26 9923 1c27
00000030: 4108 212f 263c a001 32b6 7a0b 6aec a812
00000040: e4c7 4501 6a12 b981 9933 cd81 7e53 aa01
00000050: 67bd a301 4208 1d81 e3ab 0300 bb2b 6f2b
00000060: 8341 272c 1e07 a781 c550 f700 598f 112f
00000070: 8a71 7b15 0663 a380 dbf7 2419 42cf 9f18
00000080: 8152 a42a 8f60 982c cc98 6e01 f829 5480
00000090: 8a7e 302b f78c 4c1f 8391 2f01 2889 8701
000000a0: c215 6928 ef57 0d12 5836 bc1c d126 a42d
000000b0: 3a28 300d f20a 3701 f251 9222 2542 7100
000000c0: a14b 2524 19c1 a60e 4286 ee81 b227 3d80
000000d0: a07d a62b 678c 7721 e046 9023 c587 0a2e
000000e0: 3940 d409 5469 1581 907b ad01 67fe 3a01
000000f0: f9f9 ef80 6cc3 cc28 4051 a82b de4c 3f1c
00000100: c31c 8a27 6b1f 572d 655d ae29 4807 9629
00000110: 068f 1c82 4372 c701 24ed 2801 ceda dd00
00000120: 7ee8 d300 847d e202 74a6 6a00 3bc4 a000
00000130: fa63 5a2d a8c7 0081 8d5a 6781 7b61 8c2c
00000140: a833 b501 26a5 1401 e0d2 0625 f00a eb2a
00000150: 8c2b 0b26 d4e0 a901 449b 5401 2681 2e1a
00000160: fda3 462d 8852 cd01 27bd 2101 127f 8501
00000170: b40f cc00 6d98 6200 0be2 de2d f6a5 bd01
00000180: c312 cd81 778a 8102 618f 1d82 4cd0 5b11
00000190: c503 6e81 f2eb 8629 a7f3 9222 cef2 f615
000001a0: 8396 0e01 14d6 4201 28ab d422 ffd5 4401
000001b0: 3067 5280 6eb2 b300 f333 9f81 d64e ec2b
000001c0: ac1a 2a01 5a11 2202 8364 8f01 96bf 0c22
000001d0: 601a b301 8dce 2a82 3c79 ad81 2a99 3b23
000001e0: da4b b20d db81 4211 b893 5e80 fd69 5d81
000001f0: 742d aa01 4fd3 0682 52b8 2180 62d6 7c04
00000200: ca56 5280 f742 5a81 fb95 da24 cf8c 8301
00000210: a2e6 c681 b59b 1711 1c3f 8c00 efdf 9781
00000220: a6b9 8002 ac17 6902 1b45 1521 c305 8801
00000230: 9b43 b72b 18fd a581 d6cc be08 0b18 ef1f
00000240: ba92 9001 3b67 bc01 0278 6380 1bf5 3382
00000250: f7fd 970f 38e9 181b 5fac 9800 9c07 a580
00000260: 382f 6d01 4158 8b81 9818 5b80 8150 8726
00000270: 6836 a681 e26e 9f81 9441 e418 e6e5 a629
00000280: 8559 eb13 2e7a ff00 9f53 3c27 295c 3701
00000290: 09ed 0682 eec3 bc81 f447 052a 11a0 ef24
000002a0: 80df 1d10 c3d7 1382 3230 dc00 6b16 c481
000002b0: dde0 8380 83f2 3581 0924 6029 c8f5 020e
000002c0: b89c de02 c4ce e92d 5184 8102 72a0 d42d
000002d0: 3b3b 4129 cbcd 0823 0a23 1b81 5a0a 852e
000002e0: b098 8502 656e a914 55f2 752c 5463 7381
000002f0: 1ab7 c581 5eb8 e927 e275 a019 032d 072e
00000300: a42f 1601 a7fe 462e 9ce1 2580 0755 2c12
00000310: 6c27 c429 5ce5 6280 36ff 8d81 93ca 1800
00000320: 2b78 ca80 bb7e 3f01 6a54 3521 04dd 4082
00000330: 778b e42c 5aef 2281 dafe 7200 d0e7 f22c
00000340: 60e8 fa00 5e81 0027 fa3f dc80 e40a 2e01
00000350: 8872 3c80 4257 382c f7c3 df2d 562c d781
00000360: d6b0 3c22 80c9 6a01 5850 a781 d3a9 8c81
00000370: b432 7601 cc83 652a 578f 0e25 ebaa 0e0e
00000380: ffd3 f006 644e a201 d9e0 cb01 d09c 8412
00000390: aa86 3b0e 6efd 9d1b 1875 9a2b b95d 9c2c
000003a0: c829 5926 0ba5 7502 cbb9 ee80 c835 2e00
000003b0: 4ce7 1027 8218 2b19 1346 7c02 0d54 672d
000003c0: 72eb bc21 07cd 8f81 3c19 0519 54a6 8223
000003d0: 87a1 b381 a33f 6e1a 06d4 cf2c 63ce ab81
000003e0: 68c8 bf01 4666 8e26 7718 ba01 c986 0e2d
000003f0: cea5 8a80 f1bb 0123 1ce3 d201 caa5 ef00

input_projection.weight f4 [32, 5]
0.07908507 -0.36181787 -0.05878015 0.16846223 -0.122160465 -0.32329002 -0.23082583 -0.32666403
0.19614121 -0.53044367 0.37390742 -0.038121667 -0.09415701 -0.1653143 -0.08160083 -0.2823716
0.36292812 0.26827744 0.25486484 -0.28861699 0.39696518 0.16608925 0.18903497 -0.09119411
0.20269993 -0.03619355 0.057392675 0.32575256 -0.40010962 -0.1568368 0.2495662 -0.06859169
-0.26850453 0.041947793 -0.31505886 0.25182837 0.23959649 -0.23544076 -0.39805907 0.2200322
-0.11226279 0.03656158 0.24733296 -0.11961208 0.010175395 0.36940643 -0.10890387 -0.32347244
-0.09298498 -0.08110353 0.40650308 -0.17102326 0.2110042 -0.11335119 -0.034133635 0.34833995
-0.14561911 0.12401067 0.27755263 0.044534028 0.33236974 -0.08376603 0.2181614 0.07053235
0.24769314 0.055344786 0.36931115 -0.18668011 0.27039838 -0.38841033 -0.3388623 0.37540698
-0.18166181 -0.43129006 0.3273508 0.26205018 -0.09039085 0.43373471 0.14585268 -0.22022693
-0.27249256 -0.32151634 0.07664082 0.29126814 -0.32748538 -0.43763438 0.13177444 -0.15522434
0.0044371146 0.31464076 -0.014193576 0.082213484 0.23521087 0.085971855 0.28729182 -0.068182476
0.23252094 -0.14477406 -0.06875342 -0.0061227973 -0.32001385 -0.2871355 -0.32420126 -0.2240257
-0.46008173 0.30795646 -0.07202549 -0.17575946 0.32073992 0.37383452 -0.12693168 0.17649436
0.21061575 -0.16965501 -0.068914056 0.30277294 -0.42964935 -0.38947967 0.27569383 0.10056697
-0.050589856 -0.014338848 -0.026371822 0.21980466 0.15931384 0.1636347 -0.30494586 0.06410106
-0.11419716 0.04500559 -0.17927633 0.16388187 -0.14227258 0.042717867 -0.15843719 0.10198884
-0.3014541 0.06946552 0.14979059 0.23585367 -0.1944661 -0.24399556 0.36848038 -0.33546224
-0.46972233 -0.07969206 0.43572867 -0.08465654 0.3865979 -0.28521842 -0.4652891 0.26579672
0.274037 -0.12954703 0.41297057 -0.09549048 0.44611597 0.2832317 0.15234531 -0.24910551
00000000: 5af7 a13d 3140 b9be 74c3 70bd 5d81 2c3e
00000010: 442f fabd 4586 a5be 9b5d 6cbe 8240 a7be
00000020: 3ed9 483e 28cb 07bf cb70 bf3e 7725 1cbd
00000030: 64d5 c0bd 2748 29be 561e a7bd 0393 90be
00000040: b7d1 b93e a95b 893e a57d 823e 9bc5 93be
00000050: 053f cb3e 4d13 2a3e 6292 413e fac3 babd
00000060: 9290 4f3e b03f 14bd 9514 6b3d 0ac9 a63e
00000070: 2bdb ccbe d399 20be 488e 7f3e cd79 8cbd
00000080: 6d79 89be 73d1 2b3d 654f a1be a6ef 803e
00000090: c858 753e 6217 71be 66ce cbbe 1f50 613e
000000a0: 09ea e5bd 98c1 153d da44 7d3e 2ef7 f4bd
000000b0: b3b6 263c d722 bd3e fe08 dfbd 2e9e a5be
000000c0: e96e bebd 9c19 a6bd 2c21 d03e b920 2fbe
000000d0: 7c11 583e ab24 e8bd b6cf 0bbd 9d59 b23e
000000e0: 2d1d 15be 4ef9 fd3d 611b 8e3e 5069 363d
000000f0: 5e2c aa3e 868d abbd b465 5f3e 4473 903d
00000100: 45a3 7d3e 37b1 623d 5a16 bd3e 1229 3fbe
00000110: a871 8a3e b8dd c6be 5c7f adbe 5835 c03e
00000120: 8e05 3abe 0dd2 dcbe 869a a73e 712b 863e
00000130: d71e b9bd 7a12 de3e 685a 153e 2b83 61be
00000140: 2584 8bbe ca9d a4be ddf5 9c3d 1921 953e
00000150: 2aac a7be 9d11 e0be e1ef 063e 21f3 1ebe
00000160: 3765 913b 9818 a13e 2c8c 68bc 8b5f a83d
00000170: 1edb 703e 0312 b03d ea17 933e 41a3 8bbd
00000180: f819 6e3e a73f 14be 98ce 8cbd bfa1 c8bb
00000190: dbd8 a3be 6d03 93be b5fd a5be fe66 65be
000001a0: d58f ebbe 78ac 9d3e 1a82 93bd 4afa 33be
000001b0: 0638 a43e 3d67 bf3e 61fa 01be f0ba 343e
000001c0: a8ab 573e 0bba 2dbe d022 8dbd 0e05 9b3e
000001d0: 00fb dbbe e169 c7be be27 8d3e 0ef6 cd3d
000001e0: 4f37 4fbd 7ded 6abc b809 d8bc 7914 613e
000001f0: 2b23 233e db8f 273e dd21 9cbe 6b47 833d
00000200: 33e0 e9bd c857 383d 3794 37be a6d0 273e
00000210: e7af 11be eef8 2e3d 5c3d 22be 86df d03d
00000220: 3158 9abe f043 8e3d b462 193e a083 713e
00000230: 1f22 47be f9d9 79be 76a9 bc3e b5c1 abbe
00000240: 727f f0be 9735 a3bd d417 df3e 6860 adbd
00000250: 29f0 c53e 2608 92be 5f3a eebe 8216 883e
00000260: 944e 8c3e faa7 04be e170 d33e 8390 c3bd
00000270: 5069 e43e bf03 913e 6900 1c3e 8415 7fbe

input_projection.bias f4 [32]
-0.37858245 -0.16304334 0.13284312 0.27315694 -0.18205161 -0.07526537 -0.13897505 0.25892425
0.05440775 0.06084634 0.03318208 -0.059034854 -0.514804 -0.10207462 0.22338256 0.15440507
-0.07417237 0.279819 0.48364955 -0.015121881 0.2611652 0.09975791 0.08372789 0.28043503
-0.4494944 -0.25716674 -0.031403426 0.086019956 0.034875777 0.37385467 -0.4371073 0.23172285
00000000: 8fd5 c1be d5f4 26be 0708 083e 3adb 8b3e
00000010: bd6b 3abe bb24 9abd 7a4f 0ebe b891 843e
00000020: a9da 5e3d 033a 793d efe9 073d 88ce 71bd
00000030: 32ca 03bf 800c d1bd 66be 643e 5d1c 1e3e
00000040: afe7 97bd 7044 8f3e eaa0 f73e c4c1 77bc
00000050: 72b7 853e e04d cc3d 8779 ab3d 2e95 8f3e
00000060: 2124 e6be 5cab 83be e1a0 00bd 3b2b b03d
00000070: e7d9 0e3d e169 bf3e 87cc dfbe c148 6d3e

encoder_layer.self_attn.in_proj_weight f4 [96, 32]
-0.17145334 0.051161483 -0.20332207 -0.19121769 0.033732995 -0.07184966 -0.094249934 0.16612314
-0.20373048 -0.08330934 -0.086047605 -0.064732715 -0.043441683 -0.13848428 -0.06902893 -0.061292738
-0.025898114 0.16361226 -0.032812938 -0.14976206 0.07446952 0.12827499 -0.124659255 -0.06936081
-0.0730928 -0.16191056 -0.14305595 0.21356328 0.012929097 0.11761774 -0.20970911 0.18421854
0.0811076 0.07544474 0.17096002 0.21237026 0.13137536 -0.19359507 0.045023724 -0.15888774
0.108955815 0.18178268 0.19617991 -0.109017625 0.029317573 0.034533605 0.09405674 -0.059408724
0.14249022 0.21138291 -0.20092927 -0.084742695 0.14271168 0.08828111 0.07531454 -0.19933681
-0.07627083 -0.17261986 0.15089612 0.042966947 0.04744427 0.08296691 -0.050964817 0.12760307
-0.20174807 0.07649796 0.18407448 0.043135658 -0.037672296 -0.1607492 0.07249962 -0.098162614
0.07657613 -0.08231747 0.21622254 -0.16147828 -0.20617357 -0.11886235 -0.209852 -0.039249778
0.09990896 0.08139114 0.21447141 -0.12689123 -0.10249901 -0.18138231 -0.0546228 -0.017287537
0.024197832 -0.10369376 -0.19428183 0.05043517 0.09034146 -0.096754365 -0.062432796 -0.15360472
0.0011355728 0.0021605492 -0.17463544 -0.10701318 -0.029527381 -0.00067159534 -0.13351876 -0.15906194
0.03334877 0.049887165 -0.14290091 0.20803858 0.16510318 -0.0324976 -0.025400132 -0.021573856
-0.18474548 -0.1608046 -0.036814585 0.19302838 -0.081376046 0.04255934 -0.21586496 0.17616297
0.20168231 0.079046264 -0.16593252 -0.041168407 -0.13811825 -0.07551356 0.18620084 0.19320782
0.180488 0.15284793 0.055741265 -0.18390745 -0.1471668 0.18119593 -0.20185508 0.19575758
-0.10128356 0.06574787 0.16852362 -0.19746451 -0.15223235 -0.11051146 0.1551574 0.10876717
0.18475927 0.043139115 -0.05472341 -0.21390413 -0.093121745 -0.1279003 -0.1365139 0.13497032
0.0825686 -0.19509943 -0.09839606 0.028291076 0.14283915 -0.19369686 0.14277734 0.07163088
-0.04672371 0.18914546 -0.1441277 -0.106384926 -0.19553734 -0.015000239 0.16148604 0.15754457
-0.081521556 -0.019305706 -0.20799533 0.14652134 -0.10365197 0.07931577 -0.11107997 -0.036631346
0.11143236 0.17783 -0.20756741 -0.063057005 -0.008993268 -0.08839777 0.16025694 -0.11556245
-0.12578678 -0.0030041635 -0.072772086 -0.18813038 -0.010402024 0.011500642 -0.026642159 -0.17160983
0.0053893775 0.17964353 0.043394044 -0.09400418 -0.03784898 0.04532869 -0.0933123 -0.03374836
0.15899421 0.20494701 0.0033973604 -0.15867774 0.11058839 -0.06617752 -0.08079685 -0.0845509
-0.15534839 -0.009382069 0.18649589 0.14215483 0.037019774 0.005747482 0.11979349 0.026887923
0.015969485 0.07807554 -0.085584685 -0.03479728 -0.089233115 0.10695197 -0.18544662 -0.02308318
-0.19540778 0.20513494 -0.08984716 -0.12178301 -0.10411908 0.1468663 0.14313187 -0.13719907
-0.022525862 -0.16938293 -0.078486174 0.07235055 0.067372695 -0.035879686 -0.19286844 -0.21490744
0.085105106 -0.19669418 0.18712382 0.21575998 0.111493394 0.20694758 0.10468726 -0.08964285
-0.08958317 0.09358652 0.10101162 -0.072479635 -0.107395545 -0.07510808 -0.060485184 0.20420294
00000000: 7791 2fbe b48e 513d a933 50be 92ce 43be
00000010: 9c2b 0a3d ea25 93bd 1c06 c1bd 2f1c 2a3e
00000020: b99e 50be 169e aabd ba39 b0bd 9692 84bd
00000030: e8ef 31bd d3ce 0dbe 0a5f 8dbd 180e 7bbd
00000040: 4828 d4bc f989 273e dc66 06bd 3a5b 19be
00000050: 7a83 983d 855a 033e 5a4d ffbd 0a0d 8ebd
00000060: aeb1 95bd e2cb 25be 427d 12be 55b0 5a3e
00000070: 90d4 533c 92e1 f03d fcbd 56be c9a3 3c3e
00000080: be1b a63d c682 9a3d 2510 2f3e 9777 593e
00000090: 4387 063e c93d 46be cc6a 383d 78b3 22be
000000a0: 3a24 df3d 3d25 3a3e 63e3 483e a244 dfbd
000000b0: 682b f03c 1c73 0d3d d2a0 c03d 9056 73bd
000000c0: f5e8 113e c374 583e 67c0 4dbe 948d adbd
000000d0: 0323 123e bacc b43d 823e 9a3d f31e 4cbe
000000e0: e233 9cbd 43c3 30be 8384 1a3e 1cfe 2f3d
000000f0: ec54 423d 8eea a93d 7cc0 50bd 61aa 023e
00000100: 0c97 4ebe f6aa 9c3d 057e 3c3e 04af 303d
00000110: 444e 1abd 709b 24be ae7a 943d 7b09 c9bd
00000120: f2d3 9c3d 1096 a8bd 7169 5d3e 905a 25be
00000130: 2a1f 53be 1b6e f3bd 71e3 56be 60c4 20bd
00000140: 129d cc3d 66b0 a63d 659e 5b3e c6ef 01be
00000150: 00eb d1bd 49bc 39be 28bc 5fbd 989e 8dbc
00000160: 883a c63c 655d d4bd d1f1 46be 1c95 4e3d
00000170: f204 b93d 2727 c6bd 88b9 7fbd 8e4a 1dbe
00000180: 80d7 943a 0098 0d3b a2d3 32be ba29 dbbd
00000190: 68e3 f1bc 000e 30ba 24b9 08be 22e1 22be
000001a0: b898 083d 7c56 4c3d 9e54 12be 1108 553e
000001b0: cf10 293e 341c 05bd f013 d0bc a8bb b0bc
000001c0: eb2d 3dbe f6a9 24be e4ca 16bd 3ba9 453e
000001d0: 7ca8 a6bd b452 2e3d b40b 5dbe 1164 343e
000001e0: cf85 4e3e 02e3 a13d 37ea 29be 34a0 28bd
000001f0: df6e 0dbe daa6 9abd 6fab 3e3e 45d8 453e
00000200: d9d1 383e 2b84 1c3e f450 643d 3c52 3cbe
00000210: e5b2 16be 6d8b 393e 19b3 4ebe ad74 483e
00000220: c16d cfbd d2a6 863d 7591 2c3e 2334 4abe
00000230: cce2 1bbe d553 e2bd 95e1 1e3e 52c1 de3d
00000240: 8931 3d3e a4b2 303d a825 60bd af09 5bbe
00000250: 9db6 bebd 4cf8 02be 4dca 0bbe a935 0a3e
00000260: ba19 a93d 25c8 47be e083 c9bd b0c2 e73c
00000270: 6d44 123e 7858 46be 3934 123e 36b3 923d
00000280: 5c61 3fbd 59af 413e 3696 13be 57e0 d9bd
00000290: f13a 48be 90c3 75bc 995c 253e 5d53 213e
000002a0: c6f4 a6bd 0027 9ebc bafc 54be b109 163e
000002b0: 7c47 d4bd 4e70 a23d e57d e3bd c00a 16bd
000002c0: a636 e43d 1119 363e 8d8c 54be 0824 81bd
000002d0: 8058 13bc e409 b5bd 651a 243e 01ac ecbd
000002e0: 40ce 00be 80e1 44bb 8809 95bd 40a5 40be
000002f0: 406d 2abc 306d 3c3c a840 dabc 7dba 2fbe
00000300: 6099 b03b 79f4 373e f4bd 313d 4385 c0bd
00000310: 8807 1bbd 94aa 393d 851a bfbd b83b 0abd
00000320: 61cf 223e a1dd 513e 40a6 5e3b 6b7c 22be
00000330: 2a7c e23d 1488 87bd d278 a5bd 0629 adbd
00000340: a613 1fbe 40b7 19bc c7f8 3e3e 0991 113e
00000350: 0ca2 173d 6055 bc3b 4a56 f53d 1044 dc3c
00000360: 70d2 823c 12e6 9f3d 0647 afbd 9887 0ebd
00000370: dabf b6bd a209 db3d b8e5 3dbe f018 bdbc
00000380: fa18 48be e50e 523e ca01 b8bd 5f69 f9bd
00000390: 623c d5bd 1f64 163e 2991 123e ea7d 0cbe
000003a0: 2888 b8bc b872 2dbe 5cbd a0bd 862c 943d
000003b0: b2fa 893d 94f6 12bd 4e7f 45be b210 5cbe
000003c0: 964b ae3d 336a 49be 639d 3f3e 2ff0 5c3e
000003d0: a656 e43d 11ea 533e 4666 d63d ac96 b7bd
000003e0: 6277 b7bd 4aaa bf3d 2edf ce3d 3470 94bd
000003f0: 32f2 dbbd 44d2 99bd 50bf 77bd 931a 513e

encoder_layer.self_attn.in_proj_bias f4 [96]
0.0 0.0 0.0 0.0 0.0 0.0 0.0 0.0
0.0 0.0 0.0 0.0 0.0 0.0 0.0 0.0
0.0 0.0 0.0 0.0 0.0 0.0 0.0 0.0
0.0 0.0 0.0 0.0 0.0 0.0 0.0 0.0
0.0 0.0 0.0 0.0 0.0 0.0 0.0 0.0
0.0 0.0 0.0 0.0 0.0 0.0 0.0 0.0
0.0 0.0 0.0 0.0 0.0 0.0 0.0 0.0
0.0 0.0 0.0 0.0 0.0 0.0 0.0 0.0
0.0 0.0 0.0 0.0 0.0 0.0 0.0 0.0
0.0 0.0 0.0 0.0 0.0 0.0 0.0 0.0
0.0 0.0 0.0 0.0 0.0 0.0 0.0 0.0
0.0 0.0 0.0 0.0 0.0 0.0 0.0 0.0
00000000: 0000 0000 0000 0000 0000 0000 0000 0000
00000010: 0000 0000 0000 0000 0000 0000 0000 0000
00000020: 0000 0000 0000 0000 0000 0000 0000 0000
00000030: 0000 0000 0000 0000 0000 0000 0000 0000
00000040: 0000 0000 0000 0000 0000 0000 0000 0000
00000050: 0000 0000 0000 0000 0000 0000 0000 0000
00000060: 0000 0000 0000 0000 0000 0000 0000 0000
00000070: 0000 0000 0000 0000 0000 0000 0000 0000
00000080: 0000 0000 0000 0000 0000 0000 0000 0000
00000090: 0000 0000 0000 0000 0000 0000 0000 0000
000000a0: 0000 0000 0000 0000 0000 0000 0000 0000
000000b0: 0000 0000 0000 0000 0000 0000 0000 0000
000000c0: 0000 0000 0000 0000 0000 0000 0000 0000
000000d0: 0000 0000 0000 0000 0000 0000 0000 0000
000000e0: 0000 0000 0000 0000 0000 0000 0000 0000
000000f0: 0000 0000 0000 0000 0000 0000 0000 0000
00000100: 0000 0000 0000 0000 0000 0000 0000 0000
00000110: 0000 0000 0000 0000 0000 0000 0000 0000
00000120: 0000 0000 0000 0000 0000 0000 0000 0000
00000130: 0000 0000 0000 0000 0000 0000 0000 0000
00000140: 0000 0000 0000 0000 0000 0000 0000 0000
00000150: 0000 0000 0000 0000 0000 0000 0000 0000
00000160: 0000 0000 0000 0000 0000 0000 0000 0000
00000170: 0000 0000 0000 0000 0000 0000 0000 0000

encoder_layer.self_attn.out_proj.weight f4 [32, 32]
0.008591488 0.11203708 -0.10120379 -0.08935094 0.13996921 -0.036517084 0.050275013 0.07279821
0.03504552 -0.13894926 -0.067705795 -0.16417289 -0.011081502 0.16419135 -0.1248083 0.06801681
0.095587745 -0.064950526 -0.13624658 -0.04794936 -0.108218014 0.16623767 -0.17173836 0.05850151
0.081517115 -0.10389383 0.016809389 -0.053563923 0.0803905 0.1176603 0.025863498 -0.06911375
0.052569762 -0.08257455 -0.124578476 -0.11648828 0.08418743 -0.09656049 0.09702243 0.03463444
0.03232619 0.023676455 -0.04741855 0.12088452 0.17461108 -0.16321774 0.0018116385 0.06533353
0.04424408 -0.15264294 0.14626352 0.06410658 -0.09756578 -0.115958475 -0.014243513 0.033301383
-0.15733376 -0.062073052 -0.17479457 -0.016643852 -0.059712708 -0.06151113 0.008473203 -0.09714986
0.07991199 -0.021623835 -0.039134026 0.05479029 -0.14996523 -0.06423776 0.12607767 -0.17235509
-0.17139445 0.017952949 -0.14609481 -0.013366729 -0.041111454 0.14640518 -0.004969552 -0.16423187
0.08716796 0.14548893 -0.13355091 -0.14754117 0.14161004 0.17150398 -0.013023645 0.09305371
0.14120094 -0.036483973 0.011589497 -0.106554836 -0.056349367 -0.14450812 -0.118544035 -0.16521814
0.04232943 -0.05953493 0.040580586 -0.12157195 -0.16070229 0.060629547 0.12606381 -0.0059900433
0.034654737 -0.15042824 -0.109875545 -0.16212916 -0.03345692 -0.14652835 0.009883389 0.116913304
0.025671557 0.030275807 -0.04313694 0.008226752 0.08453934 0.013804153 -0.109550886 0.06817815
0.10164903 0.022761568 -0.12547985 -0.15041639 0.14646943 -0.08263812 0.15349938 0.07553621
0.05657348 -0.12928414 0.14816032 0.0029878914 -0.04504177 0.14753918 0.06054157 -0.15066381
0.060549468 -0.14226778 0.094544664 0.040512443 -0.13184237 0.15087269 -0.121141 0.12988956
-0.09343438 0.018999785 -0.116251454 -0.15741293 -0.11255432 -0.13651918 -0.10942089 -0.015270576
0.015321046 -0.009676427 -0.03076905 0.13848685 0.00569281 -0.058567367 -0.12873985 0.07782842
-0.024020731 0.044735312 -0.05538079 -0.053047076 -0.024713472 0.07057437 -0.029928103 0.072959855
-0.043945923 -0.03181678 -0.06188748 0.0028076917 -0.024361998 0.17291887 0.14475258 0.005769402
-0.0859775 -0.09313343 -0.16478351 -0.03713979 -0.015593097 -0.16377698 0.042085633 0.009291068
-0.13545263 0.16126658 -0.052587382 -0.118322074 -0.1270859 0.13625817 -0.055235907 -0.012779161
-0.019024536 0.09200357 -0.00042067468 -0.07362614 0.1212288 -0.15524426 -0.048248053 0.16965513
0.06790361 0.11410995 -0.027283937 -0.07343757 -0.16967358 -0.08052661 -0.16386311 -0.084720686
-0.12875813 -0.08743539 -0.08874227 0.02783838 0.116076574 0.0043398887 0.15056987 -0.156369
-0.13591878 -0.05953259 0.15221737 -0.1479288 -0.06603956 0.11101623 0.07321462 0.10743718
-0.026553392 -0.16677283 0.07875453 0.17138068 0.09497212 -0.003396526 -0.04732664 -0.07437136
-0.06970537 -0.09061515 -0.15718302 0.10162993 0.08172302 0.0009834319 -0.07310636 0.11757557
0.08334719 0.032780856 -0.083572395 0.1309955 0.017756954 0.15983473 0.12750374 0.10824858
0.008350253 -0.048533738 -0.061860807 -0.06409933 -0.09148536 0.1636477 0.08903487 -0.1329265
00000000: 50c3 0c3c b273 e53d ef43 cfbd a0fd b6bd
00000010: 1754 0f3e f092 15bd 2ced 4d3d 3a17 953d
00000020: e48b 0f3d b748 0ebe 56a9 8abd f01c 28be
00000030: 308f 35bc c721 283e 7e9b ffbd 664c 8b3d
00000040: 82c3 c33d c804 85bd 3984 0bbe 8c66 44bd
00000050: 68a1 ddbd 353a 2a3e 2edc 2fbe 489f 6f3d
00000060: 72f2 a63d 4ac6 d4bd d8b3 893c d865 5bbd
00000070: c6a3 a43d e2f7 f03d b0df d33c 828b 8dbd
00000080: 6453 573d d81c a9bd 0023 ffbd 6891 eebd
00000090: 766a ac3d 82c1 c5bd b2b3 c63d d8dc 0d3d
000000a0: 7868 043d 20f5 c13c f439 42bd 4e92 f73d
000000b0: 3fcd 323e 8d22 27be 8074 ed3a 96cd 853d
000000c0: 4839 353d 6e4e 1cbe 1bc6 153e 504a 833d
000000d0: 91d0 c7bd a37b edbd a05d 69bc 0867 083d
000000e0: 1a1c 21be 5040 7ebd 59fd 32be b058 88bc
000000f0: 5095 74bd 18f3 7bbd 30d3 0a3c 81f6 c6bd
00000100: e6a8 a33d 7824 b1bc 004b 20bd c86b 603d
00000110: 7c90 19be 168f 83bd 811a 013e da7d 30be
00000120: 0782 2fbe 1012 933c e199 15be 2000 5bbc
00000130: 7c64 28bd 3deb 153e a0d7 a2bb 662c 28be
00000140: 1e85 b23d 0dfb 143e 92c1 08be 0815 17be
00000150: 3902 113e bd9e 2f3e 2061 55bc f292 be3d
00000160: fb96 103e 3870 15bd e0e1 3d3c 6c39 dabd
00000170: 98ce 66bd f0f9 13be 37c7 f2bd f22e 29be
00000180: a061 2d3d e6da 73bd d437 263d b7fa f8bd
00000190: 248f 24be b056 783d df16 013e 2048 c4bb
000001a0: 20f2 0d3d dc09 1abe 6e06 e1bd 3005 26be
000001b0: 200a 09bd 870b 16be f0ed 213c 3e70 ef3d
000001c0: 284d d23c f804 f83c 5cb0 30bd 80c9 063c
000001d0: f622 ad3d d02a 623c 375c e0bd fca0 8b3d
000001e0: 5e2d d03d 7876 ba3c ca7d 00be c106 1abe
000001f0: 15fc 153e 2d3e a9bd f12e 1d3e bab2 9a3d
00000200: 98b9 673d 1063 04be 57b7 173e 80d0 433b
00000210: b87d 38bd 8314 173e 70fa 773d 9d47 1abe
00000220: b802 783d a5ae 11be a2a0 c13d 60f0 253d
00000230: b001 07be 5f7e 1a3e c618 f8bd c501 053e
00000240: 865a bfbd 70a5 9b3c 3e15 eebd db30 21be
00000250: e182 e6bd afcb 0bbe 0f18 e0bd 7031 7abc
00000260: 2005 7b3c e089 1ebc 600f fcbc 7fcf 0d3e
00000270: c08a ba3b 56e4 6fbd 61d4 03be 8264 9f3d
00000280: 20c7 c4bc 603c 373d f8d6 62bd e447 59bd
00000290: e873 cabc 4c89 903d c82b f5bc fa6b 953d
000002a0: a400 34bd 5052 02bd ba7d 7dbd 4001 383b
000002b0: d092 c7bc a511 313e 053a 143e 400d bd3b
000002c0: f914 b0bd bdbc bebd 02bd 28be e41f 18bd
000002d0: 307a 7fbc 27b5 27be fc61 2c3d 9039 183c
000002e0: 18b4 0abe 1123 253e de65 57bd d852 f2bd
000002f0: ce22 02be 4387 0b3e 0c3f 62bd b05f 51bc
00000300: 58d9 9bbc 5e6c bc3d 008e dcb9 4dc9 96bd
00000310: ce46 f83d 5af8 1ebe c09f 45bd 13ba 2d3e
00000320: 0c11 8b3d 7ab2 e93d 9082 dfbc 7066 96bd
00000330: e9be 2dbe 23eb a4bd bbcb 27be 0a82 adbd
00000340: 2cd9 03be 5311 b3bd 82be b5bd 500d e43c
00000350: 8eb9 ed3d a035 8e3b fd2e 1a3e 321f 20be
00000360: 4b2e 0bbe 72d8 73bd dfde 1b3e a67a 17be
00000370: c03f 87bd 7a5c e33d 8cf1 953d 0608 dc3d
00000380: 8086 d9bc 7fc6 2abe 0e4a a13d 6b7e 2f3e
00000390: be80 c23d 4098 5ebb 94d9 41bd 0350 98bd
000003a0: b0c1 8ebd 7094 b9bd 96f4 20be 5a23 d03d
000003b0: 665e a73d 80e6 803a cab8 95bd 76cb f03d
000003c0: eeb1 aa3d 3845 063d 0128 abbd af23 063e
000003d0: 0877 913c b7ab 233e 5790 023e 6eb1 dd3d
000003e0: 80cf 083c 50cb 46bd c261 7dbd 8246 83bd
000003f0: ad5c bbbd 4393 273e ea57 b63d e21d 08be

encoder_layer.self_attn.out_proj.bias f4 [32]
0.0 0.0 0.0 0.0 0.0 0.0 0.0 0.0
0.0 0.0 0.0 0.0 0.0 0.0 0.0 0.0
0.0 0.0 0.0 0.0 0.0 0.0 0.0 0.0
0.0 0.0 0.0 0.0 0.0 0.0 0.0 0.0
00000000: 0000 0000 0000 0000 0000 0000 0000 0000
00000010: 0000 0000 0000 0000 0000 0000 0000 0000
00000020: 0000 0000 0000 0000 0000 0000 0000 0000
00000030: 0000 0000 0000 0000 0000 0000 0000 0000
00000040: 0000 0000 0000 0000 0000 0000 0000 0000
00000050: 0000 0000 0000 0000 0000 0000 0000 0000
00000060: 0000 0000 0000 0000 0000 0000 0000 0000
00000070: 0000 0000 0000 0000 0000 0000 0000 0000

encoder_layer.linear1.weight f4 [128, 32]
-0.042559862 0.064285055 0.17310531 -0.12936163 -0.13520445 -0.16757455 0.118768916 0.12026705
-0.02095446 0.17512925 0.004341468 0.16781624 -0.10898087 -0.14253524 -0.04248686 -0.035130918
0.15748377 0.11293788 0.15851746 -0.098046005 -0.17045557 0.03652188 0.09192149 -0.14630572
0.013417706 -0.08875798 0.12075408 -0.03462401 -0.0860587 -0.099982604 0.021071732 0.03903161
0.028045654 0.10436927 -0.17468897 -0.12180351 -0.010106415 0.15337987 -0.16096073 0.12949748
0.14898343 -0.014211744 0.17241459 -0.05783759 0.15871193 -0.12190278 0.15671493 -0.09233951
0.030912831 -0.018652767 0.0016781539 -0.16342701 -0.14312038 -0.11307521 -0.054428816 0.06915198
-0.15676887 0.10276647 -0.0053621083 0.017258286 0.16727759 -0.16959018 0.0073327124 0.0373981
-0.091098495 -0.13195655 0.015239477 0.09829365 0.027126864 0.008755937 -0.018482357 0.06770815
0.09969263 0.1354238 -0.033712447 -0.13963796 -0.013013661 -0.15248623 -0.041330636 0.14758448
0.039354175 -0.06770236 0.05579965 -0.11412995 0.06930329 0.09307711 0.061198443 0.08712734
0.1651739 0.12110366 0.077323005 -0.081365526 0.019439027 -0.10332099 0.023118362 -0.06136851
-0.06707909 0.01572992 0.16035943 -0.05428105 -0.1011557 0.006296277 -0.01702848 -0.12943476
0.10502912 -0.10115745 -0.12729242 0.14247333 -0.17582522 -0.14010908 -0.026649684 -0.11707652
-0.070000604 -0.116855 -0.15153413 -0.029495507 -0.025669172 -0.12556243 -0.0041989684 7.726252e-05
0.024266511 0.003930047 -0.055603832 0.04178503 -0.15833732 -0.05106309 0.15701817 0.15788807
-0.16186306 0.123335555 -0.14374882 -0.057821468 -0.14352933 -0.051624656 0.14284126 0.1268035
-0.11807752 -0.044997722 0.09428714 0.12914456 -0.11648202 0.090422854 -0.13165703 -0.08202318
0.051070556 0.0129778385 -0.14010471 0.13632031 0.12024535 -0.09124078 0.15895306 0.06556663
0.02258946 0.035878703 -0.059405707 0.0783733 -0.11735198 -0.03313023 0.074542895 -0.12320818
-0.013692796 -0.12396258 0.018813908 -0.041258693 -0.15903424 0.15514986 0.1169038 0.11060126
-0.011316448 0.17273723 0.13180394 0.031148076 -0.17337146 -0.15796614 0.14373465 -0.072822064
-0.12782808 -0.019255012 0.06797314 -0.16323698 -0.12193243 -0.0884008 0.012139887 -0.09480246
-0.14287174 -0.069417946 0.00583905 -0.1629488 0.009627461 -0.1407495 0.15910406 0.0715553
0.16493247 0.11793713 -0.031923816 -0.15350935 0.07903628 -0.06721356 -0.17246091 -0.061278567
-0.16356735 -0.03954594 0.17224632 -0.14700691 -0.024617895 0.15706466 -0.14006019 0.17562805
0.09199916 -0.032804623 -0.1065675 -0.16664927 0.023092821 0.14130296 -0.16938943 -0.051489934
0.085433945 -0.16262555 -0.1595125 0.1617405 -0.009055525 -0.14961585 -0.043541 0.018143982
-0.017920822 -0.019357696 0.0496635 -0.12359677 0.055759177 0.0040579885 0.065336555 -0.16880639
-0.10858695 0.07780807 -0.14178807 0.10969435 -0.00063212216 -0.049157068 -0.018569767 -0.022324339
-0.02443318 -0.058519863 0.051873386 -0.056631304 0.107193545 -0.057476856 0.16787176 0.028523475
-0.09867395 -0.063932195 -0.16925974 0.1417018 -0.028608292 -0.17637655 -0.008047074 0.12158178
00000000: 4053 2ebd e2a7 833d 8542 313e 6077 04be
00000010: 0973 0abe aa98 2bbe 1e3d f33d 924e f63d
00000020: b0a8 abbc 1555 333e e042 8e3b 05d8 2b3e
00000030: 5d31 dfbd c2f4 11be b406 2ebd 70e5 0fbd
00000040: 6d43 213e fa4b e73d 6752 223e 58cc c8bd
00000050: e88b 2ebe f897 153d 5641 bc3d 2bd1 15be
00000060: f0d5 5b3c bec6 b5bd ea4d f73d e8d1 0dbd
00000070: 8b3f b0bd aec3 ccbd a09e ac3c 9cdf 1f3d
00000080: 00c0 e53c 8ebf d53d aae1 32be 1e74 f9bd
00000090: 6095 25bc 9d0f 1d3e e4d2 24be fd9a 043e
000000a0: 1d8f 183e 60d8 68bc 738d 303e 1ce7 6cbd
000000b0: 6185 223e 2aa8 f9bd e179 203e 7f1c bdbd
000000c0: e83c fd3c b0cd 98bc 80f5 db3a 6959 27be
000000d0: 268e 12be fa93 e7bd c0f0 5ebd 8e9f 8d3d
000000e0: 0588 20be 3a77 d23d a0b4 afbb 4061 8d3c
000000f0: d14a 2b3e 0ca9 2dbe 4047 f03b c02e 193d
00000100: d991 babd 9e1f 07be 00af 793c 2e4e c93d
00000110: 2839 de3c 1075 0f3c 5068 97bc 92aa 8a3d
00000120: a62b cc3d 89ac 0a3e 1016 0abd 41fd 0ebe
00000130: 4037 55bc 5a25 1cbe 504a 29bd 6320 173e
00000140: d831 213d 89a7 8abd 2c8e 643d f7bc e9bd
00000150: e2ee 8d3d 369f be3d 38ab 7a3d d26f b23d
00000160: 5923 293e 3205 f83d 865b 9e3d f8a2 a6bd
00000170: 983e 9f3c f599 d3bd b862 bd3c 8c5d 7bbd
00000180: c360 89bd 08dc 803c 4335 243e ce55 5ebd
00000190: b82a cfbd 0051 ce3b 507f 8bbc 8c8a 04be
000001a0: 8219 d73d a32b cfbd f258 02be 87e4 113e
000001b0: 870b 34be c178 0fbe 7050 dabc d1c5 efbd
000001c0: 7a5c 8fbd ad51 efbd c32b 1bbe 90a0 f1bc
000001d0: 2848 d2bc 7093 00be 8097 89bb 0008 a238
000001e0: 90ca c63c a0c7 803b d8c0 63bd c826 2b3d
000001f0: 2e23 22be 8827 51bd 5fc9 203e 69ad 213e
00000200: 6ebf 25be 5a97 fc3d e432 13be 34d6 6cbd
00000210: 5af9 12be 6074 53bd fb44 123e c7d8 013e
00000220: a0d2 f1bd 884f 38bd 9e19 c13d 793e 043e
00000230: 208e eebd 9e2f b93d 1ad1 06be c5fb a7bd
00000240: 5c2f 513d 00a1 543c 9c77 0fbe 8d97 0b3e
00000250: 3243 f63d 72dc babd 97c4 223e cc47 863d
00000260: 880d b93c 8cf5 123d 6653 73bd 2e82 a03d
00000270: 3c56 f0bd 90b3 07bd f2a9 983d 9254 fcbd
00000280: c057 60bc 18e0 fdbd a01f 9a3c e0fe 28bd
00000290: dfd9 22be 9bdf 1e3e 426b ef3d ea82 e23d
000002a0: a068 39bc 07e2 303e 9df7 063e 402a ff3c
000002b0: 4a88 31be e0c1 21be 2d2f 133e bc23 95bd
000002c0: 5de5 02be b0bc 9dbc 8035 8b3d 9827 27be
000002d0: b6b7 f9bd 7b0b b5bd 60e6 463c cb27 c2bd
000002e0: f84c 12be ff2a 8ebd 8055 bf3b 0ddc 26be
000002f0: 80bc 1d3c a320 10be 2dec 223e 968b 923d
00000300: 0fe4 283e 0689 f13d 8cc2 02bd 8e31 1dbe
00000310: c6dd a13d 43a7 89bd 9899 30be 3cff 7abd
00000320: 337e 27be ecfa 21bd 5761 303e fb88 16be
00000330: 78ab c9bc 8fd5 203e f06b 0fbe d7d7 333e
00000340: 0e6a bc3d 245e 06bd 1040 dabd 1ba6 2abe
00000350: 282d bd3c b9b1 103e 6c74 2dbe 1ce7 52bd
00000360: fef7 ae3d 5087 26be 3f57 23be 4d9f 253e
00000370: a05d 14bc e634 19be 0c58 32bd b0a2 943c
00000380: b0ce 92bc 0894 9ebc f46b 4b3d 4e20 fdbd
00000390: bc63 643d e0f8 843b 2ccf 853d 95db 2cbe
000003a0: d662 debd d659 9f3d e430 11be 6ea7 e03d
000003b0: 00b5 25ba ec58 49bd a01f 98bc 88e1 b6bc
000003c0: 1828 c8bc 86b2 6fbd 3079 543d 3af6 67bd
000003d0: 4a88 db3d da6c 6bbd 93e6 2b3e 10aa e93c
000003e0: 9115 cabd e2ee 82bd 6d52 2dbe 471a 113e
000003f0: f05b eabc 0e9c 34be e0d7 03bc deff f83d

encoder_layer.linear1.bias f4 [128]
-0.03709513 -0.1217916 -0.03548582 -0.15399392 -0.007786885 -0.16618648 -0.079004094 -0.1294775
-0.1400277 -0.13389435 -0.17175387 0.10684927 0.099203214 -0.17151132 0.17164384 -0.15146992
-0.16844997 0.13327037 -0.012021735 0.1345826 -0.0051762164 -0.0078909695 0.09454097 0.05672306
-0.05447396 -0.042049155 -0.09661941 0.09325625 0.022298366 0.087196395 0.163631 -0.026622072
0.049026504 0.07716264 -0.15679596 0.1392564 -0.17016515 -0.16370395 0.15996473 0.110790506
-0.049271837 -0.05686775 0.09311624 -0.17296721 0.1662689 0.02396211 -0.06960434 -0.13699476
0.1084397 0.035923615 0.09250806 0.17284586 -0.16553204 -0.042420447 0.13164236 0.043208927
0.10526492 0.016708195 -0.016199484 0.13296424 -0.16037339 -0.019313857 -0.10772734 -0.14814387
0.07598977 -0.10829974 0.0022274852 0.08359514 0.16549705 0.03706482 -0.14320803 0.047172755
-0.052481867 -0.16060263 0.023070067 0.14989738 0.04848881 -0.021835119 0.14557977 -0.024751902
0.13415505 0.14895855 0.05230719 0.13903041 -0.11879978 0.00980483 -0.04919161 -0.1348742
-0.15728264 -0.037983432 0.1013134 0.16643836 0.14070068 0.1445735 0.1169471 0.043651402
-0.095784426 0.06412843 -0.064715095 -0.06930925 0.16944583 -0.009021029 -0.12989321 -0.03702128
0.116465405 -0.088695996 0.048407882 0.16403799 -0.11316231 -0.13432807 0.13539608 -0.037626132
-0.025427744 -0.05390603 0.023476884 -0.17503569 -0.08611265 -0.15232879 -0.021217734 0.12790833
-0.12680689 0.1029024 0.0360298 0.100153014 0.060871243 -0.10479793 -0.13560931 0.14126702
00000000: 10f1 17bd e06d f9bd 9459 11bd 95b0 1dbe
00000010: 2029 ffbb ca2c 2abe e6cc a1bd c095 04be
00000020: 6c63 0fbe 9a1b 09be 3fe0 2fbe cad3 da3d
00000030: 0e2b cb3d aaa0 2fbe 67c3 2f3e ee1a 1bbe
00000040: 267e 2cbe 0778 083e d0f6 44bc 05d0 093e
00000050: 409d a9bb 2049 01bc b29e c13d 7056 683d
00000060: 1620 5fbd bc3b 2cbd 66e0 c5bd 22fd be3d
00000070: 10ab b63c 0694 b23d e38e 273e 8816 dabc
00000080: 04d0 483d 7207 9e3d 1f8f 20be 3b99 0e3e
00000090: c63f 2ebe 02a2 27be cbcd 233e 22e6 e23d
000000a0: 44d1 49bd 28ee 68bd bab3 be3d 511e 31be
000000b0: 6542 2a3e 304c c43c b88c 8ebd 5b48 0cbe
000000c0: a215 de3d a424 133d de74 bd3d 81fe 303e
000000d0: 3b81 29be 10c1 2dbd 41cd 063e d8fb 303d
000000e0: 2295 d73d a0df 883c c8b4 84bc c727 083e
000000f0: ec38 24be 1838 9ebc 27a0 dcbd 07b3 17be
00000100: 86a0 9b3d 41cc ddbd 00fb 113b ee33 ab3d
00000110: 0f78 293e 48d1 173d 20a5 12be 3838 413d
00000120: 3af7 56bd 0475 24be 70fd bc3c b37e 193e
00000130: 349c 463d 90df b2bc dd12 153e 80c4 cabc
00000140: f15f 093e 9788 183e 1040 563d fd5d 0e3e
00000150: 4d4d f3bd 70a4 203c 247d 49bd 761c 0abe
00000160: b30e 21be 8494 1bbd 667d cf3d d16e 2a3e
00000170: d713 103e 130b 143e f681 ef3d d0cb 323d
00000180: a02a c4bd c455 833d 5989 84bd 02f2 8dbd
00000190: 3583 2d3e f0cc 13bc ba02 05be a0a3 17bd
000001a0: 6a85 ee3d 3fa6 b5bd 5847 463d 93f9 273e
000001b0: a4c1 e7bd 4c8d 09be 45a5 0a3e dc1d 1abd
000001c0: d84d d0bc 92cc 5cbd 9852 c03c 8e3c 33be
000001d0: d45b b0bd 14fc 1bbe d0d0 adbc 67fa 023e
000001e0: aad9 01be 7ebe d23d fc93 133d 061d cd3d
000001f0: 2054 793d 4ca0 d6bd 2bdd 0abe 4da8 103e

encoder_layer.linear2.weight f4 [32, 128]
0.008328415 0.034925796 -0.07492695 0.08312874 0.04648041 -0.033077814 -0.066019826 -0.07269348
0.02320186 -0.075292744 -0.03209061 -0.033968925 0.046272032 -0.02458229 -0.061191406 -0.040110722
0.08809882 0.00051198155 0.07480585 -0.078049906 -0.081573874 0.08008776 0.024599798 0.038128562
0.08421377 0.028979748 -0.053901054 0.05876776 -0.043018803 0.024676718 -0.08230243 0.015642308
-0.0794257 0.025847636 -0.07455436 0.047256075 -0.058919758 0.0092043355 0.006521985 0.051758803
-0.06321804 -0.06661639 0.039704956 -0.083014235 -0.0795957 -0.014763407 0.07608955 0.062610544
-0.036169056 0.07357357 0.03934238 -0.018865727 -0.015890807 0.063239686 -0.04807983 0.013049968
0.07762111 -0.06978613 0.018465616 0.0003604293 -0.053386178 0.00939209 0.016574815 0.029077113
-0.064531446 -0.026004322 -0.054345496 -0.069461934 -0.064884745 -0.060441803 0.055636995 -0.043956906
0.07453502 0.022688724 0.03783504 -0.035225756 -0.015730806 0.029855743 -0.012774587 0.0792839
0.0817936 0.051398553 -0.02405215 0.069648646 -0.03585402 0.03113985 -0.047749534 -0.058986083
0.060188554 0.041324057 0.030234486 0.08475306 -0.073805675 0.0034267828 -0.061846085 -0.060338598
-0.043934684 0.060047172 -0.022438705 -0.070343815 -0.02897619 -0.055805188 -0.080488734 -0.06354272
-0.06800727 -0.056215666 -0.07659069 0.027403437 -0.07606784 0.009618804 0.06673775 -0.06975156
-0.0485128 -0.008541577 0.08312427 -0.008276239 -0.056811906 0.044706352 -0.058385827 0.004377067
0.007010199 0.024285719 -0.03605662 0.03748297 0.08727128 -0.041848354 0.0692847 -0.059301898
0.067315094 -0.017598413 -0.027417 -0.018907718 0.0680651 -0.05190532 -0.05676387 0.08122536
-0.011582673 0.010933042 0.041125216 -0.010550156 -0.08682708 -0.030581709 0.06925637 -0.074246615
0.029872097 0.049431555 -0.062170163 -0.04283832 -0.06712663 -0.006625399 0.0707963 0.024382278
-0.036678556 -0.03505739 0.02713801 0.021567002 0.020094626 0.07920135 0.05293653 0.08309614
-0.08225697 -0.012896366 0.014416657 -0.03818127 -0.039511383 0.043267347 0.018411607 0.04087148
-0.025105305 -0.049116746 0.007953577 0.05353906 -0.0601255 -0.058114823 0.061411463 -0.06437589
0.016658686 0.0025103316 -0.08549033 -0.009367451 0.07559692 -0.021765254 -0.06095333 -0.010694332
-0.05876303 -0.031737756 0.06684863 0.04384897 0.06763966 -0.073818445 -0.043643482 -0.084700994
0.045132346 -0.07815146 0.04641456 0.087721504 -0.08137849 0.036333673 0.020170502 -0.054720044
0.069548 0.032292865 0.04800635 0.07320813 -0.02385702 -0.0245829 -0.061879117 -0.051293314
-0.043814536 0.08229587 0.037788905 0.054579027 -0.073786095 -0.03369614 -0.0234076 0.071296446
-0.070943765 -0.032426596 0.03683617 0.08178436 -0.005095564 -0.021307118 -0.06995207 -0.009884298
0.034368798 0.05215966 -0.084727764 0.02957695 0.0038651153 -0.03869147 -0.025749616 0.0035117418
0.036765404 0.00041621923 -0.0318819 -0.030119538 -0.012490116 -0.03501816 -0.035519898 -0.007177621
0.05073016 -0.07779428 -0.057845622 -0.055410355 -0.05882977 -0.0014228672 -0.07227108 0.010936707
-0.019106366 0.005288042 -0.06829214 0.03547988 -0.0604442 0.05410064 -0.06540553 0.04146578
00000000: e873 083c 5a0e 0f3d 4d73 99bd 673f aa3d
00000010: 3e62 3e3d 9a7c 07bd 6735 87bd 52e0 94bd
00000020: d411 be3c 1533 9abd 7271 03bd 0023 0bbd
00000030: be87 3d3d cc60 c9bc d7a3 7abd 244b 24bd
00000040: 276d b43d 8036 063a cf33 993d a1d8 9fbd
00000050: 3410 a7bd 0d05 a43d 8485 c93c b22c 1c3d
00000060: 4578 ac3d f066 ed3c 5ac7 5cbd 76b6 703d
00000070: 7c34 30bd d426 ca3c 2d8e a8bd 4c24 803c
00000080: f1a9 a2bd 6cbe d33c f5af 98bd 968f 413d
00000090: d855 71bd c8cd 163c 60b6 d53b 0a01 543d
000000a0: 7678 81bd 2d6e 88bd aaa1 223d 5e03 aabd
000000b0: 1203 a3bd 38e2 71bc d7d4 9b3d f539 803d
000000c0: 0126 14bd bdad 963d 7a25 213d 4c8c 9abc
000000d0: 702d 82bc cf83 813d 5bef 44bd 88cf 553c
000000e0: d1f7 9e3d 08ec 8ebd 3445 973c 00f8 bc39
000000f0: 77ab 5abd 48e1 193c e8c7 873c 2033 ee3c
00000100: 1029 84bd 0407 d5bc 6299 5ebd 0f42 8ebd
00000110: 4be2 84bd d391 77bd 9ee3 633d 280c 34bd
00000120: d1a5 983d b4dd b93c eaf8 1a3d e248 10bd
00000130: e4dd 80bc 0894 f43c 804c 51bc 995f a23d
00000140: 6783 a73d 4a87 523d 0409 c5bc f3a3 8e3d
00000150: aadb 12bd 0019 ff3c 0495 43bd 649b 71bd
00000160: 4688 763d 6a43 293d 50ae f73c 0393 ad3d
00000170: 6e27 97bd e093 603b 5252 7dbd 9b25 77bd
00000180: dbf4 33bd 06f4 753d 60d1 b7bc 6b10 90bd
00000190: 7a5f edbc fb93 64bd 47d7 a4bd b022 82bd
000001a0: 6547 8bbd 6642 66bd 94db 9cbd 2c7d e03c
000001b0: 75c9 9bbd 3098 1d3c cdad 883d e8d9 8ebd
000001c0: 5cb5 46bd f8f1 0bbc 0f3d aa3d 1099 07bc
000001d0: 9ab3 68bd 021e 373d fa25 6fbd 806d 8f3b
000001e0: d0b5 e53b d8f2 c63c 1bb0 13bd be87 193d
000001f0: 49bb b23d 2e69 2bbd 23e5 8d3d 8ce6 72bd
00000200: 7fdc 893d 8c2a 90bc 9e99 e0bc 5ce4 9abc
00000210: b765 8b3d ac9a 54bd 3b81 68bd 7b59 a63d
00000220: 40c5 3dbc 8020 333c ea72 283d 90da 2cbc
00000230: 65d2 b1bd 7e86 fabc 49d6 8d3d 9c0e 98bd
00000240: 54b6 f43c be78 4a3d 24a6 7ebd 3c77 2fbd
00000250: b079 89bd e019 d9bb a7fd 903d 58bd c73c
00000260: 413c 16bd 5698 0fbd 8850 de3c 48ad b03c
00000270: 7c9d a43c 5134 a23d fad3 583d 4f2e aa3d
00000280: 5876 a8bd 484b 53bc d833 6c3c f763 1cbd
00000290: b0d6 21bd 1a39 313d f0d3 963c da68 273d
000002a0: a4a9 cdbc a42e 49bd b84f 023c c64b 5b3d
000002b0: 2846 76bd cf09 6ebd 968a 7b3d 82d7 83bd
000002c0: cc77 883c 6084 243b 8e15 afbd f079 19bc
000002d0: 8fd2 9a3d 0c4d b2bc 33aa 79bd 4837 2fbc
000002e0: 81b1 70bd 73ff 01bd efe7 883d fa9a 333d
000002f0: a986 8a3d 202e 97bd 82c3 32bd b777 adbd
00000300: b2dc 383d df0d a0bd 321d 3e3d 55a7 b33d
00000310: c4a9 a6bd 9ed2 143d 9c3c a53c 2022 60bd
00000320: 2f6f 8e3d 8645 043d 4ea2 443d 25ee 953d
00000330: cc6f c3bc 1462 c9bc f574 7dbd f018 52bd
00000340: df76 33bd bd8a a83d 8ac8 1a3d 428e 5f3d
00000350: 2a1d 97bd f704 0abd 4cc1 bfbc df03 923d
00000360: f74a 91bd c0d1 04bd 86e1 163d 8f7e a73d
00000370: b0f8 a6bb 448c aebc 0843 8fbd c0f1 21bc
00000380: 4cc6 0c3d 5ea5 553d c085 adbd 5c4b f23c
00000390: e04d 7d3b f27a 1ebd dcf0 d2bc 4025 663b
000003a0: 5297 163d 0038 da39 9896 02bd 40bd f6bc
000003b0: 58a3 4cbc 346f 0fbd 507d 11bd 4032 ebbb
000003c0: 6eca 4f3d 9c52 9fbd 88ef 6cbd f8f5 62bd
000003d0: 7cf7 70bd 807f baba dc02 94bd e02f 333c
000003e0: f484 9cbc 5047 ad3b c0dc 8bbd 5a53 113d
000003f0: 5694 77bd a298 5d3d 56f3 85bd 06d8 293d

encoder_layer.linear2.bias f4 [32]
0.009247854 -0.069474 0.007310644 -0.05077709 -0.011967942 0.015215635 -0.063997 -0.06810303
-0.0054434016 -0.06269858 -0.041980136 0.03878022 -0.02833974 0.046013422 -0.019161917 0.05747684
0.01652123 0.064822726 0.0116143 -0.04879688 -0.01566124 -0.0047746375 0.058703743 0.006669298
-0.0024801716 0.0129115805 -0.06695315 -0.009297058 -0.07999115 0.07468661 -0.012331083 0.07196801
00000000: 5084 173c 6248 8ebd 208e ef3b a3fb 4fbd
00000010: 3015 44bc 004b 793c dc10 83bd 9a79 8bbd
00000020: 905e b2bb 1d68 80bd 5df3 2bbd 02d8 1e3d
00000030: be28 e8bc 9278 3c3d 74f9 9cbc d66c 6b3d
00000040: 8857 873c c7c1 843d e849 3e3c 3ddf 47bd
00000050: 004c 80bc 9074 9cbb 5673 703d 208a da3b
00000060: 608a 22bb 188b 533c bc1e 89bd b052 18bc
00000070: 66d2 a3bd 4bf5 983d 5008 4abc f763 933d

encoder_layer.norm1.weight f4 [32]
1.0 1.0 1.0 1.0 1.0 1.0 1.0 1.0
1.0 1.0 1.0 1.0 1.0 1.0 1.0 1.0
1.0 1.0 1.0 1.0 1.0 1.0 1.0 1.0
1.0 1.0 1.0 1.0 1.0 1.0 1.0 1.0
00000000: 0000 803f 0000 803f 0000 803f 0000 803f
00000010: 0000 803f 0000 803f 0000 803f 0000 803f
00000020: 0000 803f 0000 803f 0000 803f 0000 803f
00000030: 0000 803f 0000 803f 0000 803f 0000 803f
00000040: 0000 803f 0000 803f 0000 803f 0000 803f
00000050: 0000 803f 0000 803f 0000 803f 0000 803f
00000060: 0000 803f 0000 803f 0000 803f 0000 803f
00000070: 0000 803f 0000 803f 0000 803f 0000 803f

encoder_layer.norm1.bias f4 [32]
0.0 0.0 0.0 0.0 0.0 0.0 0.0 0.0
0.0 0.0 0.0 0.0 0.0 0.0 0.0 0.0
0.0 0.0 0.0 0.0 0.0 0.0 0.0 0.0
0.0 0.0 0.0 0.0 0.0 0.0 0.0 0.0
00000000: 0000 0000 0000 0000 0000 0000 0000 0000
00000010: 0000 0000 0000 0000 0000 0000 0000 0000
00000020: 0000 0000 0000 0000 0000 0000 0000 0000
00000030: 0000 0000 0000 0000 0000 0000 0000 0000
00000040: 0000 0000 0000 0000 0000 0000 0000 0000
00000050: 0000 0000 0000 0000 0000 0000 0000 0000
00000060: 0000 0000 0000 0000 0000 0000 0000 0000
00000070: 0000 0000 0000 0000 0000 0000 0000 0000

encoder_layer.norm2.weight f4 [32]
1.0 1.0 1.0 1.0 1.0 1.0 1.0 1.0
1.0 1.0 1.0 1.0 1.0 1.0 1.0 1.0
1.0 1.0 1.0 1.0 1.0 1.0 1.0 1.0
1.0 1.0 1.0 1.0 1.0 1.0 1.0 1.0
00000000: 0000 803f 0000 803f 0000 803f 0000 803f
00000010: 0000 803f 0000 803f 0000 803f 0000 803f
00000020: 0000 803f 0000 803f 0000 803f 0000 803f
00000030: 0000 803f 0000 803f 0000 803f 0000 803f
00000040: 0000 803f 0000 803f 0000 803f 0000 803f
00000050: 0000 803f 0000 803f 0000 803f 0000 803f
00000060: 0000 803f 0000 803f 0000 803f 0000 803f
00000070: 0000 803f 0000 803f 0000 803f 0000 803f

encoder_layer.norm2.bias f4 [32]
0.0 0.0 0.0 0.0 0.0 0.0 0.0 0.0
0.0 0.0 0.0 0.0 0.0 0.0 0.0 0.0
0.0 0.0 0.0 0.0 0.0 0.0 0.0 0.0
0.0 0.0 0.0 0.0 0.0 0.0 0.0 0.0
00000000: 0000 0000 0000 0000 0000 0000 0000 0000
00000010: 0000 0000 0000 0000 0000 0000 0000 0000
00000020: 0000 0000 0000 0000 0000 0000 0000 0000
00000030: 0000 0000 0000 0000 0000 0000 0000 0000
00000040: 0000 0000 0000 0000 0000 0000 0000 0000
00000050: 0000 0000 0000 0000 0000 0000 0000 0000
00000060: 0000 0000 0000 0000 0000 0000 0000 0000
00000070: 0000 0000 0000 0000 0000 0000 0000 0000
