logs/tft-training/version_0/checkpoints/epoch=5-step=1872.ckpt (torch, 820747 bytes, 1160 tensors)

prescalers.encoder_length.weight f4 [8, 1]
000000 78 b6 49 3f 03 b6 66 be a1 9c a3 3d 4f 57 37 bf
       0.7879405 -0.2253037 0.07988859 -0.716176
000010 b5 84 1a bf 42 57 3c 3f 8c 7c 95 bf 27 15 00 bf
       -0.60358745 0.73570645 -1.1678634 -0.50032276

prescalers.encoder_length.bias f4 [8]
000000 a0 19 62 be be 16 17 3f 93 c3 52 3f 19 4b 04 bf
       -0.22080088 0.59019077 0.8232967 -0.5167709
000010 93 8e 71 bf 40 f7 70 bd 3d 35 7e bf 01 0c e0 3e
       -0.94358176 -0.058829546 -0.99299985 0.43759158

prescalers.Temperature_center.weight f4 [8, 1]
000000 00 b5 3a 3e a8 0b 3d be a0 97 8c bd b0 f3 c8 3e
       0.18233109 -0.18461478 -0.06864858 0.3924842
000010 78 50 59 3f 00 e0 6f 3f e8 2e 86 be d0 4b 93 3e
       0.8488841 0.9370117 -0.26207662 0.28768778

prescalers.Temperature_center.bias f4 [8]
000000 b7 09 fb be d2 8f e8 be 87 37 98 3d ba 3d d9 3c
       -0.4903085 -0.45422226 0.07432466 0.026518691
000010 ee a9 80 3d d1 5b d4 be 3d 30 92 3e 61 38 23 3e
       0.062824115 -0.414763 0.28552428 0.15939476

prescalers.Temperature_scale.weight f4 [8, 1]
000000 22 be 0a bf b0 2d 92 3e 80 3e 94 3e b8 d6 7b be
       -0.5419637 0.28550482 0.28953934 -0.24593627
000010 c0 16 0f 3d b8 e5 0e bf 3c 92 a5 be 98 7b 35 bf
       0.034933805 -0.55819273 -0.3233813 -0.70891714

prescalers.Temperature_scale.bias f4 [8]
000000 94 27 80 3d 6e 89 87 bf 00 7b 80 bf a4 60 a5 3e
       0.06257549 -1.0588815 -1.0037537 0.32300293
000010 96 9b 79 3e 26 e7 a2 3e 72 fa 1a 3f 22 07 91 be
       0.24375758 0.31816977 0.605384 -0.28325754

prescalers.Temperature_scale.bias f4 [8, 1]
000000 b8 7f 06 bf 80 95 2b bd d0 94 ac 3e 00 5e 21 3c
       -0.52538633 -0.04189062 0.33707285 0.0098490715
000010 70 28 5c 3e a4 56 5f 3f 5c 2f ae be 22 84 27 3f
       0.214998 0.8724158 -0.34020507 0.65435994

prescalers.Temperature_scale.bias f4 [8]
000000 6a 96 0a bf a8 f5 41 bf 24 1f 48 3f 31 8e 23 3f
       -0.54135764 -0.75765467 0.78172517 0.6388884
000010 1c f9 0b 3f de 54 05 3e c0 d9 cd be 74 c1 35 3e
       0.54676986 0.13020656 -0.40205193 0.17749578

prescalers.Temperature_scale.bias f4 [8, 1]
000000 58 9d e0 be ce 23 3a bf aa ff 0f bf 30 33 a5 be
       -0.43870044 -0.72710884 -0.5624949 -0.32265615
000010 ae 60 04 3f cc 2f 8e 3e b0 d9 b1 bd 1c 59 45 3f
       0.5171002 0.2777084 -0.08684099 0.77089095

prescalers.Temperature_scale.bias f4 [8]
000000 42 f6 1a 3f 35 58 51 bd 20 56 5a bf ab c6 25 3f
       0.6053201 -0.05110951 -0.85287666 0.6475627
000010 ca c7 df be 9d 43 04 bf 43 8e 46 bc 79 d6 48 bf
       -0.43707114 -0.5166567 -0.012118879 -0.7845226

prescalers.Humidity_center.weight f4 [8, 1]
000000 02 68 12 3f 80 d6 6d bd 60 c9 e6 be 00 99 42 3e
       0.57189953 -0.05806589 -0.45075512 0.19003677
000010 88 ca 7e 3f bc f3 d0 be 58 ed a9 3e 0c 0b b6 be
       0.9952779 -0.40810955 0.3318889 -0.35555303

prescalers.Humidity_center.bias f4 [8]
000000 e3 94 55 3f bd 1b 19 3f 6f 5e cb be ca 3c 4c bf
       0.8343031 0.5980795 -0.39720485 -0.79780257
000010 c7 5d 9a 3e 79 94 b9 3e 6f 1f 94 be 61 1f 83 bf
       0.3014967 0.36246088 -0.28930232 -1.0243951

prescalers.Humidity_scale.weight f4 [8, 1]
000000 b8 8e 4a 3f 00 0d 90 3c 6c 7d bf be 08 bc f5 be
       0.7912402 0.017584324 -0.37400377 -0.4799502
000010 64 ea c0 3e 80 46 6c 3e d6 53 55 3f 20 f3 e3 3d
       0.37678826 0.23073769 0.8333105 0.11130357

prescalers.Humidity_scale.bias f4 [8]
000000 34 f5 85 bf aa 77 01 3d 3b d6 c3 3e ee 68 73 bd
       -1.0465455 0.03160826 0.38249382 -0.05942624
000010 7a 74 9c 3e 38 ad 1f bf 61 ae 88 3f 8c a1 87 be
       0.30557615 -0.62373686 1.0678216 -0.26490438

prescalers.Humidity_scale.bias f4 [8, 1]
000000 2a 4f 3b 3f ec 70 b1 be c8 07 7d bf 2c fa 14 3f
       0.7316767 -0.34656465 -0.9884 0.5819423
000010 c8 4d 31 3e 40 be f3 3e c0 fd a7 bd c8 a0 0c 3f
       0.17314827 0.47606087 -0.08202696 0.5493283

prescalers.Humidity_scale.bias f4 [8]
000000 ca bf 45 bf 15 9c 1a bf 4f 4c 2e 3e ca 1b fa be
       -0.7724577 -0.6039441 0.17021297 -0.48849326
000010 3c 97 25 bf ac 1a b9 3c e9 8d df bc c2 87 00 3e
       -0.6468389 0.022595726 -0.027289348 0.12551787

prescalers.Humidity_scale.bias f4 [8, 1]
000000 fe bb 45 3f 18 4a c0 3e a0 8f 0b 3e d8 fc 56 3f
       0.7723998 0.3755653 0.13629007 0.8397956
000010 b2 55 63 3f e8 b5 0a 3e ce 1d 14 bf 4c df bb be
       0.88802636 0.13545954 -0.5785798 -0.366938

prescalers.Humidity_scale.bias f4 [8]
000000 d0 2a 45 3f d5 9e 2c 3f 75 51 46 bf 61 71 79 bf
       0.7701845 0.6742986 -0.77468044 -0.9743863
000010 d2 5e 93 be 2c 5d 69 be 01 0d e8 be d7 2a 2a bf
       -0.2878328 -0.22789448 -0.4532242 -0.6647162

prescalers.Pressure_center.weight f4 [8, 1]
000000 58 c4 6f bf 5e d3 63 bf 76 92 11 bf f0 17 22 bf
       -0.9365897 -0.88994396 -0.56864107 -0.63317776
000010 00 65 87 bc 50 54 a9 3e e8 7f 7b bf 78 34 96 be
       -0.016527653 0.33072138 -0.98242044 -0.29336905

prescalers.Pressure_center.bias f4 [8]
000000 43 4f 9d be fd 9c 18 bf 5f b6 1d 3f 98 d2 d8 3d
       -0.30724534 -0.59614545 0.616064 0.105870426
000010 3c bf 4b 3f be d7 a2 bd cb c2 85 3f e6 d2 94 3f
       0.79588675 -0.07951306 1.0450071 1.1626861

prescalers.Pressure_scale.weight f4 [8, 1]
000000 4c 7b 9a be a0 03 bb bd 6c f2 61 3f 02 9f 43 3f
       -0.30172193 -0.09131551 0.8826053 0.764145
000010 88 b6 6c be 80 ce e4 bc b4 7c 71 3f 2a 41 6d bf
       -0.23116505 -0.027930498 0.94330907 -0.9267756

prescalers.Pressure_scale.bias f4 [8]
000000 eb 32 5b be ed 11 41 3e 6f 31 43 3f 92 91 11 3f
       -0.21406142 0.18854494 0.76247305 0.5686275
000010 ea 88 c0 3e 79 f4 fd 3e cd d3 e8 3e e1 d6 84 3d
       0.37604457 0.4960058 0.4547409 0.064862974

prescalers.time_idx.weight f4 [8, 1]
000000 b0 90 ed bf fd 79 4f 3e e3 dc f7 bf fd 43 f5 bf
       -1.855978 0.20261379 -1.9364284 -1.9161373
000010 53 9a d6 bf 81 5c 21 bf f8 d7 c9 3f 8a 16 0b 40
       -1.6765846 -0.63031775 1.5769033 2.1732507

prescalers.time_idx.bias f4 [8]
000000 22 9e be bf 3b e3 3a 3e e3 40 b4 bf ba 7e 17 be
       -1.4892008 0.18250744 -1.4082302 -0.14794436
000010 05 98 bc bf 0d 4e 6f bf e3 b3 b3 3f 0a 3d 08 40
       -1.4733893 -0.9347847 1.4039272 2.1287255

prescalers.relative_time_idx.weight f4 [8, 1]
000000 ae 13 98 bf d5 45 9c bf 83 37 b6 3f f6 76 e2 be
       -1.1881006 -1.2208811 1.4235691 -0.44231385
000010 eb 64 27 3e 1e ec 80 bf b1 34 a9 bf 38 a3 56 3f
       0.16347091 -1.0072057 -1.3219205 0.838428

prescalers.relative_time_idx.bias f4 [8]
000000 00 94 27 3f 8e 89 5b bc a5 c0 2e 3e 79 90 63 bf
       0.65460205 -0.013399495 0.17065676 -0.8889232
000010 a9 57 f7 3e ac 47 3a 3f f5 bc 26 bf d0 89 a3 3f
       0.48309067 0.7276561 -0.65132076 1.2776432

prescalers.Temperature.weight f4 [8, 1]
000000 4b 1d c0 3f bc 46 78 bd ad 64 c4 bf 57 2b b7 be
       1.500894 -0.060614333 -1.5343224 -0.35775253
000010 72 b8 ba 3f c6 b2 19 3f 93 71 d4 3f cc 5e 82 bd
       1.4587538 0.6003841 1.659716 -0.06365737

prescalers.Temperature.bias f4 [8]
000000 ac 74 be 3f b1 30 1e bd 52 cc 52 3e 75 09 ee be
       1.4879355 -0.038620654 0.20585755 -0.4649159
000010 54 d1 90 3f a3 da f9 3e d6 37 56 bf da 0f 07 be
       1.1313882 0.4879962 -0.8367895 -0.1318964

prescalers.Temperature.bias f4 [8, 1]
000000 12 03 d7 3f 94 2b f9 3f 93 0c a9 3f 1b 0b 0e c0
       1.6797812 1.9466424 1.3206962 -2.2194278
000010 d2 4a 95 bf c2 f9 d7 bf cd 7f 3e 3f fe 57 9f bf
       -1.1663458 -1.6873095 0.7441376 -1.2448728

prescalers.Temperature.bias f4 [8]
000000 f9 08 17 3e 95 ea f9 3e ef 88 1b bf 67 0e 6f bf
       0.14749517 0.48811784 -0.6075582 -0.9338135
000010 1e c0 4d be 11 d4 2b bf fd ce 45 3e e5 fe 43 be
       -0.20092818 -0.6712046 0.19317241 -0.19140203

prescalers.Humidity.weight f4 [8, 1]
000000 7b 8c df be 1a 37 47 bf cd 77 96 be a1 5c 9a 3f
       -0.43661866 -0.77818453 -0.29388276 1.2059518
000010 b0 be b2 bf 22 9f ef 3f bb a2 a6 bf d1 2f 2b 40
       -1.3964443 1.8720438 -1.3018411 2.6747935

prescalers.Humidity.bias f4 [8]
000000 5f 59 1c bf 5d 92 b5 bf fa 82 7c bf a1 0f 06 bf
       -0.6107387 -1.4185292 -0.98637354 -0.523676
000010 80 7c 82 bf e3 eb 93 3f c8 94 59 bf 98 d1 17 3f
       -1.0194244 1.1556362 -0.8499265 0.5930419

prescalers.Humidity.bias f4 [8, 1]
000000 7a 1c cb 3c 6b db 41 3f 46 ba 5c bf c2 32 9f 3f
       0.024793852 0.7572543 -0.8622173 1.2437365
000010 8c 24 6b bf 2b 75 91 3f 5f 42 e3 3d 7f 37 5e 3e
       -0.9185264 1.1363882 0.11096644 0.21700858

prescalers.Humidity.bias f4 [8]
000000 bf b4 ae 3f 1a 66 c3 bf 9f 56 90 3d 61 56 9a bf
       1.3648909 -1.5265534 0.07047772 -1.2057611
000010 7d 44 b8 bf ac 81 69 3f 41 1f 86 bf 25 e2 b0 bf
       -1.4395901 0.9121349 -1.0478288 -1.3819014

prescalers.Pressure.weight f4 [8, 1]
000000 ae 8d ea be dd 22 5e 3f 3a 43 11 be f0 c7 86 3f
       -0.45811218 0.8677195 -0.14185801 1.0529766
000010 0d 5f bc be 45 1c aa be 7c 92 46 bf 9f 77 ad be
       -0.36791268 -0.33224693 -0.7756727 -0.33880326

prescalers.Pressure.bias f4 [8]
000000 b7 54 96 bf 7e dd 0d 3f e4 08 eb be 40 5f 22 be
       -1.1744603 0.55416095 -0.4590522 -0.15856647
000010 51 29 9c 3f af 97 9b 3f 4e 71 ae 3f fd 1e a9 bf
       1.2200109 1.2155665 1.3628328 -1.3212582

static_variable_selection.flattened_grn.resample_norm.mask f4 [11]
000000 0e 06 3a be 9c 63 99 bd 4d 03 b5 bd 65 7c 09 3e
       -0.18166372 -0.07489702 -0.0883852 0.13426359
000010 ac 39 3f be be 33 3f 3e 77 70 6b bd 77 99 2f be
       -0.18674344 0.18672082 -0.0574803 -0.17148386
000020 2e 02 63 3e ce 22 3e 3e c8 05 25 3e
       0.221688 0.18567964 0.16115487

static_variable_selection.flattened_grn.resample_norm.norm.weight f4 [11]
000000 c8 15 51 3f d9 a6 98 3f 4a a3 99 3f a3 45 91 3f
       0.8167386 1.1925918 1.2002957 1.1349376
000010 84 6f 4e 3f 7c 77 96 3f 1e 8e 67 3f 39 a4 54 3f
       0.8063891 1.1755214 0.9045123 0.83063084
000020 07 24 99 3f 0a 92 97 3f bc 01 94 3f
       1.196412 1.1841443 1.1563029

static_variable_selection.flattened_grn.resample_norm.norm.bias f4 [11]
000000 f9 af 3c be 3e c1 49 be de 79 4d be 17 65 0e 3e
       -0.18426503 -0.19702622 -0.2006602 0.1390575
000010 35 42 45 be 07 86 34 be 2b e7 29 3d 2d b4 25 3e
       -0.19263537 -0.17629252 0.041480225 0.16182013
000020 6b 0e 45 be 37 24 3c 3e c9 c0 24 3e
       -0.19243781 0.1837319 0.16089167

static_variable_selection.flattened_grn.fc1.weight f4 [11, 88]
000000 5a 02 25 be ee 74 ba bd a7 5a 31 be 7e 54 6e bd
       -0.16114178 -0.09104334 -0.17319737 -0.058186047
000010 17 88 b0 3e 4b 30 9e be 86 59 ae 3e 27 2e 10 3e
       0.34478828 -0.3089622 0.34052676 0.14080106
000020 5c 13 cd 3d 2e 00 b6 3e 21 5f 29 3d 8e 39 23 bd
       0.10013458 0.35547012 0.041350488 -0.03984981
000030 7c ae a0 3d 06 03 e6 3d db 54 5f be 5c ea 03 bf
       0.0784578 0.112310454 -0.21809714 -0.5152948
000040 df 65 2a 3e 76 1b 2a 3e 81 9c 8c 3d 8b f6 3a be
       0.16640423 0.16612038 0.06865788 -0.18258111
000050 fa 89 12 bd 8a a5 a4 be e6 07 78 be 4b cd 90 be
       -0.035776116 -0.32157546 -0.24221763 -0.28281626
000060 d3 fa 1d 3e ca 0c f3 3e c3 18 cd bd eb eb 6e be
       0.15427713 0.47470695 -0.100144885 -0.23332183
000070 f4 bd 95 be d9 99 35 3e 6c 37 01 3c c2 a6 00 bf
       -0.29246485 0.1773447 0.007886749 -0.5025445
000080 8d 8e e8 bc cc 5a cd bd 9e a2 03 3e f7 53 76 be
       -0.028388286 -0.10027084 0.12855002 -0.24055468
000090 6c 2d af bd d3 bf 2b 3e d2 03 48 bd 8c 9c f0 3d
       -0.085535854 0.16772394 -0.04883177 0.11748609
0000a0 ea 4f be be d3 51 99 be 80 be 3d 3e 7b 32 a1 3e
       -0.37170345 -0.2994524 0.18529701 0.31483826
0000b0 0b ea 89 be 55 59 b8 be 08 af d0 3d e0 df 83 3e
       -0.26936373 -0.36005655 0.101896346 0.2575674
0000c0 80 5f aa 3e db 35 27 be 26 29 c8 3d 50 40 e3 3c
       0.33275986 -0.16329138 0.097734734 0.027740628
0000d0 3b b7 58 bd 5f 18 ed 3d 14 cd 9c bd f4 19 15 3e
       -0.052909117 0.11576914 -0.07656303 0.14560682
0000e0 0f 49 7d 3c ce b2 07 be 05 4b 92 be be e4 2e 3d
       0.015459313 -0.13251802 -0.2857286 0.042698614
0000f0 e0 9a bf 3c ca b4 a2 3e 82 ea 94 bd ac ea 6b bc
       0.02338928 0.31778556 -0.07271291 -0.014399212
000100 76 5e 22 be 08 96 0c be 6b 41 98 3e ae 44 ca 3e
       -0.15856346 -0.13729107 0.2973741 0.39505523
000110 ac ba 0b 3e 10 08 c8 3e 5a 10 4b 3e a7 5f 18 3e
       0.13645428 0.3906865 0.19830456 0.14880238
000120 65 e4 21 3e 17 1d 75 bd 7e ca 88 be 2d 79 a8 bd
       0.15809782 -0.059842195 -0.2671699 -0.082262374
000130 1e 04 0b 3d be 49 85 3e 27 bd 2a bf 7c 10 9d be
       0.033939473 0.26032823 -0.66694874 -0.3067664
000140 d7 c0 c5 bd 04 be 93 be 86 59 86 be 62 1f 0e be
       -0.09655922 -0.28855908 -0.26240176 -0.13879159
000150 b0 f9 bb 3e 55 a0 3c 3e a5 c4 a9 3c 01 90 37 3e
       0.36713934 0.18420537 0.02072365 0.17926027
000160 38 75 d8 3c 1e 9c af bd 9e f2 f1 bd 89 6c d7 3d
       0.026423082 -0.08574699 -0.11813854 0.10518748
000170 6b 40 d9 3e 30 8d 7f bd 52 1d b3 3d 19 70 99 3d
       0.4243196 -0.062390506 0.08745827 0.07492084
000180 75 ad 03 3f 94 94 15 ba c7 14 cb 3d 6e 16 2f bd
       0.5143655 -0.0005706039 0.09916072 -0.042746
000190 c0 c0 75 3e 21 2f 9b 3e 17 97 23 be 69 19 ea bd
       0.2399931 0.30309394 -0.15975605 -0.11430628
0001a0 5e 94 ee 3e 99 69 42 3e b4 68 1d 3d 8c b5 ff bd
       0.4659757 0.18985595 0.03842993 -0.12485799
0001b0 20 50 5a 3d a8 da 72 bd 3d 53 d3 bd b8 5d fb bd
       0.05329907 -0.059290558 -0.10318611 -0.12273735
0001c0 b5 56 b9 3d 8d 3d 8f 3e 02 b8 81 be 0c 20 83 be
       0.09049741 0.27976647 -0.253357 -0.25610387
0001d0 27 11 52 bc 91 b7 40 3e 29 6a e6 3d c5 5c ad bd
       -0.012821472 0.18820025 0.11250717 -0.0846496
0001e0 25 a3 a1 bd 4b a8 ce be 3a 24 08 3f 14 57 5f bd
       -0.078924455 -0.40362772 0.5318028 -0.054526404
0001f0 91 24 bb 3e dd d3 44 3e 96 43 fe bd 52 c1 ae 3d
       0.36551335 0.19221444 -0.12415235 0.08532967
000200 43 e3 2a be 1b 5e 5d be bb f5 f7 bd 8f 3f 2f bd
       -0.16688256 -0.2161793 -0.12107416 -0.042785224
000210 5f c4 a7 be b8 2d 9d be af d2 4b 3e 03 f5 24 3e
       -0.32767007 -0.30698943 0.19904588 0.1610909
000220 dd 7a 33 3e db d0 8f bd 26 7e 2f bd c8 99 04 3e
       0.17527337 -0.07022258 -0.042844914 0.12949288
000230 cb cc cd be 6e ba 41 3e c9 68 5a be be 46 89 3d
       -0.40195307 0.18918774 -0.21329035 0.06702946
000240 10 d8 35 3e 41 da 5d 3e 86 78 cb bd 48 d7 e5 3d
       0.17758203 0.21665289 -0.099350974 0.11222702
000250 c1 a2 94 3e e8 9f 1f bd 19 32 c9 bd e4 c3 1b 3e
       0.2903042 -0.038970858 -0.098240085 0.15211445
000260 15 46 95 bd 37 87 26 be a4 d2 4d 3e 6e c3 53 3c
       -0.07288758 -0.16262518 0.20099884 0.012925012
000270 19 34 95 3e 69 44 73 3e 9a 02 93 3e 0a 13 64 3c
       0.2914131 0.23756565 0.28712922 0.013920555
000280 6c 71 8b 3e 2b 33 35 3e 5a 7d 8c 3e 92 9b 95 be
       0.27234972 0.176953 0.27439386 -0.29220253
000290 b2 3f fe bd c6 18 5e 3e 0b 53 d2 be 8d 11 10 3c
       -0.12414493 0.21689138 -0.41078982 0.008793247
0002a0 2a bf 9d be 51 3e 81 be 90 d7 91 be 6d 02 93 be
       -0.3080991 -0.25242856 -0.28484774 -0.28712788
0002b0 8a d0 84 3e 85 df 1d 3a 79 03 b0 bc 87 5e 87 be
       0.25940353 0.0006022382 -0.02148603 -0.26439306
0002c0 21 bf bd 3d 01 fd 48 3e 4b d5 d6 3e 4b 1f aa be
       0.092649706 0.19627763 0.41959605 -0.33227
0002d0 70 7d 3d be e8 9e d6 bb 4b fd bf be c4 0f 1d be
       -0.18504882 -0.006549705 -0.37497935 -0.15338045
0002e0 9a c0 0f be c5 40 1d be c0 c0 b4 bd 47 db 9b 3c
       -0.14038315 -0.15356739 -0.08825827 0.019025458
0002f0 1c 58 8d bd cd 8b c1 be fb 7f 36 3e 74 5a a6 3d
       -0.06901571 -0.37801972 0.17822258 0.08122721
000300 78 80 d2 bc 13 bc 7d be 1d ed 0b bf 59 9b 96 be
       -0.025696024 -0.24778776 -0.5465868 -0.29415396
000310 05 b3 6d 3e 88 27 ca 3b 6a f1 75 3d 98 62 6d 3e
       0.23212822 0.0061692633 0.060044684 0.23182142
000320 f5 8c 43 be 70 c2 d1 bd 6c 98 aa 3d b8 0e 8c 3e
       -0.1909674 -0.10242164 0.083298534 0.2735498
000330 5f 93 34 3e c3 29 69 be 68 38 3f be 76 ec 8b 3e
       0.17634343 -0.22769837 -0.18673861 0.27328843
000340 fc 40 13 bd cf 90 dd 3e ca c9 83 be ce 11 28 3e
       -0.035950646 0.43274543 -0.2573989 0.16413042
000350 66 a2 37 be ad b9 69 be 49 8f 31 be ae 5a 7f 3e
       -0.17933044 -0.22824736 -0.17339815 0.24936935
000360 63 e9 13 3e 99 86 bf 3e db 43 10 bd 9b 8e 8c be
       0.14444499 0.37407377 -0.035220962 -0.2745255
000370 26 18 9e 3e f0 d3 a9 3e 0c f4 67 be 65 e0 40 be
       0.308778 0.33169508 -0.2265169 -0.188356
000380 d9 38 86 bd 40 f2 b3 bb c4 9e a8 3e 1f ac 34 be
       -0.065538116 -0.005491525 0.3293363 -0.17643784
000390 96 54 92 3e 02 4e b9 be e7 aa 25 3e a7 86 8e 3d
       0.2858016 -0.36192328 0.16178475 0.06959277
0003a0 1e 60 0e bf da b1 c1 bd 12 c2 97 bd a0 8a 69 be
       -0.55615413 -0.094577506 -0.07410063 -0.22806787
0003b0 29 25 9e be 8b fe e7 be 65 28 4f bd 05 b1 60 be
       -0.30887726 -0.45311388 -0.050575633 -0.21942528
0003c0 e7 04 bc 3e 7b 08 c0 3e f8 8e 05 be e1 3b 42 be
       0.3672249 0.3750647 -0.1304282 -0.18968154
0003d0 98 c8 3a be 0b 6c 5b be 9c 16 93 be a5 4a b9 be
       -0.18240583 -0.21427934 -0.28728187 -0.36189762
0003e0 60 f8 b5 be 8e fc 0b be b5 cd c7 3e 35 7d c5 3e
       -0.35541058 -0.1367056 0.3902413 0.38572088
0003f0 99 d9 04 3f 27 28 a5 be 26 89 9a 3e b1 16 5f bc
       0.5189453 -0.32257196 0.3018276 -0.01361625

static_variable_selection.flattened_grn.fc1.bias f4 [11]
000000 76 65 37 be 49 45 30 be 55 b9 45 3e 6e 4c 39 be
       -0.17909798 -0.1721393 0.1930898 -0.18095562
000010 20 a1 3c 3e 2e 98 39 be 1b 7f 40 3e b2 66 40 3e
       0.1842084 -0.18124458 0.18798487 0.18789175
000020 ab 67 39 be 00 79 9c bd 47 c6 37 be
       -0.18105952 -0.076402664 -0.1794673

static_variable_selection.flattened_grn.fc2.weight f4 [11, 11]
000000 5f 43 64 3e de 2c 2f 3c 10 5a 91 bf 84 8c 2c bf
       0.22291325 0.0106918495 -1.135561 -0.6740191
000010 87 69 fc bc 3c 68 53 be 9e a9 36 be 03 96 0a bf
       -0.030812038 -0.20645231 -0.17838141 -0.5413515
000020 a9 a0 59 bf a6 9c da bd 6a dc 0f 3f df a0 7b 3e
       -0.8501077 -0.106744096 0.561957 0.24573086
000030 9d 16 8d bf 1f 6b aa 3e 7e 35 cb 3d 28 df 70 be
       -1.1022526 0.33284852 0.09922312 -0.23522627
000040 ae aa 78 3d 7f 9f de bd 2d 13 84 bd 70 8d 12 bf
       0.060709648 -0.10870265 -0.0644897 -0.57247066
000050 db 22 ae be 64 32 4e bb 12 50 59 3e 94 bd f3 3e
       -0.34010968 -0.003146314 0.2122195 0.47605574
000060 af 55 11 3f 08 44 b1 be 6e 04 d3 3e 37 c1 b8 be
       0.5677137 -0.34622216 0.41214317 -0.3608491
000070 df fd ed bb 44 71 f6 3e 31 e5 6c bf 95 52 8d 3e
       -0.00726293 0.4813329 -0.9253722 0.27602068
000080 c9 b1 91 3f b5 15 6e 3f 41 64 2b 3d 4c 96 0b 3e
       1.1382381 0.9300187 0.041843656 0.13631552
000090 e3 f8 e4 be 57 c8 70 3e c4 60 d1 be 0f 3e c6 3e
       -0.44721135 0.23513924 -0.4089414 0.38719222
0000a0 ab f5 49 3f 02 4b c7 bd 2b 21 3c be 6d 79 e8 be
       0.78890485 -0.097311035 -0.18372028 -0.4540514
0000b0 fd 7d 4a 3f 49 b3 44 3e bf 24 c4 3e 47 6b 17 3d
       0.7909849 0.19209017 0.38309285 0.036967542
0000c0 69 45 12 3f b6 ef 9f be 0f 96 4f 3e 55 0e ec 3e
       0.5713716 -0.31237572 0.20272087 0.46104684
0000d0 fe cb f2 3e d3 52 9e 3e 21 3c 0d 3f 01 a3 6e bd
       0.4742126 0.30922565 0.55169874 -0.05826092
0000e0 63 d6 54 bd 6f 59 65 bd 1e b2 ef bd 27 52 9d be
       -0.051962268 -0.055993494 -0.11703895 -0.3072674
0000f0 07 15 7f bf 0d 82 d1 3e 0e 33 86 3e 68 98 bf be
       -0.9964146 0.40919533 0.26210827 -0.37420964
000100 3e 94 1d be db 95 be 3e 2a b1 69 3f cf 52 7c be
       -0.15388581 0.37223706 0.91285956 -0.24640964
000110 e0 f8 99 be 9f b0 9c 3d e8 6b c4 be f6 cb 28 3f
       -0.3007269 0.07650875 -0.38363576 0.6593622
000120 da b5 8b be b1 00 9a 3e 53 9e 1b 3e bb cf 1e 3e
       -0.2728718 0.30078653 0.15197115 0.1550893
000130 57 19 d1 3e 8d 72 5c bf f4 d5 bc be a0 19 87 3d
       0.40839645 -0.8611229 -0.36881983 0.065966845
000140 18 c5 cc 3e c8 4c 49 3f 15 ad 7d bd 42 1c ac be
       0.3999412 0.78632784 -0.061932642 -0.3361531
000150 a8 da 26 3e 59 a8 ad 3e d1 06 c2 3d 0e 67 3a bc
       0.16294348 0.33917502 0.094739564 -0.011377109
000160 41 7f 95 be 41 83 bd 3d ac 8e 19 3e d0 b7 2b bf
       -0.2919865 0.0925355 0.14995831 -0.6707735
000170 c3 35 b4 bc 56 37 6e 3f 7c a1 28 3e f7 f4 4b be
       -0.021998292 0.93053186 0.16467851 -0.19917665
000180 b1 84 43 be a4 2c 01 3d a5 65 47 bf 8b 12 0e 3e
       -0.19093587 0.031536713 -0.7788947 0.13874261
000190 ac 57 c0 3d c5 fe dd be 32 91 ca be 81 96 57 bf
       0.09391722 -0.43358436 -0.395639 -0.84214026
0001a0 08 05 01 3f 7b 86 c9 3d 8e 50 41 3c 6e 92 44 3f
       0.503983 0.09840103 0.011798991 0.76785934
0001b0 9e 06 56 3f 1f 99 92 be 8d 98 fc 3e 88 11 e7 be
       0.8360385 -0.28632447 0.49335137 -0.45130563
0001c0 55 ed 21 bf bb 1c eb bd 04 50 00 bf 5f de 17 3f
       -0.63252765 -0.11480089 -0.50122094 0.59323686
0001d0 20 d3 57 bf 7f bb 94 be 56 81 cf 3d 91 2d e2 3d
       -0.84306526 -0.29049298 0.10132091 0.11043847
0001e0 4b 94 54 3f
       0.8303878

static_variable_selection.flattened_grn.fc2.bias f4 [11]
000000 e2 54 3b be ec 3c 41 bd d9 db 02 be b9 88 40 3e
       -0.18294099 -0.04717724 -0.12779178 0.18802156
000010 6a 6e 42 3e 82 90 43 3e 81 2a 37 be b4 bd 2a 3e
       0.18987432 0.19098094 -0.17887308 0.16673928
000020 05 c7 0c be c6 a9 42 be e9 9b 45 be
       -0.13747795 -0.19010076 -0.19297756

static_variable_selection.flattened_grn.gate_norm.glu.fc.weight f4 [22, 11]
000000 3f 44 c1 3e 11 13 c2 3e f5 a6 78 be b4 86 34 be
       0.3774738 0.37905172 -0.24282439 -0.1762951
000010 6f 15 b9 be 4d 00 18 3f 4e 82 3c 3e 3d cb 3c bc
       -0.36149165 0.5937546 0.18409082 -0.011523065
000020 d1 aa 42 be 9a fd b7 3d 9f 7b 13 3f b9 23 08 3f
       -0.19010474 0.089839175 0.57610506 0.5317951
000030 af dc 01 bf 5a d0 e7 be 72 cf 60 bf 31 cb 65 bf
       -0.5072736 -0.45276147 -0.87816536 -0.8976317
000040 be b1 f9 bd a7 92 59 3e ea 5f 85 be f9 a6 9a bd
       -0.12192105 0.2124735 -0.2604974 -0.07551379
000050 5f 3c 1a bc b0 1e 2d 3f a6 11 1f bc 28 6c 53 bc
       -0.009413808 0.6762495 -0.009708798 -0.012904204
000060 a6 46 0c bf ff 39 82 3b e0 19 a6 3b a0 9c bc bc
       -0.547953 0.003974199 0.0050690025 -0.023023903
000070 39 bd 46 3e fc 81 3d be fd e2 31 be 49 ca 30 3e
       0.1940812 -0.18506616 -0.17371745 0.17264666
000080 05 51 c7 bc d4 4c 98 3e 6a bb 06 3e 53 27 be 3e
       -0.024330625 0.29746115 0.1315743 0.37139377
000090 72 23 ff 3e 6b 05 ea 3e a2 05 1b bf c6 34 02 3e
       0.4983173 0.4570726 -0.6055547 0.12715444
0000a0 76 b2 35 3e 40 32 22 be f4 27 32 be ab 78 39 be
       0.17743859 -0.15839481 -0.17398053 -0.18112437
0000b0 be 86 2e 3e 53 fc b9 3e 26 d7 c7 be bc 27 f4 be
       0.17043588 0.3632532 -0.39031333 -0.47686565
0000c0 d4 d4 d6 be 9c 51 19 3f 08 bf cc bb ca 2d 1b bd
       -0.4195925 0.5989015 -0.0062483586 -0.037885465
0000d0 48 f2 81 be 93 c3 db be 55 52 93 3e f2 0e a6 bd
       -0.25380158 -0.4292265 0.28773752 -0.08108319
0000e0 d4 5f 49 be 83 05 ee bb 91 78 0b be 4e e8 4f bd
       -0.19665462 -0.0072638406 -0.13620211 -0.050758652
0000f0 a0 57 30 be 5a a6 c5 3d 06 52 91 3e c8 26 2c 3f
       -0.17220926 0.0965087 0.2838289 0.67246675
000100 92 e4 18 bf 32 2a 1f 3d 5a 9a b5 3b f8 e9 a7 bd
       -0.5972377 0.0388586 0.005542082 -0.08198923
000110 7a a6 cd 3e 93 41 3e be 9d 20 b5 3e a4 5e c9 3c
       0.40166074 -0.18579702 0.35376444 0.024581261
000120 2c f9 9c be 9e 32 a2 3e ff e9 65 bd d3 d9 38 bf
       -0.30658853 0.31679243 -0.05613136 -0.72207373
000130 71 c4 f5 be a5 bf 01 3e 7c e8 4c 3c 3b 5d ec 3e
       -0.48001435 0.12670763 0.0125066005 0.4616488
000140 3b 90 53 be e2 73 f5 3e 86 a2 c5 be 7b 6b bf 3e
       -0.20660488 0.47939974 -0.38600558 0.3738669
000150 12 5a 1b bf d5 d2 4c 3e 1d 8a a6 3e 03 76 d1 be
       -0.6068431 0.20002301 0.32527247 -0.40910348
000160 86 5b 45 3f 53 eb 8e 3e 5a 40 90 be da 8d 74 bf
       0.7709278 0.27913913 -0.28174096 -0.9552895
000170 0d ea 0c bf 41 65 99 3e d6 d2 cf 3d 1c 48 24 3b
       -0.55044633 0.29960063 0.10147636 0.0025067395
000180 89 05 14 bf be 62 3c 3e 50 f5 28 3f ee 10 a1 be
       -0.57820946 0.18397042 0.6599932 -0.3145823
000190 e7 c9 1a be 7c 49 28 3d e5 d6 f8 3e bf 88 72 3e
       -0.15116082 0.041085705 0.48601452 0.23684977
0001a0 25 f6 74 3e 3d 55 59 3c fa a3 39 be 00 f5 93 be
       0.23922022 0.013264951 -0.18128958 -0.28897858
0001b0 e5 f9 05 3d 5b fb 18 bf bc 80 cb bc f7 2a 77 be
       0.03270902 -0.5975854 -0.024841659 -0.24137484
0001c0 7b 7f 3a be 73 a2 bb 3e 9e 61 83 be 70 6f a5 be
       -0.18212692 0.36647376 -0.25660414 -0.32311583
0001d0 43 f7 6b 3e 62 ac 37 bb fa c8 2a 3e 9c 8d 21 3e
       0.23043542 -0.0028026332 0.16678229 0.15776676
0001e0 6c 57 87 3e b0 94 87 3e 13 bf b8 3e e9 8d 1a bf
       0.26433885 0.26480627 0.36083278 -0.6037279
0001f0 6b d4 e5 be 1a f7 15 be 40 c6 13 3f 35 ad 11 be
       -0.44888625 -0.14645043 0.5772438 -0.1422623
000200 31 25 78 3e 45 73 80 3e 9a 79 4e 3e 15 28 b8 be
       0.24232937 0.25087944 0.20163575 -0.3596808
000210 61 53 a4 be 01 23 0f 3f 21 1c 79 bd 7c 33 c5 3e
       -0.32094863 0.55912787 -0.06081784 0.38515842
000220 f2 72 b0 3e f0 7c ff 3d 73 9e b7 bd 79 8b 95 3e
       0.34462696 0.12475002 -0.08965769 0.29207972
000230 ee 92 1a 3f 12 2f 1a bf ee 73 9c 3e 8a 6f b4 bc
       0.60380447 -0.60228074 0.30557197 -0.022025842
000240 12 60 24 be 2b b2 19 bf 59 08 f3 be b8 7d 86 bc
       -0.16052273 -0.6003749 -0.47467306 -0.01641737
000250 be bc a3 bd ef 37 be bd 4b e9 a2 be b9 3a c9 bc
       -0.07994984 -0.09288012 -0.31818613 -0.024564134
000260 13 fa 45 be 02 20 d1 3e 7a e5 aa 3e 86 78 2b 3e
       -0.19333677 0.40844733 0.33378202 0.16745195
000270 8a b3 01 bf e3 09 8e 3d 46 f4 c4 be fa 22 36 be
       -0.5066458 0.069354795 -0.38467616 -0.1778678
000280 70 36 4e 3e a3 a0 ab 3d 02 61 ff bd d3 d0 ea be
       0.20137954 0.083802484 -0.12469675 -0.45862445
000290 b2 8c 0c 3f 84 a9 ea be d4 80 75 3e 50 41 89 be
       0.54902184 -0.45832455 0.23974925 -0.26807642
0002a0 5b d1 2c 3f 0e 5d 95 3d c5 91 9f be 92 dd 7d 3e
       0.6750695 0.072931394 -0.311659 0.24791554
0002b0 e0 3d f5 bd 14 e5 1a 3f 66 bd c7 3e e9 e7 3e 3e
       -0.11974692 0.60505795 0.39011687 0.18643154
0002c0 79 18 e5 3d ce b8 5b be 0c f8 8b be 54 63 47 be
       0.111863084 -0.21457216 -0.27337682 -0.19471484
0002d0 29 f1 a7 be a8 70 0a be 91 17 8f be f0 4a a6 be
       -0.32801178 -0.13519537 -0.27947667 -0.32479048
0002e0 ed 65 29 3f ba 0f f0 bc 0d 3e 8e 3d 07 12 b0 be
       0.6617115 -0.029304374 0.06945429 -0.34388754
0002f0 56 9a 44 bc 83 f4 05 3f 24 59 e1 3e 0e 90 35 be
       -0.011999687 0.5232622 0.4401332 -0.17730734
000300 b9 36 d7 3d 3b 64 2a bd 5b 92 88 3e b1 4f c4 bd
       0.105084844 -0.041599493 0.2667416 -0.095855124
000310 3a 0a 56 3e 4b b9 23 be 99 45 50 3c d1 0f 25 3e
       0.20902339 -0.15988652 0.012711906 0.16119315
000320 86 59 d6 bd 83 b0 f6 3d be 24 8b be 55 79 50 3d
       -0.10466294 0.12045386 -0.2717647 0.05089696
000330 09 b5 7a 3d 64 e2 10 bf a1 84 09 3e 75 18 16 3f
       0.061207805 -0.56595445 0.134295 0.5863107
000340 9f 00 0e 3e 61 32 2a be 51 bb d0 3e d0 ce 02 3d
       0.13867424 -0.1662078 0.4076791 0.031935513
000350 51 4d 24 3f b8 d0 2e 3e 7c 1f d8 bd eb 21 98 bd
       0.64180475 0.17071807 -0.1055288 -0.07428344
000360 df e3 06 bf 9c 5f 92 3e d0 4e ac be e2 16 9b be
       -0.52691454 0.2858857 -0.3365388 -0.30290896
000370 7a a5 86 3e e9 bf f0 3d 8a c5 15 be 5a ea f5 3d
       0.26298124 0.11755354 -0.14626136 0.1200759
000380 b9 f2 65 be 69 cf 60 be f3 69 c1 bc 6e bf 88 be
       -0.22455873 -0.2195412 -0.02361009 -0.2670855
000390 b0 2b 58 bd c1 09 c9 be b5 3a 64 3e 3e a2 ac 3e
       -0.05277604 -0.39265254 0.2228802 0.3371753
0003a0 5b 35 a6 3d 59 68 33 3d f1 e4 0a bf 6d 91 47 bd
       0.081156455 0.043800686 -0.54255587 -0.048722673
0003b0 67 0f c0 be 8b 3c 2d 3e 3f 86 bc 3d f3 e6 95 3e
       -0.3751175 0.16917627 0.09205293 0.29277763
0003c0 06 81 52 be ff d8 e1 3e
       -0.20557031 0.44110867

static_variable_selection.flattened_grn.gate_norm.glu.fc.bias f4 [22]
000000 86 6c 3e be c5 6c 6a be a1 f9 45 be 87 34 1b 3e
       -0.18596086 -0.22893055 -0.19333507 0.15156756
000010 3d bf 2a be b0 02 30 be 26 7b 89 3c b4 c4 34 3e
       -0.16674514 -0.17188525 0.016782355 0.17653161
000020 78 25 53 be 0a e9 39 3e a6 d8 f0 3d 74 46 f5 bd
       -0.20619762 0.18155304 0.117600724 -0.119763285
000030 a7 29 70 bd eb d5 44 be 3b c7 88 be dd c1 26 3e
       -0.058633473 -0.19222228 -0.267145 0.1628489
000040 29 b6 3c be 7e 2f 2a 3e 84 a8 3a 3e de c3 4c 3e
       -0.18428864 0.1661968 0.18228346 0.19996592
000050 2e bd 3a be c8 eb 8e be
       -0.18236229 -0.27914262

static_variable_selection.flattened_grn.gate_norm.add_norm.norm.weight f4 [11]
000000 7b 20 52 3f 6d 86 1d 3f 5b fe 51 3f d2 de 88 3f
       0.8208081 0.6153324 0.8202874 1.0692999
000010 96 da 63 3f 8f 94 87 3f 6e dc 6a 3f a0 36 5a 3f
       0.8900541 1.0592211 0.917426 0.852396
000020 2f ac 96 3f 47 aa 97 3f 7f e7 59 3f
       1.1771296 1.184884 0.8511886

static_variable_selection.flattened_grn.gate_norm.add_norm.norm.bias f4 [11]
000000 9c fe 3d be 8c 60 d8 3e 5a 54 23 3e 46 09 0c 3e
       -0.18554157 0.4226116 0.15950146 0.13675413
000010 2e cd 47 be cc c2 7d be ed 65 14 be f4 96 5f 3e
       -0.19511864 -0.2478134 -0.14492007 0.21834928
000020 23 75 2d be 87 2d 5f 3e 09 38 8e 3e
       -0.16939215 0.21794711 0.27777126

static_variable_selection.single_variable_grns.encoder_length.resample_norm.mask f4 [16]
000000 e2 f9 2d 3e 35 1b 36 be 35 2c 0d be f6 3a 37 be
       0.16989854 -0.17783816 -0.13786395 -0.17893586
000010 21 c5 05 be 53 a2 38 be 8b 88 40 3e 7f 14 1e be
       -0.1306348 -0.18030672 0.18802087 -0.15437506
000020 b8 a3 8e be 3d 5e 2f 3e 21 7b 2c be c4 87 33 3e
       -0.27859282 0.17125793 -0.16843845 0.17532259
000030 8e d1 39 3e 78 c8 42 be a8 20 3d 3e 9e 18 39 be
       0.18146345 -0.19021785 0.18469489 -0.18075797

static_variable_selection.single_variable_grns.encoder_length.resample_norm.norm.weight f4 [16]
000000 12 8a 95 3f 05 67 52 3f 62 9a 5c 3f ee ce 51 3f
       1.1682761 0.82188445 0.8617307 0.81956375
000010 25 b4 55 3f 73 37 97 3f 24 ff 97 3f 89 d9 4a 3f
       0.83478004 1.1813797 1.1874738 0.7923818
000020 28 fb 36 3f 85 1c 95 3f 17 b6 93 3f ad c0 96 3f
       0.71476984 1.1649328 1.1539944 1.177755
000030 76 24 97 3f 94 8a 4e 3f 1c 70 97 3f eb 6b 4d 3f
       1.1808002 0.80680203 1.1831088 0.80242795

static_variable_selection.single_variable_grns.encoder_length.resample_norm.norm.bias f4 [16]
000000 f5 4f 2b 3e f4 09 36 be 7c 76 06 be 6f e4 38 be
       0.1672972 -0.17777234 -0.13131136 -0.1805589
000010 dd 21 2c be 59 95 39 3e f8 b2 40 be f3 15 56 3e
       -0.16809793 0.18123378 -0.18818271 0.2090681
000020 f4 5d 90 3e 90 8e 2c be 58 dd 25 3e ed 6c 37 3e
       0.2819668 -0.16851258 0.16197717 0.17912646
000030 07 32 39 be 83 d3 44 3e b9 61 3b be 74 79 34 3e
       -0.1808549 0.1922131 -0.18298997 0.17624456

static_variable_selection.single_variable_grns.encoder_length.fc1.weight f4 [8, 8]
000000 e7 15 5e bf 8a bb 41 3c 07 5f 62 3d 88 8d 75 3f
       -0.8675217 0.011824498 0.055266406 0.95919085
000010 dc b1 2f bf f1 26 06 3f 4d 11 5a 3e 0f 95 3d be
       -0.68630767 0.5240317 0.21295662 -0.18513893
000020 9d 04 9a 3e 5d 4c 46 bf 04 ab 91 bd c3 f6 87 bc
       0.30081645 -0.7746027 -0.07112697 -0.016597157
000030 cc e4 bd 3e fd d7 bb 3d fb e2 05 bf b6 c6 05 bf
       0.3708862 0.09172056 -0.5229947 -0.52256334
000040 da e9 2c bd 0d 14 2e be bb 7f dc be 26 e0 a8 bf
       -0.042215206 -0.16999836 -0.430662 -1.3193405
000050 08 36 a3 bf 48 f3 36 3f 0c 64 1e bf 8f 97 b0 3e
       -1.2750864 0.7146497 -0.6187141 0.3449063
000060 79 f4 93 3d b2 e6 73 3c 39 ea 50 bf 82 18 9e 3f
       0.07224364 0.014886545 -0.81607395 1.2351229
000070 bc 9a 53 3f 36 41 00 bf 31 1e 79 3f e7 33 44 bf
       0.8265798 -0.50099504 0.97311693 -0.76641697
000080 c6 3a 94 bd 02 dd cc bd 40 9c bf 3e 45 05 12 3e
       -0.07237773 -0.100030914 0.37423897 0.14259823
000090 94 55 99 3e e4 0e 29 bf 2c cd 48 be 6b 7f 68 3e
       0.29948103 -0.66038346 -0.19609517 0.22704856
0000a0 d0 a5 e6 3e 91 18 4f 3f 2f 27 f5 be a4 ac bb 3e
       0.4504838 0.8089686 -0.47881457 0.36655152
0000b0 0e 3b 51 bf f3 99 f3 3d f3 24 86 bf 5f b8 5d 3e
       -0.81730735 0.11894598 -1.0480026 0.21652363
0000c0 c7 0a da 3e d8 34 e9 3e 2c 92 1a be ec 5a e0 3e
       0.42586347 0.4554813 -0.15094823 0.43819368
0000d0 46 68 bb 3f 7a 4d 18 be c5 9e 60 bd 46 54 44 3f
       1.4641197 -0.14873305 -0.054838914 0.7669109
0000e0 28 33 8e be c1 a2 5b 3b 9d 5b 55 3f a7 6b a0 3d
       -0.27773404 0.0033513757 0.83342916 0.07833033
0000f0 6f 1d 26 bf 73 ee 2d bf 6e 56 a5 be 10 f6 a7 bf
       -0.6488866 -0.6794197 -0.32292503 -1.3121967

static_variable_selection.single_variable_grns.encoder_length.fc1.bias f4 [8]
000000 c2 15 17 3e e5 a3 5f 3e 6c 13 42 3e b4 ca 31 be
       0.14754394 0.21839865 0.18952721 -0.17362481
000010 28 43 43 be 08 ec 61 3e c2 b2 37 be 78 ff 38 3e
       -0.19068587 0.22062695 -0.17939284 0.18066204

static_variable_selection.single_variable_grns.encoder_length.fc2.weight f4 [8, 8]
000000 d1 29 9e 3e 86 20 33 bf 0a 34 40 3e 65 40 a3 3e
       0.30891278 -0.699715 0.18769851 0.31885067
000010 f2 20 8a be 4c ce 56 bf b7 d8 98 be d8 8b 53 3f
       -0.2697826 -0.83908534 -0.2985284 0.8263526
000020 fa 12 1a bf 3a 58 22 bf fc f1 45 bf ac 51 2f 3f
       -0.60185206 -0.63415873 -0.77322364 0.68483996
000030 11 e9 2c bf e8 60 42 bf 64 1b 20 3f bc 35 67 bf
       -0.6754313 -0.7592912 0.62541795 -0.9031637
000040 de 37 e7 bd b3 5a 94 3f 24 ff ab be e2 9e 8d 3f
       -0.11289953 1.1590179 -0.33593094 1.1064112
000050 79 0e 9d be 22 67 ad bc d9 10 82 3f dc 23 f3 3e
       -0.30675104 -0.021167342 1.0161391 0.47488296
000060 92 cb 0d 3f 3e a0 b5 3c 1f 0b 61 be 5d 33 e4 be
       0.5538875 0.022171136 -0.21976899 -0.44570437
000070 c9 cb 11 be ba 23 81 be bf 64 c4 3e cd f7 1e bf
       -0.14237894 -0.2522257 0.38358113 -0.62096864
000080 95 1a 77 3e 5d 2b 30 bf ab 81 92 bf 06 0c 17 3f
       0.24131234 -0.6881617 -1.1445822 0.5900272
000090 7f 39 d9 be b4 b5 02 be 5e f0 d0 3d e9 a0 33 bf
       -0.4242668 -0.12764627 0.102020964 -0.70167404
0000a0 a3 06 d7 3e bf c8 b1 bc 58 f6 9c 3e d2 23 75 bd
       0.4199725 -0.021702169 0.30656695 -0.059848614
0000b0 b4 fa ed be ec 42 0f be 92 1e c2 be a3 b6 a6 3d
       -0.46480334 -0.13990372 -0.37913948 0.08140304
0000c0 99 0c e0 3e 19 3a 16 bf 95 d2 c3 3e a3 f7 39 3f
       0.4375961 -0.586824 0.382466 0.7264349
0000d0 64 3c 3e 3e d8 8d 4e bf a9 45 9c 3e ac f8 3a bf
       0.18577725 -0.80685186 0.30521896 -0.73035693
0000e0 fe 56 d4 bd bb 0b b9 bd 04 26 bc 3e 08 03 c9 3e
       -0.10368155 -0.090354405 0.36747754 0.39260125
0000f0 c0 23 9a bf 3d ba 9d bf a0 7f 40 3f bf 6e d5 be
       -1.204216 -1.232246 0.7519474 -0.41686055

static_variable_selection.single_variable_grns.encoder_length.fc2.bias f4 [8]
000000 85 15 32 3e 1f ef 34 be fa 5d 31 be bd ac 3f be
       0.17391022 -0.17669342 -0.17321005 -0.18718238
000010 8b a2 42 be d2 7f 3a 3e f2 83 42 be 58 ca 34 be
       -0.19007318 0.18212822 -0.18995646 -0.17655313

static_variable_selection.single_variable_grns.encoder_length.gate_norm.glu.fc.weight f4 [32, 8]
000000 b4 3e 4f be 17 c9 d4 be 54 2b 2e 3d 17 9e d4 3e
       -0.20238763 -0.4155967 0.04252179 0.41526863
000010 44 9b b9 3d 21 4c 1e 3e 45 72 9d 3e 2a 30 96 be
       0.09062818 0.15458728 0.30751243 -0.2933362
000020 31 d0 85 bd e8 d5 b7 3d c7 9c 03 3f 9c ac c4 3e
       -0.0653385 0.08976346 0.514111 0.3841294
000030 00 f9 ba 3e ab ad 02 be 5f b7 cf 3d 6d 47 ab 3e
       0.36518097 -0.12761562 0.10142397 0.3345293
000040 bd e9 f1 3e e8 b3 62 3e 42 21 5c 3d 45 f9 97 bf
       0.4724864 0.22138941 0.053742655 -1.1872946
000050 b5 2e 1f be 2e c9 62 3e 7e 58 3c bf ea b9 78 bf
       -0.15545161 0.22147056 -0.7357253 -0.9715868
000060 9b d9 86 3d 71 c9 00 3f bc 35 d4 3e e6 6d 31 3f
       0.06584474 0.50307375 0.41447246 0.69308317
000070 11 c8 80 3e fe ef 50 be 78 04 c8 3d 0d 33 55 3e
       0.2515264 -0.2040405 0.09766477 0.20820256
000080 9e 98 0f 3f de be fa be 9c 44 27 3d a4 35 be be
       0.5609225 -0.48973745 0.040836915 -0.371503
000090 97 5f 0d 3e 57 f3 c8 be 93 50 a2 3d eb 25 f2 3e
       0.13805996 -0.39248154 0.079255246 0.47294554
0000a0 df 2d 99 bd a4 50 b9 3b 08 20 12 3d c1 9c 92 bd
       -0.07479452 0.005655365 0.03567508 -0.07158805
0000b0 99 9d dd be e9 e9 be 3d be f7 d1 3e c5 bd 99 bb
       -0.432843 0.093219586 0.41009325 -0.0046918117
0000c0 e2 6f ae 3e 34 51 97 3e a0 b1 81 3e a7 a0 0e 3e
       0.34069735 0.2955414 0.2533083 0.13928472
0000d0 79 f8 e0 3e 03 81 42 3e b1 81 88 3d fc 0b 07 3f
       0.4393957 0.18994527 0.06665362 0.5275266
0000e0 82 da b9 be b8 f5 0b 3e 16 c0 b3 be 74 f2 81 be
       -0.3629952 0.13667953 -0.35107487 -0.2538029
0000f0 28 33 04 3f ec c1 3f be c1 2d 7f 3e 19 d4 1d 3e
       0.5164056 -0.18726319 0.24919797 0.1541294
000100 00 b0 d6 3e 72 56 6c 3c bc af b6 3b 8e 99 ae be
       0.41931152 0.014424907 0.0055751484 -0.34101528
000110 19 b8 7f 3d 20 10 9b be 82 55 b5 3e 1f 2d 2a be
       0.06243143 -0.3028574 0.354168 -0.16618775
000120 df 23 0f bf 72 d4 78 3e af 88 dd 3e 3e 18 e0 be
       -0.5591411 0.24299791 0.43268344 -0.43768495
000130 6d 2b 48 be b8 71 e2 3e bc d4 15 3e b9 ee 85 3e
       -0.19547816 0.44227386 0.14631933 0.26158693
000140 b5 29 c6 be 3f f6 f6 bc 8c 62 ce bd 04 86 ea 3d
       -0.38703695 -0.030146716 -0.1007739 0.11451343
000150 3a 95 39 be af 20 d5 be 83 0c 1f be d0 ee 38 be
       -0.18123332 -0.41626498 -0.15532117 -0.1805985
000160 10 40 37 be 69 30 f2 3d a8 e2 09 be 53 96 a1 3d
       -0.17895532 0.1182564 -0.13465369 0.0789
000170 78 04 9d 3c 42 5d 3d bd 27 00 5e 3e ba 1b fe bd
       0.01916717 -0.046231516 0.21679746 -0.12407632
000180 ba d1 88 bc 24 0a fa 3e 75 ff 1b 3e 1a 47 e0 3d
       -0.016701568 0.48835862 0.15234168 0.109510615
000190 be 11 3d be c4 41 ec ba f2 79 e7 3d c1 86 b6 3e
       -0.184638 -0.0018024971 0.11302556 0.35649684
0001a0 90 43 b9 be 89 64 d3 3d d9 86 e4 bd aa 78 9e bf
       -0.3618436 0.1032191 -0.11158533 -1.2380574
0001b0 fa 9e 90 be 81 40 b8 be a3 03 25 be 47 7c 1b bf
       -0.2824629 -0.35986713 -0.16114669 -0.6073651
0001c0 fd 5f 0b 3e a0 ff 30 3e a5 a1 33 3e 96 d4 95 bc
       0.13610835 0.17285013 0.17542131 -0.018289845
0001d0 56 a7 85 3e 0a 7a ce 3e 00 5f 86 be 9e e8 8b 3e
       0.2610423 0.40327483 -0.26244354 0.2732591
0001e0 fe f5 b0 3d 3b d1 1b be 6c 9c ff be 60 ea 5c 3f
       0.08640669 -0.15216534 -0.49924028 0.8629513
0001f0 44 3c 49 be 30 5e ba be e1 c6 f9 3e da 7a d1 be
       -0.19651896 -0.36399984 0.48784545 -0.4091404
000200 f2 4d 13 be d2 2a aa 3e 08 aa 15 3d 34 e0 7d 3a
       -0.14385203 0.33235794 0.036539108 0.0009684593
000210 e1 03 07 3f be a6 22 be 8d 66 20 3e 3f 15 15 bd
       0.52740294 -0.1588392 0.1566412 -0.036397215
000220 37 b2 12 3f a8 56 68 bd ad 84 84 3e 77 10 62 bd
       0.57303184 -0.056723267 0.25882474 -0.055191483
000230 b5 59 0f bf 7b 49 cc 3c 35 5e ab 3e 43 fa 02 3e
       -0.5599626 0.024937382 0.33470312 0.1279078
000240 98 ac 03 be 49 5d 2f 3e 50 33 54 be 7d 69 33 bf
       -0.12858808 0.17125429 -0.20722699 -0.7008284
000250 6d 22 fa bd 29 d0 0c be 6a 72 f5 be 01 82 23 bf
       -0.122135974 -0.13751282 -0.47938854 -0.63870245
000260 b3 da f2 bd 09 75 a0 be 1e a0 cb be b9 e6 8d 3e
       -0.1185812 -0.3133929 -0.39770597 0.2771509
000270 30 3f eb be 3b 9a 07 bf 82 10 0a 3e 45 6c 9b be
       -0.45946646 -0.5296971 0.1348286 -0.3035604
000280 0a 69 c7 3c 13 26 c4 3d 51 d8 bc be c9 10 1e 3e
       0.024342079 0.095775746 -0.36883786 0.1543609
000290 eb 2d d1 3d 83 c4 66 be 41 5b ad 3e 80 24 77 be
       0.10213836 -0.22535901 0.33858684 -0.24135017
0002a0 8c 4a 81 3e c9 5b b2 3e 46 c3 ae bd 1f b7 9b 3e
       0.25252187 0.34835652 -0.08533339 0.30413148
0002b0 ba 0e 8a bb a3 a3 a9 3c 14 18 25 be 18 dc c2 3d
       -0.0042131813 0.02070791 -0.16122466 0.09514636
0002c0 42 0d d9 be a2 2d cf bd cc 27 64 bd 49 f2 4d bf
       -0.42392927 -0.10116126 -0.055702016 -0.8044782
0002d0 6c bb 22 bc d0 2d 42 bc 76 76 f6 3e 6b 51 ff bc
       -0.00993238 -0.011851743 0.48137254 -0.031166753
0002e0 8b b7 93 3e ed 57 19 3e 21 55 5b 3e bd 9e c6 3e
       0.2885097 0.14974947 0.21419193 0.38792983
0002f0 da 1a 9c 3d f6 35 81 3e 03 d4 0c 3f d5 53 6f 3e
       0.07622309 0.2523648 0.55011004 0.23371823
000300 7f 30 53 3e c7 0d 0a 3e b7 db c0 3e 6b fd 0a 3f
       0.20623969 0.13481818 0.3766763 0.54292935
000310 4a 13 83 3e 74 81 0a bf ef f0 bc be b2 80 7d 3e
       0.25600654 -0.5410378 -0.36902568 0.24756125
000320 ee bb 03 bf 8b b1 cc be bd 75 0f 3c 47 21 2a 3e
       -0.5145863 -0.39979205 0.008756098 0.16614257
000330 c8 00 f4 be ed 99 0a bf 21 39 e5 3e aa af 87 bd
       -0.47656846 -0.5414112 0.44770148 -0.06625302
000340 e7 27 d6 bc b3 5d d4 3d b4 29 4a 3d 63 a8 0d bd
       -0.026142074 0.10369434 0.049356177 -0.034584414
000350 65 31 08 3f aa 14 93 be 4c 38 1c 3e 52 85 9f 3b
       0.5320037 -0.28726703 0.1525585 0.004868188
000360 f3 b9 5a 3e d7 33 f3 3e 94 61 3f 3e b1 4e 9d 3e
       0.21359996 0.47500488 0.18689567 0.307241
000370 fb b0 d4 3e 03 3e 50 be bd e2 ab be 81 33 0f 3f
       0.41541275 -0.20336156 -0.33571425 0.55937964
000380 62 03 a9 3e 4c 2d ac 3e ad 57 b4 bd e9 f9 dd 3e
       0.33010393 0.3362831 -0.08805785 0.4335473
000390 25 ae 07 ba ad 35 88 3e e8 1b 51 3e 54 98 a8 bd
       -0.0005175791 0.2660345 0.20420802 -0.08232179
0003a0 b2 02 39 3e 17 f3 c9 3e 10 8c 3f be de 42 e1 be
       0.18067434 0.39443275 -0.18705773 -0.43996328
0003b0 61 57 e5 be 53 5f 8f 3e 75 b1 e1 be 70 86 0d bf
       -0.44793227 0.28002414 -0.440807 -0.5528326
0003c0 d2 6a c8 3d bd 14 00 bf 27 21 0e bf 0d 50 c1 3d
       0.09785999 -0.50031644 -0.55519336 0.094390966
0003d0 eb 70 df be cf a2 58 bd 9a aa a7 bd fd 58 73 3e
       -0.43640837 -0.05288964 -0.081868365 0.23764415
0003e0 1c 7d 9b bd 54 56 91 be b0 3a 35 bd 46 9a 39 bf
       -0.07592222 -0.28386176 -0.044245422 -0.7250103
0003f0 a3 eb e6 be 6c 34 b9 be e2 ec 14 bd e4 62 9b be
       -0.45101652 -0.36172807 -0.03635872 -0.30348885

static_variable_selection.single_variable_grns.encoder_length.gate_norm.glu.fc.bias f4 [32]
000000 7e 09 2f 3e f2 d3 37 be 09 e9 3f bd 2e 8d 39 be
       0.17093465 -0.17951944 -0.0468531 -0.18120262
000010 64 56 33 be 06 ae 39 3e 2f 4f 44 be 08 81 3c 3e
       -0.17513424 0.18132791 -0.19170831 0.18408597
000020 d2 5e 4f 3e 6e cd 28 be c0 6e 25 3e 63 62 38 3e
       0.20251015 -0.16484615 0.16155529 0.18006282
000030 ee 1a 39 be de b6 49 3e ea 81 3f be 77 9b 32 3e
       -0.18076679 0.19698665 -0.18701902 0.17442118
000040 63 87 43 be a6 e1 8c be 00 d5 67 3e 8d f3 41 3e
       -0.19094615 -0.27515906 0.22639847 0.18940563
000050 ed 7a 3a 3e fc aa 3c be 15 19 46 3e 6e 6c d9 bd
       0.18210955 -0.184246 0.19345506 -0.106163844
000060 83 86 58 be 9e 13 1e 3e ce af 77 be b6 09 39 be
       -0.21145062 0.15437171 -0.24188158 -0.1807011
000070 03 cd 38 be 91 88 0f bd 01 48 25 3e aa 03 3b 3e
       -0.18046956 -0.03504235 0.16140749 0.18263116

static_variable_selection.single_variable_grns.encoder_length.gate_norm.add_norm.norm.weight f4 [16]
000000 d2 4f 8d 3f 20 29 53 3f f5 cc 5c 3f fd 96 53 3f
       1.1039984 0.82484627 0.8625024 0.82652265
000010 c3 af 50 3f 1a 27 55 3f 16 61 98 3f 03 2d 4f 3f
       0.8151819 0.8326279 1.1904628 0.8092806
000020 81 7a 50 3f 9c 73 8e 3f bd ef 21 3f d7 72 95 3f
       0.81436926 1.1129031 0.63256437 1.1675671
000030 c5 0f 51 3f 10 52 52 3f c3 82 94 3f 50 48 93 3f
       0.8166469 0.8215647 1.1602405 1.1506443

static_variable_selection.single_variable_grns.encoder_length.gate_norm.add_norm.norm.bias f4 [16]
000000 ce 05 1d 3e 05 7b 38 be 33 6f 1d be 79 3d 3a be
       0.15334246 -0.18015678 -0.1537445 -0.18187512
000010 15 95 39 be d1 5b 3b 3e 05 2b 41 be b2 7e 4b 3e
       -0.18123277 0.18296744 -0.18864067 0.19872549
000020 41 fa 58 3e a6 cf 03 be 5e 7a 0f 3d 3a f2 39 3e
       0.21189214 -0.1287218 0.035028808 0.18158808
000030 c2 9f 34 be 28 57 50 3e f5 5a 37 be 03 d3 2b 3e
       -0.17639068 0.20345747 -0.17905791 0.16779713

static_variable_selection.single_variable_grns.Temperature_center.resample_norm.mask f4 [16]
000000 5c d4 29 be 66 d3 2c 3e 60 94 5f be a4 a9 5e 3e
       -0.16584915 0.16877517 -0.21833944 0.217444
000010 5d 2d 58 3e 90 25 69 3d d4 23 5b be 50 35 83 3e
       0.21111055 0.056920588 -0.21400386 0.25626612
000020 f2 f6 44 be b0 fc 38 be 99 e5 2f 3e 65 27 3b be
       -0.19234827 -0.18065143 0.17177428 -0.18276747
000030 db 15 24 be 40 df ec 3e b1 80 89 be c7 fb 7a be
       -0.16023962 0.46264076 -0.26855996 -0.24510108

static_variable_selection.single_variable_grns.Temperature_center.resample_norm.norm.weight f4 [16]
000000 ea ab 5f 3f de ac 97 3f c0 76 57 3f 6a ce a0 3f
       0.87371695 1.184963 0.84165573 1.2562993
000010 4c db 28 3f 6d b5 91 3f b5 33 48 3f a4 b4 a5 3f
       0.6595962 1.1383492 0.782039 1.2945752
000020 40 a6 a9 3f 9e dd 7b 3f 41 46 a0 3f 41 03 53 3f
       1.325386 0.98385036 1.252144 0.8242684
000030 c8 8a 56 3f d8 21 b6 3f 43 77 44 3f 34 85 65 3f
       0.83805513 1.4229078 0.7674448 0.89656377

static_variable_selection.single_variable_grns.Temperature_center.resample_norm.norm.bias f4 [16]
000000 23 b6 04 3e 48 51 3a be f6 0e 78 3d 99 67 51 be
       0.12960105 -0.18195069 0.060561143 -0.20449676
000010 f0 a7 8b be 24 71 17 3e 9b 2e 65 be 2f 01 a8 3e
       -0.27276564 0.14789253 -0.2238106 0.32813403
000020 66 38 a8 3e 62 e2 d9 3d b6 77 aa be 45 ba 26 3e
       0.3285553 0.10638882 -0.33294457 0.16281994
000030 d1 b5 19 be f6 47 e8 3e 8e e4 70 be a7 0c 6c bc
       -0.15010764 0.45367402 -0.23524687 -0.014407313

static_variable_selection.single_variable_grns.Temperature_center.fc1.weight f4 [8, 8]
000000 ad d8 4a 3c de a8 d1 3e c4 f6 cd 3c 4c 39 32 3f
       0.012380761 0.40949148 0.025142081 0.6961868
000010 ab 08 f0 3e 59 23 27 3f 86 7b 0c be f9 4b a6 be
       0.46881613 0.6528831 -0.13718995 -0.32479838
000020 55 8c fe 3c be 23 58 be 83 24 2e bb 4d 57 15 be
       0.031072775 -0.21107385 -0.0026572056 -0.14584084
000030 2d 05 9f be e0 6a da be 8c b1 ba bd 25 50 06 bf
       -0.31058636 -0.42659664 -0.09115896 -0.5246604
000040 82 93 dd be 4f 01 01 be 21 ee 29 be bd 50 ce 3e
       -0.43276602 -0.12598155 -0.16594745 0.40295973
000050 7e 00 04 bf 53 d0 0d 3f cd 86 e1 be dc 54 f3 be
       -0.5156325 0.55396 -0.44048157 -0.4752568
000060 1d 3e b5 bc 58 45 8e be ba 4a e5 3e c3 f3 27 3e
       -0.022124344 -0.2778728 0.44783574 0.16401581
000070 bd ec c2 bd ef 8e 55 3c 0d 46 91 bf b7 f2 3f 3e
       -0.095178105 0.013034566 -1.1349503 0.18744932
000080 1c c6 2e be 0a 63 1b 3d e1 b6 6a 3f 25 17 82 bd
       -0.1706776 0.037936248 0.916853 -0.06352071
000090 e3 d5 da 3e 01 00 a6 be 08 6a 2d 3f ec ae 6c bd
       0.42741308 -0.32421878 0.67739916 -0.057784006
0000a0 77 93 63 bf 3a 8e f5 be 2f 9c 24 bf 52 a6 e1 3e
       -0.8889689 -0.47960073 -0.6430082 0.44072205
0000b0 f1 32 6c be 5e c6 32 3c 47 92 90 3e 22 a1 17 3e
       -0.23066308 0.010911552 0.282366 0.14807561
0000c0 bc 3c 22 be 1f 9a 99 be 06 51 07 3f 15 07 a8 be
       -0.15843481 -0.30000398 0.52858007 -0.32817903
0000d0 d3 76 53 3e f4 28 99 be 38 2c 2b 3e a8 3d f8 be
       0.20650797 -0.29914057 0.16716087 -0.4848454
0000e0 c8 c8 35 bf 42 37 52 3f ce 4f 3a 3e a7 4b 45 3e
       -0.7100949 0.82115567 0.18194506 0.1926714
0000f0 68 33 db 3e e9 d8 53 3f 42 e5 2a be ce 80 bb 3d
       0.42812657 0.82752854 -0.16689017 0.09155427

static_variable_selection.single_variable_grns.Temperature_center.fc1.bias f4 [8]
000000 3f 68 36 3e 9b 52 18 be 85 83 91 3d 55 f5 92 3e
       0.17813204 -0.14875261 0.071051635 0.28702798
000010 0c 7a e9 bd 76 ac a3 3d b7 a8 2d 3e 2a a3 6b be
       -0.11400232 0.07991879 0.16958891 -0.23011461

static_variable_selection.single_variable_grns.Temperature_center.fc2.weight f4 [8, 8]
000000 d4 10 3d bf d5 75 2d 3f 12 45 f0 3e 35 3b 3e be
       -0.738538 0.6775792 0.46927696 -0.18577273
000010 1c 10 8c 3c 15 ed 71 3f 4e b1 c8 3c c2 1e c9 3e
       0.017097525 0.94502383 0.024498608 0.3928128
000020 a6 f6 95 be c4 b6 bb 3e 87 89 a9 bc 97 27 d5 3b
       -0.2928974 0.36662877 -0.020695461 0.0065049636
000030 19 4f 26 bf f4 bd 37 3e 03 ad c2 be 7b f2 d4 3e
       -0.64964443 0.17943555 -0.38022622 0.41591248
000040 c9 5f 5b bd 46 cb bf 3d bc 0e 21 be bb b8 be be
       -0.053558145 0.09364943 -0.15728277 -0.37250313
000050 1c 21 76 3c 94 2d 6a 3e f3 56 9b bf 03 c0 56 bd
       0.015022542 0.22868949 -1.213591 -0.05242921
000060 94 1b 6a bd 38 16 2d bf b3 82 9d 3b 27 66 8d bd
       -0.057155207 -0.6761203 0.0048068403 -0.0690425
000070 c2 a0 df be 5b 3d 8e 3e ed 83 bb bb 83 ad 03 3f
       -0.43677336 0.27781186 -0.005722514 0.5143663
000080 86 8c d5 3d 37 f3 c2 bd f9 8e 6a be 58 ad 98 be
       0.10427193 -0.09519046 -0.22906102 -0.2981975
000090 19 75 23 bf 6c 6f 13 be ec 4e 56 bc 66 b5 a2 3f
       -0.6385055 -0.14397973 -0.01308034 1.2711608
0000a0 26 25 1c bf b3 23 13 3f 7f 20 8c be f8 f4 80 3d
       -0.60994184 0.5747635 -0.27368543 0.06296724
0000b0 73 dd f6 3c 22 a0 92 be eb 3f 20 3e 1c cc c5 3e
       0.030134892 -0.28637797 0.15649383 0.38632286
0000c0 45 54 26 bd db 35 de 3e a0 f8 5d be 40 f6 d3 bd
       -0.04060771 0.43400463 -0.21676874 -0.10349703
0000d0 86 84 95 be 4c 39 0d 3f e9 19 66 3f 2d 9e ce bd
       -0.2920267 0.55165553 0.89883286 -0.100887634
0000e0 52 a7 1c bf 56 2f 59 3d 72 1f 57 bf 62 f9 f5 3d
       -0.6119281 0.05302366 -0.84032357 0.120104566
0000f0 a4 d3 31 3f 36 3f 9b 3e 9f 0f f0 3e fe 45 6f bf
       0.6946356 0.30321664 0.46886918 -0.93466175

static_variable_selection.single_variable_grns.Temperature_center.fc2.bias f4 [8]
000000 a8 c9 04 3e 0f 36 96 bb 8a 99 f7 3d ac 2e 75 be
       0.12967551 -0.004584081 0.12089832 -0.23943585
000010 b0 c7 89 3c 77 9a 2b be 64 8b 6c 3e f8 b0 7c 3e
       0.016818851 -0.16758142 0.23100048 0.24676883
